6_DeepAutoencoders/simple_ae.pt (torch_old, 98952 bytes, 12 tensors)

encoder.fc1.weight f4 [66, 133]
0	0xbd90c892	-0.07069506
1	0xbd5fc007	-0.05462649
2	0x3ce685b4	0.028139926
3	0x3c2dfee0	0.010619849
4	0x3c6546b0	0.013993904
5	0x3ce10924	0.027470179
6	0x3b445900	0.0029960275
7	0xbcd3375a	-0.02578323
8	0xbd267a32	-0.04064388
9	0x3b6a1580	0.0035718381
10	0x3af36a40	0.0018571094
11	0x3d9c51fd	0.076328255
12	0xbc83cb34	-0.016088106
13	0xbdaab081	-0.08334447
14	0x3d8aa7e7	0.06770306
15	0xbb4a5500	-0.0030873418
16	0x3d12e26e	0.03586047
17	0xbd570e0c	-0.05250363
18	0xbd9c296b	-0.07625087
19	0x3d1fae66	0.03898468
20	0x3a91a5c0	0.001111202
21	0x3d635776	0.05550333
22	0xbd011e9f	-0.031523343
23	0xbd81d45e	-0.06339334
24	0xbd064317	-0.032778826
25	0xbd4f911e	-0.050675504
26	0x3d42c39a	0.04754982
27	0xbd40776f	-0.0469889
28	0xbb2b0aa0	-0.0026098862
29	0x3b150920	0.0022741035
30	0x3cb1ce44	0.0217048
31	0x3d3d5f9a	0.04623375
32	0xbd9f35df	-0.07773947
33	0x3d6e0d82	0.05811835
34	0x3cbaca40	0.022801518
35	0x3ac3b580	0.001493141
36	0x3bde14f0	0.0067773983
37	0x3ccf3d1c	0.025297694
38	0xbc8ecde4	-0.01743216
39	0x3cee2958	0.029072449
40	0x3d3fa76a	0.046790518
41	0xbd8005e6	-0.06251125
42	0xbda9b3b2	-0.08286227
43	0x3cd44010	0.025909454
44	0xbdb19007	-0.08670049
45	0x3d43a6ce	0.0477665
46	0xbd46512e	-0.048417263
47	0x3ccc17ac	0.024913631
48	0x3d102eb4	0.03520079
49	0x3ce6c400	0.028169632
50	0xbcff0fda	-0.031135488
51	0x3d232b06	0.039835952
52	0x3c221de0	0.009894818
53	0x3d1c6bc4	0.03818871
54	0x3d1687b6	0.036750518
55	0xbd8710ed	-0.06595025
56	0x3c9fdef8	0.0195155
57	0x3c900c30	0.017583936
58	0xbaf78440	-0.0018884018
59	0x3d1a08f2	0.037606187
60	0xbcff545a	-0.031168152
61	0xbc90aa40	-0.017659307
62	0xbbe788a0	-0.0070658475
63	0xbb5b3840	-0.0033450276
64	0x3d3e217e	0.04641866
65	0x3c93e714	0.018054523
66	0xbceeb4f8	-0.029139027
67	0xbc551f70	-0.013007984
68	0x3d5433f6	0.051807366
69	0xbd3c73fc	-0.04600905
70	0xbd468af4	-0.04847236
71	0xbd8c90ce	-0.06863557
72	0x3c8c6850	0.017139584
73	0x3bbcec60	0.005765483
74	0xbc89ec70	-0.016836375
75	0x3cde8384	0.02716232
76	0xbd860a79	-0.06544966
77	0x3ba3ec60	0.0050025433
78	0x3d02123a	0.031755663
79	0x3c1210c8	0.008915134
80	0x3ceeb8c4	0.029140837
81	0xbd3dd2ce	-0.046343617
82	0xbd74cf80	-0.0597682
83	0xbd388ae7	-0.045054343
84	0x3d96727b	0.07346054
85	0x3d5ecc1a	0.054393865
86	0xbd8ef181	-0.06979657
87	0x3d3a314a	0.045457162
88	0xbd604d7c	-0.054761395
89	0xbcd58c7c	-0.026067965
90	0x3c8bd520	0.0170694
91	0xbd424ae7	-0.047434714
92	0xbd6ff36d	-0.05858176
93	0xbd9198c8	-0.07109219
94	0x3d0a0fa2	0.033706315
95	0xbd9daf98	-0.076995075
96	0xbcf6c898	-0.030124947
97	0x3b91a4e0	0.0044447035
98	0x3d48fd06	0.049069427
99	0x3da8cc37	0.08242076
100	0x3b643000	0.003481865
101	0x3c0bb018	0.008525871
102	0x3d8eb52f	0.06968152
103	0x3d731d56	0.05935415
104	0xbd92ebbb	-0.07173868
105	0xbd7b0891	-0.061287466
106	0xbdacca48	-0.084370196
107	0xbd98b2af	-0.07455956
108	0xbd805279	-0.062657304
109	0x3d7a858e	0.061162524
110	0x3b7b2d40	0.0038326532
111	0xbd4443e3	-0.047916304
112	0xbd375c9e	-0.04476606
113	0xbbfcb780	-0.0077123046
114	0x3d783456	0.060596786
115	0xbd858cd3	-0.06521001
116	0xbd7a8f4d	-0.06117182
117	0xbd3716f5	-0.044699628
118	0x3d4b3e86	0.049620174
119	0xbd2c9f4e	-0.042144112
120	0x3bf605c0	0.0075080097
121	0x3d0aaf62	0.033858664
122	0x3d9977d7	0.07493561
123	0x3cd0bb10	0.025479823
124	0xbd323dd7	-0.043516006
125	0x3d8ad0ed	0.06778131
126	0xbb6b04a0	-0.003586091
127	0xbd0e3869	-0.034721766
128	0xbc874574	-0.01651261
129	0x3d977607	0.07395559
130	0x3d86286d	0.06550679
131	0xbd15e1a3	-0.036592137
132	0xbd899762	-0.06718327
133	0x3d827af2	0.06371106
134	0x3da0d9ab	0.07854017
135	0x3da93f71	0.082640536
136	0xbc44e713	-0.012017983
137	0xbc853208	-0.016259208
138	0x3dc46e69	0.095913716
139	0xbd513c3c	-0.051082835
140	0x3d5826d4	0.052771404
141	0x3da9b7b0	0.08286989
142	0x3c0f2c6f	0.008738621
143	0xbd381bfd	-0.044948567
144	0x3ce8f61b	0.028437665
145	0x3d303bb9	0.043025706
146	0x3c01dbd7	0.007925949
147	0x3db766d0	0.08955157
148	0xbc5168f6	-0.012781372
149	0xbd5f0445	-0.05444743
150	0xbd439705	-0.047751445
151	0x3bb56ed2	0.0055368925
152	0x3d52a5e0	0.051427722
153	0x3d5a6e3a	0.053327776
154	0xbd74ac25	-0.059734482
155	0x3db734d7	0.08945625
156	0xbc9d2a89	-0.019185321
157	0x3cd85954	0.026409782
158	0xbd077d14	-0.03307827
159	0x3dbbf2cd	0.0917717
160	0x3d673323	0.056445252
161	0x3d07c5b9	0.033147547
162	0x3ccc9bec	0.024976693
163	0xbd4475be	-0.04796385
164	0x3db9b582	0.09067823
165	0xbc127c3b	-0.008940752
166	0x3d59c3ea	0.053165354
167	0xbd5186e5	-0.051154036
168	0x3dd56359	0.1041934
169	0x3d86f022	0.065887704
170	0xbd80de7e	-0.06292437
171	0x3d4aaf6d	0.049483705
172	0x3d789e3b	0.060697775
173	0x3de22a86	0.11043267
174	0x3d43fda0	0.047849298
175	0xbcfdece7	-0.030996753
176	0x3dd0a064	0.10186842
177	0xbd8818d5	-0.06645361
178	0x3cf5d9c0	0.030011058
179	0x3d1b89e0	0.037973285
180	0x3cb5a4e0	0.022173345
181	0xbd1f524b	-0.03889684
182	0xbbccfee7	-0.0062559727
183	0x3bf821bd	0.0075723813
184	0x3d8da875	0.06916896
185	0xbd318267	-0.043337252
186	0x3d1578c5	0.036492128
187	0xba27c90f	-0.00064005045
188	0x3da6a465	0.081368245
189	0xbd188f67	-0.037246134
190	0x3b95eafa	0.0045751305
191	0x3c8ccb1c	0.017186694
192	0x3d97767d	0.07395647
193	0x3d85795b	0.06517287
194	0xbcf1380a	-0.029445667
195	0xbd63d1eb	-0.055620115
196	0x3d829532	0.06376113
197	0xbd22d2d1	-0.03975183
198	0x3d247d1a	0.04015837
199	0x3d941edc	0.072324485
200	0x3dbef35a	0.093237594
201	0x3c620cb2	0.013796972
202	0xbd187774	-0.037223294
203	0x3dc46a23	0.095905565
204	0x3c74a3a3	0.014931592
205	0xbcfea76d	-0.031085694
206	0xbc8240ec	-0.015900098
207	0xbcaa5dbb	-0.020796647
208	0x3dafa58a	0.08576496
209	0x3dcf9521	0.10135866
210	0x3dcb6ae2	0.09932496
211	0x3d99f830	0.07518041
212	0x3d46f82b	0.048576515
213	0xbcd7dcf6	-0.02635048
214	0xbd86a8b0	-0.06575143
215	0xbca4a906	-0.020100128
216	0x3cf5a3f1	0.0299854
217	0xbb9a3798	-0.0047063343
218	0x3c426852	0.011865692
219	0x3d152ac1	0.036417726
220	0xbcaf24fd	-0.021379942
221	0x3db4fdfe	0.08837508
222	0x3d182fa8	0.037154824
223	0x3d941526	0.07230596
224	0x3d35dc15	0.04439934
225	0x3cd4b62e	0.025965776
226	0xbccf2504	-0.025286205
227	0xbc7a3a16	-0.015272638
228	0x3d602ae5	0.054728407
229	0x3dae204e	0.085022554
230	0xbc13efd3	-0.0090293465
231	0xbd541c91	-0.051785056
232	0x3d9995d4	0.074992806
233	0xbd2fd5cf	-0.042928513
234	0x3cf9e539	0.03050481
235	0xbd3a8601	-0.045537952
236	0xbd20dde3	-0.039274108
237	0x3daaafce	0.08334313
238	0xbd8a524c	-0.06753978
239	0xbd5274d6	-0.051380955
240	0x3daaea7a	0.08345504
241	0x3d6158a1	0.055016164
242	0xbbe398c2	-0.0069457004
243	0x3bda5166	0.0066625355
244	0x3d1f4a46	0.038889192
245	0x3c32695c	0.010889377
246	0xbd00272a	-0.03128735
247	0xbd3801f7	-0.04492375
248	0xbd7b4f89	-0.061355148
249	0x3ddd5dde	0.10808919
250	0xbd667d9e	-0.05627214
251	0x3de17436	0.110084936
252	0x3dd28c05	0.10280613
253	0x3da45f39	0.08025975
254	0xbd2947f5	-0.04132839
255	0x3db9e224	0.09076336

encoder.fc1.bias f4 [66]
0	0xbd16dc60	-0.03683126
1	0xbd1d7915	-0.03844555
2	0x3de278ba	0.11058183
3	0xbd527f0c	-0.051390693
4	0x3d5da271	0.054109994
5	0x3ca6cb7f	0.020360706
6	0x3d85b621	0.06528879
7	0xbcaf33d0	-0.02138701
8	0x3d860629	0.06544144
9	0xbad4adb9	-0.001622609
10	0x3cd07300	0.025445461
11	0x3d666185	0.056245346
12	0xbb3d281b	-0.0028863016
13	0xbc5f18f2	-0.013616787
14	0x3d786f5c	0.060653076
15	0xbd86d88b	-0.06584271
16	0x3de376c6	0.111066386
17	0x3d39cf42	0.045363672
18	0xbd68731e	-0.05675041
19	0x3d97ade9	0.074062176
20	0x3dceb48d	0.10093031
21	0x3ca083fc	0.019594185
22	0xbcf947c0	-0.03042972
23	0x3cc556e4	0.024089284
24	0xbceb2272	-0.028702948
25	0x3cfec3d9	0.031099247
26	0xbd643b08	-0.05572036
27	0xbd930210	-0.07178128
28	0x3d4034be	0.0469253
29	0x3c86bc67	0.01644726
30	0x3d35219a	0.044221498
31	0xbc75240f	-0.01496221
32	0x3cc10806	0.023563396
33	0x3da66132	0.08124007
34	0xbd99c65f	-0.075085394
35	0x3dad0b19	0.08449382
36	0xbc5aceb8	-0.01335495
37	0x3caddf43	0.021224624
38	0x3d9d78ac	0.07689032
39	0xbd780ccf	-0.06055909
40	0x3d01c796	0.03168448
41	0xbd84d39d	-0.064856745
42	0x3d0711d9	0.032976005
43	0xbc669fc5	-0.014076178
44	0x3d0a7254	0.033800438
45	0x3a7a8ffe	0.00095581997
46	0x3da0900f	0.07839977
47	0xbd5d957a	-0.05409763
48	0x3dc85c05	0.09783176
49	0x3d6e2dd1	0.058149163
50	0xbc62fa40	-0.01385361
51	0xbd307f15	-0.043089945
52	0xbb8c1577	-0.0042750197
53	0x3c2aee58	0.010432802
54	0x3d477417	0.048694696
55	0x3d8a35d8	0.06748551
56	0x3d76e1e1	0.06027401
57	0xbcee929c	-0.029122643
58	0xbc5125a3	-0.012765321
59	0x3d2fb74a	0.042899407
60	0xbc638a98	-0.013888024
61	0x3dbe5b44	0.09294751
62	0x3d8a3298	0.06747931
63	0xbca76aa6	-0.020436596
64	0xbc916f86	-0.017753374
65	0xbd143af1	-0.036189023

encoder.fc2.weight f4 [40, 66]
0	0xbdaf3dba	-0.08556695
1	0xbd1d6ee0	-0.038435817
2	0xbdfe38fa	-0.12413211
3	0xbdb53f47	-0.0884996
4	0x3d5eaa04	0.05436136
5	0xbd8831bd	-0.06650112
6	0xbdca6ec3	-0.09884407
7	0xbddae6b0	-0.106885314
8	0x3dea273e	0.11433266
9	0x3d9d96ee	0.07694803
10	0xbd47705d	-0.048691142
11	0x3d331489	0.043720756
12	0x3caa4d87	0.020788921
13	0xbdab3348	-0.083593905
14	0x3caf9456	0.021433037
15	0x3ddb0319	0.1069395
16	0xbd9339d4	-0.07188764
17	0x3dc78b04	0.09743312
18	0x3d4fc60e	0.05072599
19	0xbc857f21	-0.016295971
20	0xbd395c8f	-0.045254286
21	0xbaac7ab7	-0.001315913
22	0x3caa6e63	0.02080459
23	0x3de5de2c	0.112240165
24	0x3dc00228	0.09375411
25	0xbd1de16a	-0.03854505
26	0x3d6c513c	0.05769466
27	0xbd363e6c	-0.044493124
28	0x3cb782b8	0.022401199
29	0xbdf64f48	-0.120268404
30	0xbc90d920	-0.017681658
31	0x3dded7fb	0.10881039
32	0xbc8a996d	-0.016918862
33	0x3d882ea2	0.066495195
34	0x3dc087ae	0.09400879
35	0x3ca52754	0.020160355
36	0xbd557504	-0.052113548
37	0x3dc2d6ae	0.09513603
38	0xbd9f1bf0	-0.077690005
39	0x3dc47fc3	0.09594681
40	0xbd819e36	-0.063290045
41	0xbc5c5d70	-0.013450012
42	0x3dab42e1	0.083623655
43	0xbdd779c7	-0.10521274
44	0x3d8d0f30	0.068876624
45	0x3c11ea90	0.008906022
46	0x3db89ac9	0.09013898
47	0xbc15b0b5	-0.0091363685
48	0xbd04feec	-0.032469675
49	0xbdd2da27	-0.102955155
50	0x3bbe75e0	0.0058123916
51	0x3c5e487d	0.013567087
52	0x3c9d9462	0.019235794
53	0x3c477e40	0.012176096
54	0x3d4da0a7	0.05020204
55	0xbd8b9aac	-0.06816611
56	0xbe073892	-0.13205174
57	0xbdd8386b	-0.10557636
58	0x3dd61b40	0.10454416
59	0xbd8b49f1	-0.068012126
60	0x3d985517	0.074381046
61	0xbdbd3652	-0.092388764
62	0x3dd5de4b	0.1044279
63	0xbdcd36a5	-0.10020188
64	0xbd80879b	-0.06275865
65	0xbded7268	-0.11594087
66	0x3c393c40	0.011305869
67	0xbda73b17	-0.08165567
68	0xbb358cb8	-0.0027702283
69	0x3d2f2456	0.042759262
70	0x3c49f94b	0.0123275025
71	0xbb9a51fe	-0.0047094813
72	0xbcefa12c	-0.029251657
73	0xbdb3211a	-0.08746548
74	0x3db3120e	0.08743678
75	0xbd8dfa65	-0.069325246
76	0x3dae4e95	0.08511082
77	0x3aafefac	0.0013422868
78	0x3d0fe3b2	0.035129257
79	0x3bd2176d	0.006411484
80	0xbc1e9726	-0.009679591
81	0x3ca74df6	0.020422917
82	0x3c524ed6	0.012836179
83	0x3da7d315	0.081945576
84	0xbdac1e3e	-0.08404206
85	0xbdc1f3d6	-0.09470336
86	0x3d99c4d8	0.07508248
87	0xbd40e166	-0.047089957
88	0xbde500e6	-0.11181812
89	0x3cbd2088	0.023086801
90	0x3d9902b2	0.07471217
91	0xbde8d197	-0.11368101
92	0xbdca14b5	-0.09867231
93	0x3b15f255	0.0022880037
94	0x3c0d0da0	0.0086092055
95	0x3dbc2af8	0.09187883
96	0xbaca84c0	-0.001545094
97	0xbc6cf37c	-0.014462348
98	0x3c15a1c0	0.0091328025
99	0xbd6e7335	-0.05821534
100	0xbd050c65	-0.032482523
101	0x3d94ef03	0.0727215
102	0x3be7752d	0.007063529
103	0x3d9813c3	0.07425644
104	0x3c5253fc	0.012837406
105	0xbdff5ab2	-0.12468471
106	0xbd5bead2	-0.05369074
107	0xbdae565c	-0.085125655
108	0xbcd677c2	-0.026180152
109	0xbd3ab168	-0.045579344
110	0xbc8cd7b8	-0.017192706
111	0xbd088673	-0.033331346
112	0xbdc09cc1	-0.094048984
113	0xbd3a3b47	-0.045466688
114	0x3d7ac190	0.06121975
115	0xbbec024c	-0.0072024222
116	0x3c9f8888	0.019474283
117	0xbd39fafc	-0.045405373
118	0xbd2bec23	-0.041973244
119	0xbd3da484	-0.046299472
120	0xbdc62323	-0.096746705
121	0x3d712970	0.05887741
122	0xbd50df62	-0.050994284
123	0x3d44ea95	0.048075277
124	0x3daa81e4	0.08325556
125	0xbcf7fe99	-0.030272769
126	0xbdf2649f	-0.11835598
127	0x3d2654b7	0.040608134
128	0x3d459894	0.048241213
129	0xbcf4ac68	-0.029867366
130	0xbd6918fd	-0.056908596
131	0xbd371fac	-0.04470794
132	0x3dadc874	0.08485499
133	0xbdd316c4	-0.103070766
134	0x3dc899cb	0.09794959
135	0x3df983b9	0.12183327
136	0xbd048430	-0.032352626
137	0xbd5da983	-0.054116737
138	0xbdc55ab9	-0.096364446
139	0xbce75c56	-0.028242271
140	0x3df5c5ce	0.12000619
141	0xbcf739e3	-0.03017897
142	0x3dfb45c3	0.12269165
143	0x3ddbd6a9	0.107343026
144	0xbceccacf	-0.0289053
145	0x3dc62cae	0.09676491
146	0x3df3873c	0.11891028
147	0xbd3029a2	-0.043008454
148	0xbd5a2521	-0.053258065
149	0x3b7b1aec	0.0038315607
150	0xbdb50c66	-0.088402554
151	0xbd9179ac	-0.07103285
152	0x3d831773	0.06400957
153	0xbda88999	-0.0822937
154	0x3dede249	0.11615426
155	0xbd051f54	-0.03250058
156	0xbdef92fd	-0.11697958
157	0x3bf36753	0.0074280887
158	0x3dbb8672	0.09156503
159	0x3df5552b	0.11979135
160	0xbb495ec0	-0.0030726641
161	0x3c2fe653	0.010736066
162	0xbddf6ed8	-0.10909814
163	0xbd9d0266	-0.07666473
164	0x3d974f46	0.07388167
165	0xbdb687d0	-0.08912623
166	0x3de2b050	0.11068785
167	0x3d20a35f	0.039218303
168	0x3ddda289	0.10822017
169	0x3de1d3fd	0.11026762
170	0xbd243f47	-0.04009941
171	0xbd61c8fd	-0.055123318
172	0x3d7137f0	0.058891237
173	0x3d0e6e10	0.034772933
174	0x3d800e42	0.062527195
175	0x3b153b0f	0.0022770797
176	0xbd063e12	-0.03277404
177	0xbdfdd2cb	-0.12393721
178	0xbd82c4e7	-0.063852124
179	0xbc8b7f6f	-0.017028539
180	0x3cc95227	0.024575306
181	0xbd064bc0	-0.032787085
182	0x3d89158a	0.066935614
183	0x3c9a613d	0.018845195
184	0xbd19552c	-0.03743474
185	0x3dcc2b14	0.09969154
186	0x3de8b888	0.113633215
187	0x3d9c7c4d	0.07640896
188	0xbba78913	-0.005112776
189	0x3d5a0a42	0.05323244
190	0xbc6303c3	-0.013855877
191	0xbdf3f729	-0.119123764
192	0x3d862f57	0.06551998
193	0xbd0e6c69	-0.034771357
194	0xb97b21a9	-0.00023949765
195	0xbc8b5bb9	-0.01701151
196	0x3da64dda	0.08120318
197	0x3cb2f781	0.021846535
198	0x3d9a6388	0.07538515
199	0xbdb7565d	-0.08952019
200	0xbcfa8e5f	-0.030585466
201	0x3c8d9de5	0.017287204
202	0x3d849719	0.06474132
203	0x3cc4efaa	0.024040062
204	0xbdced52e	-0.100992545
205	0xbdf7d0a6	-0.121003434
206	0xbde9d75c	-0.1141803
207	0x3bb64b8d	0.0055632056
208	0x3d0818c6	0.03322675
209	0xbdfd3d2e	-0.12365185
210	0x3d9db227	0.076999955
211	0x3c69ff5f	0.014282077
212	0x3d8c2411	0.068428166
213	0xbb3badab	-0.002863745
214	0xbc09af1b	-0.008403565
215	0xbd385820	-0.045005918
216	0xbcfb42a9	-0.030671434
217	0x3d11f5c3	0.035634767
218	0x3dcaf226	0.099094674
219	0x3cc742f6	0.024323922
220	0xbdb52dcf	-0.08846628
221	0x3dd1985c	0.10234138
222	0xbca2f424	-0.019891806
223	0x3d5cadd3	0.05387671
224	0x3dadcc28	0.08486205
225	0xbda63e3e	-0.081173405
226	0x3bec2380	0.0072063804
227	0xbda95acb	-0.082692705
228	0x3d83e882	0.06440832
229	0x3cb5cfab	0.02219375
230	0x3d5b2833	0.053505134
231	0x3dca1788	0.098677695
232	0x3cd0852d	0.025454128
233	0x3d4b706f	0.049667772
234	0xbd4125a3	-0.047155034
235	0x3bcd3018	0.0062618367
236	0x3d3f62c4	0.04672505
237	0x3dc6b2d5	0.09702078
238	0xbc72e2fe	-0.014824627
239	0xbd869d86	-0.06573014
240	0x3d93c608	0.07215506
241	0x3d4109f7	0.047128644
242	0x3dd734d6	0.105081245
243	0x3dd5195e	0.10405229
244	0x3c957069	0.018242078
245	0xbca831ab	-0.020531496
246	0xbc82064a	-0.01587214
247	0x3db786d6	0.08961265
248	0x3d6afc6c	0.057369635
249	0xbda84982	-0.082171455
250	0x3dd210d5	0.10257117
251	0xbdbd5de2	-0.09246422
252	0x3af974a5	0.0019031955
253	0xbd7aa2eb	-0.061190527
254	0x3d683119	0.05668745
255	0xbde3df83	-0.11126616

encoder.fc2.bias f4 [40]
0	0xbd2e1b60	-0.042506576
1	0x3b709ed1	0.0036715756
2	0xbc888903	-0.016666895
3	0xbd298671	-0.04138798
4	0x3dd64ac8	0.10463482
5	0x3bd10b4d	0.006379521
6	0x3e0b3416	0.13594088
7	0x3de81d15	0.11333672
8	0xbcaa39cb	-0.020779511
9	0xbda8bfa0	-0.082396746
10	0x3e05d4c2	0.13069442
11	0xbd0492f8	-0.032366723
12	0x3dfb6f6a	0.1227711
13	0xbd4b0bf0	-0.04957193
14	0xbc40fd6b	-0.01177917
15	0x3c5b2bdd	0.013377157
16	0x3dd3be9d	0.10339091
17	0x3d5ccbe1	0.05390537
18	0xbcf783d9	-0.030214237
19	0x3e01efb8	0.12689102
20	0xbd509398	-0.050922006
21	0xbd8ec497	-0.0697109
22	0x3e008230	0.12549663
23	0x3cfdff71	0.031005593
24	0x3d30b0e1	0.043137435
25	0x3d1b709a	0.037949182
26	0x3d7fe690	0.06247574
27	0x3dec52b0	0.11539209
28	0x3da0a433	0.078438185
29	0x3d601e89	0.05471662
30	0xbbef6279	-0.00730544
31	0xbd385c6b	-0.04501001
32	0x3b572b37	0.0032832155
33	0x3dab009c	0.083497256
34	0x3dcdfd0e	0.10058032
35	0xbd641636	-0.055685245
36	0xbd93a858	-0.072098434
37	0xbd1b3538	-0.03789255
38	0xbc6e9e76	-0.014564147
39	0x3c9e7f6f	0.019347874

encoder.fc3.weight f4 [13, 40]
0	0x3cc2544b	0.023721835
1	0xbb98a5b0	-0.0046584234
2	0x3df22ac1	0.11824561
3	0xbd672ffe	-0.056442253
4	0x3e1e7dfe	0.1547775
5	0x3d7fe7eb	0.062477034
6	0x3dbff55f	0.09372973
7	0x3dee525a	0.11636801
8	0x3d2c2211	0.042024676
9	0x3bb6bf46	0.005577001
10	0x3deb249d	0.11481593
11	0x3cd9bb52	0.02657858
12	0x3d0a2258	0.03372416
13	0x3e0ecf60	0.13946295
14	0x3e017e01	0.12645723
15	0xbd79461b	-0.060857873
16	0x3d804950	0.06263983
17	0x3c8541f8	0.016266808
18	0xbdae960d	-0.08524714
19	0x3ddacc22	0.106834665
20	0xbd80470e	-0.062635526
21	0x3d9c01b8	0.07617515
22	0x3cfac958	0.030613586
23	0xbb2acf01	-0.0026063325
24	0x3d981cd5	0.07427374
25	0xbdeaf46f	-0.11472403
26	0x3e0922d3	0.1339219
27	0xbdb83081	-0.089936264
28	0x3e3a42ff	0.1818962
29	0xbd5b370a	-0.053519286
30	0x3cc8635a	0.024461437
31	0x3d630b4f	0.055430707
32	0x3d2fb9b0	0.042901695
33	0x3dc8c775	0.098036684
34	0xbdb9537e	-0.09049128
35	0xbde8fe86	-0.113766715
36	0x3d3bcaa9	0.04584757
37	0xbdc91b44	-0.09819654
38	0xbdbc8f02	-0.09206964
39	0x3d59209a	0.053009607
40	0x3e011cfd	0.12608714
41	0xbd5c2915	-0.053750116
42	0x3bd11303	0.00638044
43	0x3e27f17c	0.16400713
44	0x3e288cbd	0.16459937
45	0xbdc0e69e	-0.09418987
46	0xbd86907e	-0.065705284
47	0x3d60d06b	0.054886263
48	0xbdf9d24a	-0.121983126
49	0xbdbb1263	-0.09134366
50	0xbd526b29	-0.051371727
51	0xbddb8bf5	-0.10720054
52	0xbbb7bf8d	-0.0056075514
53	0x3e276352	0.16346481
54	0x3dae3917	0.08506983
55	0xbc8b41a7	-0.016999079
56	0x3d302284	0.043001667
57	0xbbd6c176	-0.006553824
58	0x3e0db13e	0.13837144
59	0x3d6f0f57	0.05836424
60	0xbc84ee6b	-0.016226968
61	0xbcd4b26a	-0.02596398
62	0x3e13143c	0.14363188
63	0x3d540432	0.051761813
64	0xbd6f3b71	-0.058406297
65	0x3e178771	0.1479776
66	0x3c07819c	0.008270647
67	0x3e236ad9	0.15958728
68	0x3e329743	0.17440514
69	0xbd6a6e12	-0.057233877
70	0xbd39cd84	-0.04536201
71	0xbaa7f340	-0.0012813583
72	0x3dea2247	0.11432319
73	0xbdf5e8ec	-0.12007317
74	0xbd2bccb0	-0.041943252
75	0x3de90654	0.1137816
76	0x3e35534c	0.17707556
77	0xbda6de39	-0.08147854
78	0x3e280ef5	0.16411956
79	0xbdded426	-0.10880308
80	0xbe10b76e	-0.14132473
81	0xbd7f1e43	-0.06228472
82	0x3e2805cc	0.16408461
83	0xbda1ccc8	-0.07900387
84	0x3c556abc	0.013025936
85	0xbdee947c	-0.11649415
86	0x3e0b3ff6	0.13598618
87	0xbd9235a8	-0.0713914
88	0x3cb92593	0.022600925
89	0x3d99e316	0.07514016
90	0x3be36eb5	0.0069406875
91	0x3d231757	0.03981718
92	0xbd587358	-0.052844375
93	0x3dce2181	0.10064984
94	0x3e36854b	0.17824285
95	0x3b2ad1de	0.0026065032
96	0x3cbad878	0.022808298
97	0x3d6224b1	0.055210773
98	0x3e109097	0.14117657
99	0x3d49e567	0.04929104
100	0x3ccc0da9	0.024908857
101	0x3e311c34	0.17295915
102	0x3d3e9331	0.04652709
103	0x3d9f5020	0.077789545
104	0xbd6768b9	-0.056496356
105	0xbd1c03de	-0.038089626
106	0xbc8e9f97	-0.017410083
107	0x3ddca3cd	0.1077343
108	0x3ddceddb	0.10787555
109	0x3e136571	0.14394166
110	0x3b48fd56	0.0030668578
111	0x3e2dd8e2	0.16977265
112	0xbbcedc2d	-0.006312868
113	0x3cdfb793	0.027309215
114	0x3db3b3e9	0.087745495
115	0x3de76c96	0.11300008
116	0x3d951481	0.072793014
117	0xbd6a7e73	-0.057249498
118	0x3d40d58e	0.04707866
119	0x3cffab27	0.031209541
120	0x3dfb0dfb	0.12258526
121	0x3d046249	0.032320295
122	0x3bc9e922	0.006161825
123	0x3de905a1	0.11378027
124	0x3e04b5bd	0.12959953
125	0x3cd08017	0.025451703
126	0x3dec8f22	0.11550738
127	0x3d5ebd26	0.054379605
128	0xbe103564	-0.14082867
129	0xbd0526c5	-0.032507677
130	0xbd723b51	-0.0591386
131	0x3e1df791	0.1542647
132	0x3e24beb0	0.16088367
133	0x3e0b9707	0.13631831
134	0x3d6990d4	0.057022884
135	0xbde9c9fd	-0.11415479
136	0x3d85b5e2	0.06528832
137	0xbd62e3c5	-0.055393
138	0x3cae3511	0.021265538
139	0x3e1e0248	0.15430558
140	0xbdcce709	-0.10005004
141	0x3d319b59	0.04336104
142	0xbd5c0d38	-0.053723544
143	0xbd4ada9f	-0.0495249
144	0x3dc22723	0.09480121
145	0xbcc6bf86	-0.024261247
146	0xbd9a8e2e	-0.0754665
147	0x3d4399c5	0.047754068
148	0x3cf57464	0.029962726
149	0xbd38434c	-0.044986054
150	0xbae265a9	-0.0017272729
151	0x3cb11867	0.021618081
152	0x3d65180a	0.05593113
153	0x3d6e5e34	0.058195308
154	0x3cb7fde4	0.022459932
155	0x3e1a58ed	0.15072985
156	0x3dcdf845	0.10057119
157	0x3cd94ecb	0.02652683
158	0x3dcdd799	0.100508876
159	0xbe1182bf	-0.14210032
160	0x3b82f618	0.003996622
161	0x3d597e35	0.053098876
162	0x3c8a2c6d	0.016866887
163	0xbdf483bd	-0.119391896
164	0xbdd02f2e	-0.10165249
165	0xbdbdc06f	-0.092652194
166	0x3da6c4d2	0.08143009
167	0x3dd45caf	0.103692405
168	0xbd8479d9	-0.06468553
169	0x3ce2f992	0.027706895
170	0xbdef1bdc	-0.11675236
171	0x3dee1957	0.11625927
172	0xbd406843	-0.04697443
173	0xbc25c04a	-0.010116646
174	0xbde7e363	-0.113226674
175	0xbdfa2950	-0.12214911
176	0x3ca740d1	0.020416649
177	0x3d114a5e	0.035471313
178	0xbe189627	-0.14901029
179	0x3bb26b65	0.0054449313
180	0xbddaed2b	-0.106897675
181	0xbd4e1eee	-0.050322466
182	0xbe119227	-0.14215909
183	0xbe2b3b37	-0.16721807
184	0xbe02bae2	-0.12766603
185	0xbdb73e25	-0.089474
186	0x3d14ad48	0.036298066
187	0xbe28b0c9	-0.16473688
188	0x3c28a2b5	0.010292699
189	0xbdd2f0ae	-0.10299812
190	0xbd54fb4c	-0.051997468
191	0x3c8ce96f	0.017201154
192	0xbdca171b	-0.09867688
193	0x3caeb512	0.021326575
194	0x3dcc7d12	0.09984793
195	0xbe0d687f	-0.13809393
196	0xbdcdfade	-0.10057615
197	0x3d29dca4	0.041470185
198	0x3d91cbeb	0.071189724
199	0xbdf412e9	-0.11917669
200	0xbe009f25	-0.12560709
201	0x3bc9d2bf	0.006159156
202	0xbdbf0269	-0.093266316
203	0xbdb405b0	-0.08790147
204	0xbcfc9486	-0.03083254
205	0x3d7e768d	0.062124778
206	0x3e023ad0	0.12717748
207	0xbd84935c	-0.06473419
208	0xbd60b5b4	-0.054860786
209	0xbbe84ccb	-0.0070892326
210	0xbd877db0	-0.0661577
211	0x3e2da193	0.16956167
212	0x3c8d8442	0.01727498
213	0xbd2a1459	-0.04152331
214	0xbd8b3a08	-0.06798178
215	0xbe0c40a5	-0.13696535
216	0x3e15e535	0.14638217
217	0xbd957cea	-0.07299216
218	0xbd6a82f7	-0.057253804
219	0x3d41a002	0.047271736
220	0xbcb7d5d4	-0.022440828
221	0xbd06aa6c	-0.03287737
222	0x3dcfaa1a	0.10139866
223	0x3e2c89dc	0.16849464
224	0xbc4b3dba	-0.0124048535
225	0xbd8c9b02	-0.06865503
226	0x3d949290	0.07254517
227	0x3dd13a9d	0.10216258
228	0xbc788083	-0.015167358
229	0x3d9eaca3	0.077477716
230	0x3da60bd4	0.08107725
231	0x3dfce4fd	0.123483635
232	0xbbd0e4b6	-0.0063749207
233	0xbd9f5b5d	-0.07781098
234	0x3e200717	0.15627705
235	0xbd030b17	-0.031992998
236	0xbcfdec11	-0.030996354
237	0x3e266ea7	0.16253148
238	0x3e28a9f2	0.16471079
239	0x3e148f42	0.14507774
240	0x3d8e038b	0.069342695
241	0x3debd6e2	0.11515595
242	0xbe0e5f74	-0.139036
243	0x3d9e6419	0.07733936
244	0x3dc78024	0.09741238
245	0xbe2cb29e	-0.16865012
246	0x3da0a009	0.07843024
247	0xbb79ba4f	-0.0038105433
248	0x3d9bc330	0.076055884
249	0xbdd46838	-0.10371441
250	0xbda2ad6a	-0.07943232
251	0xbd135491	-0.03596932
252	0x3de1ef87	0.11032014
253	0x3dfcdf9a	0.12347336
254	0x3d7ce509	0.061741862
255	0x3dfd2e9f	0.12362408

encoder.fc3.bias f4 [13]
0	0xbdb07749	-0.08616502
1	0xbd09fc11	-0.033687655
2	0x3e053981	0.13010217
3	0x3d304b29	0.04304043
4	0xbda02be0	-0.078208685
5	0x3da4a4ff	0.08039283
6	0xbc0397c8	-0.008031793
7	0xbe085c0f	-0.13316368
8	0xbcd3fce5	-0.025877425
9	0x3ddd5ddf	0.1080892
10	0xbde3010c	-0.11084184
11	0x3c75da85	0.015005712
12	0xbd86a12b	-0.06573709

decoder.fc1.weight f4 [40, 13]
0	0xbcca7661	-0.02471465
1	0xbd862dc6	-0.06551699
2	0xbe423923	-0.18967108
3	0x3e596bd1	0.21232535
4	0xbdf0df04	-0.11761287
5	0xbdfaf418	-0.122535884
6	0xbdc2bafd	-0.095083214
7	0x3e03e213	0.12879209
8	0x3e8ff93b	0.28119835
9	0xbe421bd7	-0.18955933
10	0x3cf6de63	0.03013534
11	0x3d748256	0.05969461
12	0xbc72b532	-0.014813708
13	0x3e8f9b4d	0.28048173
14	0xbe6eaf4f	-0.23309062
15	0xbd842a25	-0.06453351
16	0x3e2f934e	0.17146036
17	0x3dcd823d	0.100346066
18	0x3bfc5faa	0.0077018337
19	0xbd9af768	-0.0756672
20	0xbe68eddc	-0.22746986
21	0xbe62d13f	-0.22150134
22	0x3dace99a	0.084429935
23	0xbe53d1db	-0.20685522
24	0x3e4e9b96	0.20176539
25	0x3e1964f6	0.1497992
26	0xbd87d086	-0.066315696
27	0x3e3bcbc9	0.18339457
28	0x3d8cfcbe	0.06884144
29	0xbd808d22	-0.06276919
30	0xbdd1c92f	-0.10243451
31	0x3dfacfef	0.122466914
32	0x3e7e6e44	0.2484675
33	0xbe3d14ad	-0.18464918
34	0x3e78d92b	0.24301593
35	0xbe539437	-0.20662008
36	0x3d0781e0	0.033082843
37	0xbdbbb6b7	-0.091657095
38	0x3e8cbc0f	0.27487227
39	0xbda1ec4c	-0.07906398
40	0xbdc3ba6b	-0.09557041
41	0x3e44ea3d	0.1922998
42	0xbe6c041a	-0.2304844
43	0x3e4dd8fe	0.20102307
44	0x3e821e62	0.25413805
45	0x3e43256d	0.19057246
46	0xbe8a187b	-0.26971802
47	0xbe7f1500	-0.24910355
48	0xbdce2122	-0.10064913
49	0xbdc56ff0	-0.09640491
50	0xbd001fbc	-0.031280264
51	0x3e3e0a5e	0.18558642
52	0x3e34af18	0.17644918
53	0xbdbcf9c3	-0.09227326
54	0x3ce3142d	0.027719581
55	0xbe04a310	-0.12952828
56	0xbe2594d8	-0.1617006
57	0xbe7244d8	-0.23659074
58	0x3e8db0a4	0.2767383
59	0x3d5ce5d5	0.053930122
60	0x3cdf7065	0.027275274
61	0xbe702100	-0.23450089
62	0x3e1ff1c7	0.15619574
63	0x3e4c02fe	0.19923016
64	0xbd062e57	-0.032759037
65	0xbe5aa357	-0.21351372
66	0x3d4d84c1	0.050175432
67	0x3bec3526	0.007208484
68	0x3e193479	0.14961423
69	0xbe978f7c	-0.29601657
70	0x3e98c3d0	0.29836893
71	0x3d87a81f	0.066238634
72	0xbe077cb7	-0.13231169
73	0x3e5d12ab	0.21589153
74	0xbd7da93f	-0.061928984
75	0xbe7943ab	-0.2434222
76	0xbe3295d8	-0.17439973
77	0x3e28e41b	0.16493265
78	0x3e99b2e0	0.30019283
79	0x3e4256dd	0.18978448
80	0xbe0581f7	-0.13037859
81	0xbe5a5874	-0.21322805
82	0xbd17f111	-0.037095133
83	0xbb41ae40	-0.0029553324
84	0xbe297702	-0.16549304
85	0xbdd3e8f8	-0.1034717
86	0xbe07aa88	-0.13248646
87	0xbe234e19	-0.1594776
88	0x3d77293b	0.060342055
89	0xbe0cf21b	-0.13764231
90	0x3e497e33	0.19677047
91	0xbe1c2504	-0.15248495
92	0xbe065fe9	-0.13122524
93	0x3e7381f8	0.23780048
94	0x3e86415a	0.26221734
95	0xbe3b1717	-0.18270527
96	0xbc01082f	-0.007875486
97	0xbbcc2933	-0.0062304973
98	0x3cf4d134	0.029884912
99	0x3e70a874	0.2350176
100	0xbe3c710e	-0.18402502
101	0xbd2c5e82	-0.042082317
102	0xbd908b92	-0.07057871
103	0x3e2f590f	0.17123817
104	0x3cf4a6d2	0.029864702
105	0xbdc51f23	-0.096250795
106	0xbd26d416	-0.040729605
107	0xbd95f505	-0.073221244
108	0x3e3e8a4f	0.18607448
109	0xbe28f270	-0.16498733
110	0xbdf39dba	-0.11895318
111	0xbe1fb6ff	-0.15597151
112	0x3e500f46	0.20318326
113	0x3e63ccdc	0.22246116
114	0x3e36a5a1	0.1783662
115	0x3d1cc966	0.038278006
116	0x3e958cc4	0.29208958
117	0x3e8bf327	0.27333948
118	0xbe447c56	-0.19188055
119	0x3e709d86	0.2349759
120	0xbdf22873	-0.11824121
121	0x3d277c71	0.04089016
122	0x3e178417	0.14796482
123	0x3de1a550	0.11017859
124	0x3df680b4	0.12036267
125	0xbdf24f2c	-0.11831507
126	0xbe342628	-0.1759268
127	0xbc0e1586	-0.008672124
128	0xbe62bff6	-0.2214354
129	0x3cc7ac70	0.024374217
130	0xbe7f3f88	-0.24926579
131	0xbe6cc167	-0.23120652
132	0xbe864b51	-0.26229337
133	0x3dda5b51	0.106619485
134	0x3c76a1ee	0.0150532555
135	0xbe337a60	-0.17527151
136	0x3e467f79	0.19384564
137	0xbcb409ef	-0.021977393
138	0x3e2f8a4b	0.17142598
139	0x3d30e6a3	0.043188702
140	0x3e8d3817	0.27581856
141	0x3e852bbe	0.26009935
142	0xbe0af1ee	-0.13568851
143	0xbe5a08c2	-0.21292403
144	0x3e3e1465	0.18562467
145	0xbd8bcdee	-0.06826387
146	0x3e80b600	0.25138855
147	0x3e87ab58	0.26497912
148	0xbe849cba	-0.25900823
149	0x3e081e6b	0.13292854
150	0x3d8cd5dd	0.06876729
151	0x3e8ca56c	0.27469957
152	0x3e81979d	0.25310984
153	0x3e6e48aa	0.23269907
154	0xbe0e9a40	-0.13926029
155	0xbc840017	-0.016113324
156	0x3cabf5a4	0.020991154
157	0x3e88e843	0.26739702
158	0x3e5d7854	0.21627933
159	0x3cf2da6a	0.029645164
160	0x3df5c168	0.1199978
161	0xbddf4910	-0.109026074
162	0xbe8a17c0	-0.26971245
163	0x3cd8696f	0.026417462
164	0xbd501247	-0.05079868
165	0xbe6d745c	-0.23188919
166	0x3dd0f3a5	0.102027215
167	0xbe0fb1f1	-0.14032723
168	0xbda2632e	-0.07929073
169	0xbe567045	-0.20941265
170	0x3e75cc9f	0.24003838
171	0xbe5783a7	-0.21046315
172	0x3e4a7337	0.19770513
173	0xbe1b9c09	-0.15196241
174	0xbdda3cc7	-0.106561236
175	0x3e445d37	0.19176184
176	0x3e537c6c	0.20652932
177	0x3e5aa989	0.21353735
178	0xbdd6c0f7	-0.10486024
179	0x3e865e61	0.2624388
180	0xbe80f74c	-0.25188673
181	0x3e404a8f	0.18778442
182	0x3cf9e27a	0.0305035
183	0xbe1a6296	-0.1507667
184	0xbd010824	-0.031501904
185	0x3e420a69	0.18949284
186	0xbe62e3f7	-0.22157274
187	0x3e5ff020	0.21868944
188	0x3e777f86	0.2416974
189	0xbe63aca8	-0.22233832
190	0xbdcdeaad	-0.100545265
191	0xbdcee5f8	-0.10102457
192	0x3e46084e	0.19339105
193	0x3da22c5e	0.079186186
194	0xbe0460be	-0.12927529
195	0xbe3b528b	-0.18293206
196	0x3e991cc9	0.29904774
197	0xbcb6c12b	-0.022308907
198	0x3e38cbc5	0.18046482
199	0x3e68ddac	0.22740811
200	0x3d3f6108	0.046723396
201	0xbd89134c	-0.06693134
202	0x3dd773e6	0.10520153
203	0x3ce620a2	0.028091732
204	0x3d9c0330	0.076177955
205	0xbdcbba6d	-0.09947667
206	0xbe83f5a1	-0.25773337
207	0xbe3fbeb8	-0.18725097
208	0xbddd0a71	-0.10793007
209	0xbe3463d2	-0.17616203
210	0xbdb27bca	-0.08715017
211	0xbe46edfb	-0.1942672
212	0xbcc36b84	-0.023854978
213	0xbd9321d4	-0.071841866
214	0x3cbd66a2	0.023120228
215	0x3cc7059b	0.024294665
216	0xbe7579ad	-0.23972197
217	0xbe344c5d	-0.17607255
218	0x3e090212	0.13379696
219	0xbe441d3b	-0.19151776
220	0x3dfff62e	0.12498127
221	0xbe18d083	-0.14923291
222	0x3e0d4733	0.13796692
223	0xbe54b59b	-0.20772402
224	0xbe1cb9d4	-0.15305263
225	0x3e51886d	0.20462199
226	0x3d54a1c2	0.051912077
227	0xbd69f3a4	-0.05711712
228	0xbd932224	-0.07184246
229	0x3e823f3b	0.25438866
230	0xbe59c7a8	-0.21267569
231	0x3b891a7e	0.0041840663
232	0x3d683c74	0.056698278
233	0x3e8bfc11	0.2734075
234	0x3e304baf	0.17216371
235	0xbe5c40f7	-0.21509157
236	0x3cddd928	0.027081087
237	0xbce84ef9	-0.02835797
238	0x3e8a1426	0.26968497
239	0xbdcb3eb1	-0.09924067
240	0x3e161f04	0.14660269
241	0xbe77750c	-0.24165744
242	0x3e2b1fb6	0.16711316
243	0xbe08949a	-0.13337937
244	0x3d3d194e	0.04616671
245	0x3a6e3937	0.0009087505
246	0xbe41800d	-0.18896504
247	0x3e835aa0	0.2565508
248	0xbd965bd5	-0.07341734
249	0x3e4ca835	0.19986041
250	0x3e16dbc3	0.1473227
251	0xbe28bccd	-0.16478272
252	0x3d87dbf3	0.06633749
253	0xbe4d4b85	-0.2004834
254	0xbe7b8f9a	-0.24566498
255	0x3e8b98a1	0.27264884

decoder.fc1.bias f4 [40]
0	0x3d735097	0.05940303
1	0xbe1fbbee	-0.15599033
2	0x3d21ce7f	0.03950357
3	0xbe832df9	-0.25621012
4	0xbdc7b885	-0.09751991
5	0x3e45283a	0.19253626
6	0x3df144aa	0.11780675
7	0xbd3e070c	-0.04639344
8	0x3dd4a619	0.10383243
9	0xbcc2b00a	-0.023765583
10	0x3b9d44a5	0.004799443
11	0x3df600a4	0.12011841
12	0x3d94878f	0.07252418
13	0xbe04b94c	-0.1296131
14	0xbe75253b	-0.23939984
15	0xbe32ef8a	-0.1747419
16	0x3e3e1b2c	0.18565053
17	0xbe29885e	-0.16555926
18	0x3e20fad5	0.15720685
19	0x3e04f34a	0.12983432
20	0x3e826cf9	0.25473765
21	0xbe31c8c5	-0.17361744
22	0xbc620c26	-0.013796842
23	0x3dea97b3	0.114547156
24	0xbe548c3e	-0.20756623
25	0xbdb66a5b	-0.089070044
26	0x3e8fc04c	0.28076398
27	0xba23532c	-0.000623035
28	0x3e3430f5	0.175968
29	0x3daad0f0	0.08340633
30	0x3d2dee81	0.042463783
31	0xbdb9308b	-0.09042462
32	0x3e50bf47	0.20385467
33	0xbe01d433	-0.12678604
34	0x3e3d8ff2	0.18511942
35	0xbe0a218b	-0.13489358
36	0x3d3590bf	0.044327494
37	0x3e92f4da	0.28702432
38	0x3dfa5282	0.12222768
39	0x3de3f3ee	0.1113051

decoder.fc2.weight f4 [66, 40]
0	0x3e139397	0.1441177
1	0xbcf1b604	-0.029505737
2	0x3b36175c	0.002778492
3	0xbdbd4abd	-0.09242771
4	0xbc4a7839	-0.012357765
5	0xbddcbf01	-0.107786186
6	0x3ddb3530	0.10703504
7	0x3e289701	0.16463853
8	0x3dcaeb8e	0.0990821
9	0xbd9de175	-0.07709018
10	0x3d8a22f5	0.06744949
11	0xbde39d85	-0.11114029
12	0x3de9beea	0.11413367
13	0x3d8d62a6	0.06903581
14	0x3dd3eead	0.10348258
15	0x3e3e18aa	0.18564096
16	0x3d89c55e	0.06727098
17	0x3dc722a4	0.09723404
18	0xbdcee46e	-0.10102163
19	0x3dcd43a0	0.10022664
20	0xbdb9fc58	-0.09081334
21	0xbd780652	-0.060552903
22	0xbda4825b	-0.08032676
23	0xbd458a46	-0.04822757
24	0xbd0cdb25	-0.03438868
25	0x3e0b9fd0	0.13635182
26	0xbd0ef8e1	-0.03490532
27	0x3d810a1b	0.063007556
28	0xbd3193d2	-0.043353863
29	0x3e1df6c7	0.1542617
30	0x3dfe1a35	0.12407342
31	0x3dba687e	0.091019616
32	0x3ce1875a	0.027530361
33	0xbda74726	-0.08167867
34	0x3dcec8e6	0.10096912
35	0xbd128329	-0.035769615
36	0x3e0dd42d	0.1385047
37	0x3e21ccbd	0.15800758
38	0x3e329826	0.17440853
39	0x3e20978e	0.15682814
40	0xbc249675	-0.010045637
41	0x3e083abb	0.13303654
42	0x3d3e3bd1	0.046443764
43	0x3da0cce3	0.07851579
44	0x3d81d9cb	0.06340369
45	0x3da486e5	0.080335416
46	0x3d7d2735	0.06180497
47	0x3e00c64d	0.12575646
48	0x3e288760	0.16457891
49	0x3e13552f	0.14387964
50	0xbd16d47d	-0.03682374
51	0x3d27273f	0.040808912
52	0x3c0e7867	0.008695698
53	0x3daf18ef	0.085496776
54	0xbdcffa0d	-0.10155115
55	0x3e00bcbd	0.12571998
56	0xbe042884	-0.1290608
57	0x3e278a58	0.16361368
58	0x3dc11dd9	0.09429521
59	0xbc8babf6	-0.01704977
60	0xbdbcc743	-0.09217694
61	0x3d95b3cd	0.07309685
62	0x3df02b28	0.117269814
63	0xbd46708b	-0.048447173
64	0xbc956147	-0.018234862
65	0x3d6b2d88	0.05741647
66	0x3de0562a	0.109539345
67	0x3da27b10	0.079336286
68	0xbd85c7a6	-0.065322205
69	0xbde92a35	-0.113850035
70	0x3cefde79	0.029280888
71	0x3e34989f	0.17636345
72	0x3d0b9dfc	0.034086213
73	0x3e37a5ef	0.17934392
74	0x3c8e7794	0.017391004
75	0x3e0717f7	0.13192736
76	0x3df04df1	0.11733616
77	0xbdc129b7	-0.094317846
78	0x3e0b518f	0.13605331
79	0x3dd97e12	0.10619749
80	0xbc51957e	-0.012791989
81	0xbdd06b17	-0.10176676
82	0xbdcf4188	-0.10119921
83	0xbd5e713f	-0.05430722
84	0x3d9e7a40	0.07738161
85	0x3e176eaa	0.14788309
86	0x3d36d92f	0.044640716
87	0xbe02ac09	-0.12760939
88	0xbdea1102	-0.11429025
89	0x3c4782c2	0.012177171
90	0x3c3e98e3	0.011633131
91	0x3be86daf	0.0070931534
92	0x3da2b1e4	0.07944086
93	0x3d31dda4	0.043424264
94	0xbd2dc34f	-0.04242259
95	0x3dff2c62	0.12459637
96	0xbda9e7cd	-0.082961656
97	0xbd8e0ef1	-0.069364436
98	0x3d37ccad	0.04487293
99	0xbc4b0f4e	-0.012393786
100	0x3cabc724	0.020968981
101	0x3d7d9aff	0.061915394
102	0x3e12e040	0.14343357
103	0x3d230fdc	0.039810047
104	0xbd6872e3	-0.05675019
105	0x3c2e0027	0.0106201535
106	0x3e06734a	0.13129917
107	0x3d82e3e0	0.0639112
108	0xbe04f23a	-0.12983027
109	0x3d96404c	0.073364824
110	0xbcb3368f	-0.021876602
111	0x3d2ecd27	0.042676117
112	0xbade5438	-0.0016962355
113	0x3d85c302	0.065313354
114	0x3dc4364e	0.0958067
115	0x3d5de2f1	0.054171506
116	0x3dee26d9	0.11628503
117	0x3da3295f	0.07966875
118	0x3d17e8df	0.037087318
119	0x3d563947	0.052300718
120	0x3dde2ff3	0.10848989
121	0x3cfc2bbc	0.030782573
122	0xbc84b797	-0.016200824
123	0xbd5b9236	-0.053606234
124	0x3e111a93	0.14170294
125	0xbd829e57	-0.06377857
126	0x3e27ac36	0.16374287
127	0x3dd67773	0.10472002
128	0x3dba02fb	0.090826
129	0x3d89c2bf	0.06726598
130	0xbdce2c3e	-0.10067032
131	0xbd966c73	-0.07344904
132	0xbda2f71a	-0.07957287
133	0x3d0151a9	0.031572018
134	0x3e18e330	0.14930415
135	0x3e0b8953	0.13626604
136	0xbd8758bc	-0.066087216
137	0x3e08cab4	0.13358575
138	0x3cc64855	0.024204412
139	0x3d69b9e7	0.057062056
140	0x3e035a98	0.12827528
141	0x3dcc9ce4	0.09990862
142	0xbdac8c2d	-0.08425174
143	0xbdadd523	-0.08487918
144	0xbcdcc5c1	-0.026949765
145	0x3e2b176e	0.16708156
146	0xbc6d2f01	-0.014476539
147	0xbd12282f	-0.035682853
148	0x3e23d47e	0.15999028
149	0xbc5d2c70	-0.013499364
150	0xbd35de33	-0.04440136
151	0x3e3b6381	0.18299676
152	0x3c81cf2e	0.015845861
153	0xbdebeb08	-0.11519438
154	0x3c484f49	0.012225934
155	0x3cd0b9b4	0.025479175
156	0x3e2c3c8b	0.1681997
157	0xbdc0ade8	-0.0940817
158	0x3dfc6941	0.12324763
159	0x3df1da08	0.11809164
160	0xbdded883	-0.1088114
161	0x3d3f6b54	0.046733215
162	0x3e157ed5	0.14599164
163	0xbde3e856	-0.11128299
164	0x3c5cbddd	0.013473001
165	0xbb2dc210	-0.0026513375
166	0x3e1a25fb	0.15053551
167	0x3d59e21d	0.053194154
168	0x3a7d6569	0.00096662954
169	0xbd213d40	-0.039365053
170	0x3c80deeb	0.015731296
171	0x3c8e4ce7	0.017370654
172	0x3cc74325	0.02432401
173	0x39e8cc92	0.00044402905
174	0x3cfcc44b	0.030855319
175	0x3caf0fa6	0.021369766
176	0x3e0e7747	0.13912688
177	0xbd06ca62	-0.03290785
178	0xbd449373	-0.04799218
179	0xbd84e1b3	-0.06488361
180	0x3e0792e7	0.13239633
181	0x3d0c0e51	0.03419334
182	0x3e1c45e4	0.15261036
183	0x3e1a3652	0.15059784
184	0x3d0e393e	0.03472256
185	0x3d112a78	0.035440892
186	0xbcaaec8a	-0.020864744
187	0x3df40932	0.11915816
188	0x3e2a0dee	0.16606876
189	0xbd5c8189	-0.05383447
190	0xbd833272	-0.06406106
191	0x3e022754	0.12710315
192	0x3df2aa68	0.11848909
193	0xbca6dff6	-0.020370465
194	0x3ce394eb	0.02778097
195	0x3e175302	0.14777759
196	0xbda9fb09	-0.08299834
197	0xbcc295dc	-0.0237531
198	0xbd483e4b	-0.048887532
199	0x3d6975f0	0.05699724
200	0xbdd45e63	-0.10369565
201	0xbdc4a3fc	-0.0960159
202	0xbdf4d06a	-0.11953814
203	0xbc78580e	-0.015157713
204	0x3e1588d7	0.14602982
205	0x3dc13306	0.0943356
206	0x3d4d1a84	0.050074115
207	0x3e0abdc9	0.1354896
208	0x3e215583	0.15755276
209	0x3bc982f0	0.006149642
210	0x3de658fd	0.11247442
211	0x3d9849bc	0.07435939
212	0xbdb8f583	-0.09031203
213	0x3e195ca2	0.14976743
214	0xbcdddcc3	-0.027082806
215	0x3d2b8e6c	0.04188387
216	0x3c8416f8	0.016124234
217	0xbdda3fa7	-0.10656672
218	0x3dd984f0	0.10621059
219	0x3dc3adfe	0.09554671
220	0xbd9ef9d7	-0.07762497
221	0xbc0ada54	-0.008474905
222	0x3da11534	0.07865372
223	0x3d1a0adc	0.037608013
224	0x3de35c7c	0.11101624
225	0x3e31477b	0.17312424
226	0xbc4a7d32	-0.01235895
227	0xbd267676	-0.040640317
228	0xbdf49275	-0.11941997
229	0xbd914ca0	-0.07094693
230	0xbdcd2145	-0.10016111
231	0xbd9ed9b2	-0.07756366
232	0x3e3a4677	0.18190943
233	0xbcefb83b	-0.029262653
234	0x3e10f9f9	0.14157857
235	0xbdaba81e	-0.08381675
236	0x3e251ce8	0.16124308
237	0x3d9833d8	0.074317634
238	0x3c9d24f9	0.019182669
239	0x3e1cf527	0.15327893
240	0x3dc5065c	0.096203536
241	0x3e19a672	0.150049
242	0xbd122284	-0.035677448
243	0xbdc2207c	-0.09478852
244	0xbd1166e0	-0.0354985
245	0x3d43780e	0.047721915
246	0x3e25241e	0.16127059
247	0x3e32e68d	0.1747076
248	0xbbf23cc6	-0.0073924987
249	0x3dd47fdc	0.1037595
250	0x3c88b8da	0.016689707
251	0x3e475a3a	0.19468012
252	0xbd676b49	-0.0564988
253	0xbd9fe7eb	-0.07807907
254	0x3e171982	0.14755824
255	0xbd15bfd4	-0.036559895

decoder.fc2.bias f4 [66]
0	0x3cd7cb65	0.026342103
1	0x3c8f0f56	0.017463367
2	0x3e305539	0.1722001
3	0x3e02946d	0.12751932
4	0xbcc1de3a	-0.023665536
5	0x3d867602	0.06565477
6	0xbd64a0c1	-0.05581737
7	0xbd910abe	-0.07082127
8	0x3d893c94	0.067010075
9	0xbd978e0e	-0.07400142
10	0xbd40e620	-0.047094464
11	0xbdd48ef9	-0.10378832
12	0xbd7cf57d	-0.061757553
13	0x3e1aca55	0.15116246
14	0xbd8bf9f6	-0.06834786
15	0x3e23799a	0.15964356
16	0x3de5bf0e	0.112180814
17	0xbd1ff590	-0.039052546
18	0xbbc0adfe	-0.0058801165
19	0xbd1d9554	-0.03847249
20	0xbda4a1ad	-0.0803865
21	0x3e0bdf66	0.13659438
22	0xbd58be43	-0.052915823
23	0xbcf2701f	-0.02959448
24	0xbdf5112f	-0.11966168
25	0x3bb1af6a	0.0054225223
26	0xbe013efa	-0.1262168
27	0x3d9f8a1b	0.077900134
28	0x3d945635	0.07243005
29	0xbd49f85b	-0.049309116
30	0x3e10d5bc	0.14144033
31	0xbba0b9bf	-0.004904955
32	0xbd842963	-0.064532064
33	0x3e17203a	0.14758387
34	0x3e33e052	0.1756604
35	0x3cdfb6e7	0.027308894
36	0x3dc665ce	0.096873865
37	0xbdaa58c5	-0.08317713
38	0xbdb755bc	-0.089518994
39	0x3bfba3a5	0.00767942
40	0x3d82cf47	0.06387191
41	0x3d233b75	0.039851625
42	0xbdaac5d8	-0.08338517
43	0x3dfc2bf8	0.12313074
44	0x3de95690	0.113934636
45	0x3e0c0a3d	0.1367578
46	0x3a3ebb91	0.00072758744
47	0x3df5f8d7	0.12010353
48	0x3d3a4e81	0.045485023
49	0xbbe17a81	-0.0068810587
50	0x3d4f9817	0.050682154
51	0xbab4f9ba	-0.0013807334
52	0x3e26ae02	0.16277316
53	0xbbb7c25c	-0.0056078862
54	0x3d8a9b98	0.067679584
55	0x3d0894f3	0.033345174
56	0x3e15246f	0.1456468
57	0xbdc792b3	-0.097447775
58	0x3dd0c0e6	0.101930425
59	0x3de877c1	0.11350966
60	0x3e18e875	0.14932425
61	0xbdea168e	-0.11430083
62	0x3b83c152	0.0040208483
63	0x3e0f634b	0.14002721
64	0x3e298953	0.16556291
65	0x3e25b054	0.16180545

decoder.fc3.weight f4 [133, 66]
0	0x3cd19aa3	0.025586432
1	0x3d06d2bb	0.032915812
2	0x3b6edaa7	0.0036446245
3	0xbd5221b0	-0.05130166
4	0x3de97d83	0.114008926
5	0x3dc35533	0.09537735
6	0xbcfcf4db	-0.030878475
7	0x3d8301fc	0.06396863
8	0x3d1cd433	0.038288306
9	0x3da12b4a	0.07869585
10	0xbd0ac78c	-0.03388171
11	0xbd90dd9f	-0.07073521
12	0x3e055a4c	0.13022727
13	0x3db849e3	0.08998468
14	0xbd8c0cc5	-0.06838373
15	0x3bf2e436	0.007412459
16	0xbd145421	-0.036213044
17	0xbd00132a	-0.031268276
18	0x3c7631b3	0.015026498
19	0x3e303cb8	0.17210662
20	0x3e0f2227	0.13977872
21	0xbd22c397	-0.03973731
22	0xbd3c22fb	-0.045931797
23	0x3b054460	0.0020334944
24	0xbcad908d	-0.021187091
25	0xbc359e73	-0.0110851405
26	0xbcf26e21	-0.02959353
27	0x3dac7b36	0.08421938
28	0x3df36327	0.11884146
29	0x3d3fab0c	0.046793982
30	0x3d82217d	0.06354044
31	0x3dda9565	0.10673026
32	0xbc378e31	-0.011203335
33	0xbca8c00b	-0.020599386
34	0x3e13e21c	0.14441723
35	0x3d959bd7	0.07305115
36	0x3b48b6e4	0.003062659
37	0x3dc7b691	0.09751619
38	0x3df6de10	0.12054074
39	0x3e2914ba	0.16511813
40	0x3d26f3c1	0.040759806
41	0x3e193a58	0.14963663
42	0x3dcc1845	0.099655665
43	0xbda4af2c	-0.08041224
44	0x3e0a893d	0.13528915
45	0xbd4a6061	-0.04940832
46	0xbd6a99c4	-0.05727555
47	0x3e017153	0.12640886
48	0x3e25e9ae	0.16202423
49	0x3dc59f8b	0.09649571
50	0xbd7ddefc	-0.061980233
51	0xbccc6249	-0.02494921
52	0x3dbcb713	0.09214606
53	0x3df43619	0.11924381
54	0x3df6ed76	0.12057011
55	0x3e1baf90	0.1520369
56	0x3e005216	0.12531313
57	0x3df2f181	0.118624695
58	0x3dcb51b6	0.099276945
59	0xbd9d2e9b	-0.07674905
60	0xbda5c1bd	-0.08093593
61	0x3d0da289	0.034578834
62	0xbd8b0505	-0.06788067
63	0x3dabdba7	0.08391505
64	0xbcca1409	-0.024667757
65	0x3d9fb48f	0.07798111
66	0xbd51b711	-0.051199976
67	0x3db056ce	0.08610307
68	0x3d2c863c	0.042120203
69	0x3d50195f	0.050805446
70	0x3db7a005	0.08966068
71	0xbcfd7d4b	-0.030943533
72	0x3dad719e	0.084689364
73	0xbbd99a77	-0.006640728
74	0x3db2ef66	0.08737068
75	0x3dbd2ccc	0.0923706
76	0x3ce98a48	0.02850832
77	0xbd8a3a14	-0.06749359
78	0xbbfae7fc	-0.007657049
79	0xbc49da63	-0.012320134
80	0xbcd50ac0	-0.026006103
81	0xbbc53440	-0.0060181916
82	0x3d107a42	0.035272844
83	0xbd3e1df4	-0.046415284
84	0x3a89e0e7	0.0010519297
85	0x3d65ed2c	0.056134388
86	0x3d6904cf	0.05688935
87	0xbc7b79ce	-0.015348865
88	0x3d5d0e41	0.05396867
89	0xbc9ef75f	-0.019405065
90	0x3cddf574	0.02709458
91	0xbd946748	-0.07246262
92	0x3ca4663c	0.02006828
93	0x3d933e34	0.07189599
94	0x3c6484a9	0.013947644
95	0x3db58f0e	0.08865176
96	0x3da2c5df	0.07947897
97	0xbd578914	-0.052620962
98	0xbb148a8b	-0.0022665586
99	0x3d670605	0.056402225
100	0xbd353439	-0.044239257
101	0xbd46343d	-0.048389662
102	0x3d86144e	0.065468416
103	0xbc291edc	-0.010322299
104	0x3b98e33b	0.00466576
105	0x3d09fc6e	0.033688
106	0xbda3cc88	-0.079979956
107	0x3d8bec30	0.068321586
108	0x3d32e684	0.043676868
109	0xbd4636b9	-0.04839203
110	0x3d33405f	0.04376256
111	0xbbe539fb	-0.006995437
112	0xbd51806a	-0.051147856
113	0x3da3c1ea	0.079959705
114	0x3c93a93d	0.018025035
115	0xbd0d364f	-0.03447562
116	0x3dd6dccc	0.104913324
117	0x3d89db4f	0.06731283
118	0xbc423d26	-0.011855399
119	0x3c8d7068	0.017265514
120	0xbd48bb32	-0.04900665
121	0xbdb19bba	-0.086722806
122	0x3ca63714	0.020289935
123	0x3d222156	0.039582573
124	0xbd9b9305	-0.07596401
125	0x3d165c25	0.03670897
126	0xbd97dfaa	-0.074157074
127	0xbc9e8555	-0.019350687
128	0xbd38cff5	-0.0451202
129	0xbb1618bb	-0.0022902924
130	0xbca83391	-0.020532401
131	0x3da3186f	0.07963645
132	0xbd9c2569	-0.07624323
133	0xbc4c13ff	-0.012455939
134	0xbcdec43e	-0.027193185
135	0xbe01b555	-0.12666829
136	0xbb13be1d	-0.0022543736
137	0xbd7d1e5c	-0.06179653
138	0x3d8f65bd	0.07001827
139	0xbdd8c764	-0.10584906
140	0xbd55c6b9	-0.05219147
141	0xbe012c2d	-0.12614508
142	0xbcda6222	-0.026658121
143	0xbddf24c8	-0.10895687
144	0xbcd09e1d	-0.02546602
145	0x3d6c6539	0.05771372
146	0xbda5f3e2	-0.081031576
147	0x3ca41656	0.020030182
148	0xbdae01bb	-0.08496424
149	0x3d47adb2	0.048749633
150	0xbd4e772d	-0.050406624
151	0xbe02b607	-0.1276475
152	0x3c6d4500	0.014481783
153	0x3c6bb309	0.014385947
154	0xbc741b35	-0.014899065
155	0x3be87024	0.0070934463
156	0xbd73c584	-0.059514537
157	0xbc409961	-0.011755318
158	0x3c94303e	0.01808941
159	0x3d979ed1	0.07403339
160	0x3c9637b6	0.018337112
161	0xbddd040e	-0.10791789
162	0x3d9fea55	0.07808367
163	0x3ce5b5fd	0.02804088
164	0x3d8aecf7	0.06783479
165	0xbb98b44d	-0.0046601654
166	0x3d9fa992	0.07796015
167	0xbd47ff92	-0.048827715
168	0x3cc2e242	0.023789529
169	0x3d852b65	0.065024175
170	0x3d4e9b1e	0.0504409
171	0x3d98b4ce	0.07456361
172	0x3d324187	0.043519523
173	0x3d926f12	0.07150091
174	0xbd745868	-0.059654623
175	0xbd2eb8a6	-0.042656563
176	0xbde64650	-0.1124388
177	0x3be3acc0	0.0069480836
178	0x3d8879bb	0.06663843
179	0x3d20789a	0.039177515
180	0xbd0c1edf	-0.03420913
181	0xbd95925f	-0.07303309
182	0xbdbe53f8	-0.092933595
183	0xbdc988c3	-0.09840538
184	0x3c23b23e	0.009991227
185	0xbd9226d6	-0.071363136
186	0xbe00032d	-0.12501211
187	0x3d53b969	0.051690493
188	0xbbd2ec0f	-0.006436832
189	0xbbbf1609	-0.005831484
190	0x3c793f06	0.01521278
191	0x3ba00d42	0.004884393
192	0x3dc3d173	0.09561434
193	0xbc96b78b	-0.018398067
194	0xbd536918	-0.051613897
195	0x3d169982	0.03676749
196	0xbd7a93c5	-0.06117608
197	0xbda26085	-0.07928566
198	0xbc9fdc1e	-0.01951414
199	0x3cecf567	0.02892561
200	0xbcb92c41	-0.02260411
201	0x3d657d55	0.05602773
202	0xbd17c740	-0.037055254
203	0xbc72c66d	-0.014817816
204	0x3c5b178f	0.013372316
205	0x3d451de8	0.048124224
206	0xbda47dd8	-0.08031815
207	0x3d4f7615	0.05064972
208	0x3d74ddcd	0.05978184
209	0x3d6c9f60	0.05776918
210	0xbda89b0d	-0.082326986
211	0xbdafa612	-0.08576597
212	0xbc99815e	-0.018738445
213	0x3c741cb7	0.014899424
214	0xbc94955e	-0.01813763
215	0x3c85ac44	0.016317494
216	0x3cab610b	0.020920297
217	0x3d9557b3	0.07292118
218	0xbdaebec4	-0.085324794
219	0x3d64770c	0.055777594
220	0xbd2b342e	-0.04179781
221	0xbd1e1574	-0.038594678
222	0x3c2eb135	0.010662367
223	0xbd7674ca	-0.060169972
224	0xbd81559a	-0.06315155
225	0x3d66c20b	0.056337398
226	0xbc6c6701	-0.014428855
227	0x3d932da6	0.07186441
228	0xbc921376	-0.017831545
229	0xbda002f4	-0.07813063
230	0xbd8e414e	-0.0694605
231	0x3d93db60	0.07219577
232	0xbbb8ebb7	-0.005643334
233	0x3cc9ce65	0.02463455
234	0xbdbab024	-0.091156274
235	0xbc629697	-0.013829849
236	0x3cc717a8	0.024303272
237	0x3c6c177e	0.014409898
238	0xbd5d1ffc	-0.05398558
239	0xbd82a7ea	-0.06379683
240	0x3d6a9fe6	0.057281397
241	0xbd4022e1	-0.046908263
242	0x3cbedf73	0.023299908
243	0x3ce7d49a	0.028299619
244	0xbd232e2b	-0.03983895
245	0x3d412256	0.047151886
246	0xbda4b501	-0.08042336
247	0x3d9fdd0e	0.07805835
248	0xbdecd02d	-0.11563144
249	0xbbbd629b	-0.005779577
250	0x3cbd6a82	0.023122076
251	0xbcbb92aa	-0.022897083
252	0x3d4e9cfd	0.050442684
253	0xbc052f47	-0.008128948
254	0x3dd4318b	0.10361012
255	0xbcb669fd	-0.022267336

decoder.fc3.bias f4 [133]
0	0xbbd8e529	-0.006619115
1	0x3cad813b	0.021179786
2	0x3d5cd165	0.05391063
3	0xbd3aa064	-0.045563117
4	0xbd99b6fb	-0.07505604
5	0x3de033ae	0.10947357
6	0x3c9b0739	0.018924342
7	0xbdaef684	-0.08543113
8	0x3d6ac3fe	0.05731582
9	0xbbca5f38	-0.0061759017
10	0xbd7c39e0	-0.06157863
11	0x3da4ed26	0.08053045
12	0xbdb53ccb	-0.08849486
13	0xbdc327d4	-0.09529081
14	0xbd8e650a	-0.069528654
15	0xbc95385f	-0.018215356
16	0xbda20b8a	-0.07912357
17	0x3c684a5b	0.014177884
18	0xbd94de4c	-0.07268962
19	0xbdb5c78a	-0.0887595
20	0xbd735c1b	-0.05941401
21	0x3dee8cfe	0.11647986
22	0x3dc39a3c	0.09550902
23	0xbc4a1df9	-0.012336248
24	0xbdfc76b2	-0.12327327
25	0x3dc18407	0.0944901
26	0xbdc1c4d6	-0.094613716
27	0x3df66969	0.12031824
28	0xbdb80c4a	-0.08986719
29	0xbe112cf5	-0.14177306
30	0xbdb87ae8	-0.090078175
31	0x3ce42429	0.027849274
32	0x3bc00392	0.0058598006
33	0x3daa60f2	0.08319272
34	0xbdd856fa	-0.105634645
35	0x3c540162	0.012939783
36	0x3dbc6969	0.09199793
37	0x3d9788f9	0.07399172
38	0x3db37381	0.08762265
39	0x3dc2099d	0.0947449
40	0x3da8a4ad	0.082345344
41	0x3d9814ee	0.07425867
42	0x3d239ea6	0.03994622
43	0xbddcdd6d	-0.10784421
44	0xbd60b0b6	-0.054856025
45	0xbd80c931	-0.06288374
46	0xbe09df2d	-0.13464041
47	0x3d1bf0a6	0.038071297
48	0x3dab6ced	0.08370385
49	0x3d46913d	0.048478354
50	0xbdc738d2	-0.097276345
51	0x3dadaab1	0.084798224
52	0x3d81e9e6	0.06343441
53	0x3d797565	0.06090297
54	0xbce0f1ca	-0.027459044
55	0xb8ee1038	-0.00011351745
56	0xbccf9857	-0.025341196
57	0x3dc797ff	0.09745788
58	0x3d757a54	0.059931114
59	0xbccd7a9c	-0.025082879
60	0xbe0d5303	-0.13801198
61	0xbd953640	-0.07285738
62	0x3dd3d265	0.10342864
63	0x3d9f9c1f	0.077934496
64	0xbcba5a33	-0.022748088
65	0x3d0b7b2a	0.034053005
66	0x3d8de44c	0.0692831
67	0x3d983872	0.07432641
68	0x3d38dd5a	0.045132972
69	0x3d1ddfe2	0.03854359
70	0xbd5f94c3	-0.05458523
71	0x3d410239	0.04712126
72	0xbdc372d9	-0.0954339
73	0xbcd29822	-0.025707308
74	0xbdaa316e	-0.08310209
75	0xbd94e40b	-0.07270058
76	0x3cf7f8af	0.030269949
77	0x3d679105	0.056534786
78	0xbd3e4a4d	-0.046457577
79	0x3db48e9a	0.088162616
80	0xbd04aa38	-0.032388896
81	0x3da83ab1	0.082143195
82	0x3dbf9125	0.09353856
83	0x3c7051c9	0.014667937
84	0xbd289599	-0.041158292
85	0xbc9c26bb	-0.019061437
86	0xbd97b0b7	-0.074067526
87	0x3de0db86	0.10979371
88	0xbdb6ae16	-0.08919923
89	0x3c55353a	0.0130131785
90	0xbd239334	-0.039935306
91	0x3caf3c3d	0.021391029
92	0xbdd8d4ae	-0.105874404
93	0xbddc9dba	-0.107722715
94	0x3cdff33a	0.02733766
95	0x3d815227	0.063144974
96	0x3db61780	0.08891201
97	0x3d290b75	0.041270692
98	0x3d01c772	0.031684346
99	0xbde8bf16	-0.11364572
100	0x3d072e16	0.033002935
101	0xbe19ca00	-0.15018463
102	0xbd5c3e92	-0.05377061
103	0xbdf0fbcd	-0.11766777
104	0xbd991d53	-0.07476296
105	0x3c8b2183	0.016983753
106	0x3db705e0	0.089366674
107	0x3d9f037d	0.07764337
108	0xbd34d138	-0.04414484
109	0xbdcd69d4	-0.10029951
110	0x3ddbed2c	0.10738596
111	0x3e025c51	0.12730528
112	0x3da00f23	0.07815387
113	0x3ddd4030	0.108032584
114	0xbd72a115	-0.05923565
115	0xbd13766d	-0.03600161
116	0x3d709911	0.058739726
117	0x3d90fd3a	0.07079549
118	0xbdcef518	-0.10105342
119	0x3da41a75	0.08012859
120	0xbdbdd0af	-0.09268319
121	0xbdc5398d	-0.096301176
122	0xbbdf5a65	-0.006816196
123	0xbde2ee19	-0.1108057
124	0xbdaa272c	-0.08308253
125	0xbe08df15	-0.13366349
126	0xbdbcb3e1	-0.09213997
127	0x3d52b97c	0.051446423
128	0xbdbdda64	-0.0927017
129	0xbdf102c7	-0.11768108
130	0xbdc644c2	-0.09681083
131	0x3d1d989d	0.03847562
132	0x3c4da5e3	0.0125517575
