6_DeepAutoencoders/vae.pt (torch_old, 101343 bytes, 14 tensors)

encoder.fc1.weight f4 [66, 133]
0	0xbd48917d	-0.048966873
1	0xbd9b28c5	-0.075761355
2	0x3d3225d9	0.043493126
3	0xbdb4fb40	-0.08836985
4	0x3d685d48	0.056729585
5	0xbd63f07f	-0.055649277
6	0x3d49b7f0	0.049247682
7	0x3d689e6d	0.05679171
8	0xbd8450fa	-0.064607576
9	0xbb9fee1d	-0.0048806802
10	0xbd8d2520	-0.06891847
11	0xbb46c022	-0.0030326922
12	0x3c19d99d	0.009390262
13	0x3c592535	0.0132535
14	0xbdafa049	-0.08575494
15	0xbc9c6f9c	-0.019096188
16	0x3d884ee7	0.066556744
17	0x3d853544	0.065043
18	0x3d4af3c4	0.04954888
19	0x3aa1f3fa	0.0012356036
20	0xbda43a4d	-0.080189325
21	0x3d9accd2	0.075585976
22	0x3c6c6b90	0.014429942
23	0xbda5a143	-0.08087399
24	0xbd732889	-0.05936483
25	0xbdc4d6e2	-0.09611298
26	0x3cc64976	0.02420495
27	0xbda060d7	-0.07830971
28	0x3d872b8d	0.066001035
29	0x3cb93a3b	0.022610774
30	0xbc2099cd	-0.009802294
31	0x3cae078c	0.021243833
32	0xbcc779a0	-0.024349988
33	0x3db83c0a	0.089958265
34	0x3bef0608	0.00729442
35	0xbda0ba12	-0.0784799
36	0xbc8e3774	-0.017360426
37	0xbd61a1c9	-0.05508593
38	0x3d756ff1	0.05992121
39	0xbbb0808e	-0.0053864187
40	0x3d882ae0	0.06648803
41	0xbab530cf	-0.001382375
42	0x3bd9741a	0.006636155
43	0x3d691cd3	0.056912255
44	0x3d82196e	0.063525066
45	0x3bfc2384	0.0076946635
46	0x3d5e9d88	0.054349452
47	0x3cf9436e	0.03042766
48	0x3cd325d2	0.02577487
49	0xbcf0844e	-0.029359963
50	0xbce85960	-0.02836293
51	0xbd5fb3d9	-0.054614875
52	0xbd0cf6eb	-0.034415167
53	0xbd735b09	-0.05941299
54	0xbd7b625c	-0.0613731
55	0x3da16dfb	0.07882305
56	0x3b6d46a6	0.003620544
57	0xbd838951	-0.064226754
58	0xbd60d1d7	-0.05488762
59	0xbd9ac9fb	-0.07558056
60	0x3d15d192	0.036576815
61	0x3d74ab39	0.059733603
62	0xbcc7dcb2	-0.024397228
63	0x3c4a9995	0.012365718
64	0xbda57f06	-0.080808684
65	0xbd75be0e	-0.059995703
66	0xbdbddb65	-0.09270362
67	0x3d047d35	0.03234597
68	0xbd7550f2	-0.05989165
69	0x3d1e8857	0.038704243
70	0x3d8d1fb8	0.068908155
71	0x3d20b342	0.039233454
72	0xbbd37eb6	-0.006454314
73	0x3d053674	0.032522634
74	0x3da1e31e	0.07904647
75	0xbd15179f	-0.03639948
76	0x3b31f9a5	0.0027156856
77	0x3d9c891c	0.07643339
78	0xbdb3b45f	-0.087746374
79	0x3d241fed	0.04006951
80	0x3b07b676	0.002070812
81	0x3d96bb7f	0.07359981
82	0xbc11c861	-0.008897872
83	0xbd1d8b8a	-0.038463153
84	0xbd3b5fe0	-0.04574573
85	0xbc5e7f8d	-0.013580215
86	0xbba8c7a1	-0.0051507507
87	0x3d911907	0.07084852
88	0xbd86bea5	-0.06579331
89	0x3cbe25e4	0.023211427
90	0xbd4121e4	-0.04715146
91	0xbd716b9f	-0.058940526
92	0xbd9b6966	-0.075884625
93	0x3d980e9d	0.07424662
94	0xbcdde5c6	-0.027087104
95	0x3d276e28	0.040876538
96	0x3b7b70d7	0.0038366818
97	0x3c9a32d7	0.01882307
98	0xbcdb2fec	-0.02675625
99	0xbd922a51	-0.071369775
100	0xbdb125f9	-0.08649821
101	0xbd99eebd	-0.07516239
102	0xbcb1fb65	-0.02172632
103	0x3c0dcda8	0.008654989
104	0xbdbdf017	-0.09274309
105	0xbda4fe58	-0.08056325
106	0xbda0a530	-0.07844007
107	0x3d36728a	0.044542827
108	0x3d31674c	0.043311402
109	0x3c04d267	0.008106804
110	0x3cc19e6d	0.023635114
111	0x3da74a1a	0.081684306
112	0xbd427310	-0.047473013
113	0xbd09be52	-0.03362877
114	0xbc827b17	-0.015927834
115	0xbd855d1a	-0.06511898
116	0xbd3bce8f	-0.045851287
117	0x3c3d6050	0.011558607
118	0xbc20245e	-0.009774296
119	0xbdabc544	-0.08387235
120	0x3d9c4d85	0.07631973
121	0x3ce37501	0.027765753
122	0x3bd36e47	0.006452355
123	0x3d5582dc	0.05212675
124	0xbd5de671	-0.054174844
125	0xbcec93dd	-0.0288791
126	0x3d1d9645	0.038473386
127	0x3d54c95f	0.051949855
128	0x3d39a13d	0.045319784
129	0xbd5e6f39	-0.05430529
130	0xbccc3df3	-0.024931883
131	0x3d42635d	0.04745804
132	0x3cd96ab2	0.026540134
133	0x3cb6a97a	0.02229761
134	0x3d2300a6	0.03979554
135	0xbd9e42ef	-0.0772761
136	0x3d98c11b	0.07458707
137	0xbd16872c	-0.036750004
138	0xbcaf91ca	-0.021431822
139	0x3d995366	0.0748661
140	0x3d2e6da5	0.042585034
141	0x3d2bbc74	0.04192777
142	0xbd0727a0	-0.032996774
143	0xbd677ad9	-0.05651364
144	0xbb0a26e4	-0.002108031
145	0xbd361e83	-0.044462692
146	0x3c9fcef8	0.01950787
147	0x3d9797e0	0.07402015
148	0x3bdb2974	0.006688291
149	0x3d0263be	0.031833403
150	0x3d9be43e	0.07611893
151	0xbd7ba157	-0.061433163
152	0x3cc59db2	0.024123047
153	0x3d30e419	0.04318628
154	0xbcbcba8b	-0.02303817
155	0x3d210a92	0.03931672
156	0xbd2af24a	-0.04173497
157	0x3d827fc9	0.06372029
158	0xbd0dc886	-0.034615062
159	0x3d21f57b	0.03954075
160	0x3d3469b5	0.044046123
161	0xbd134292	-0.03595216
162	0xbc4504f6	-0.012025109
163	0x3d015c78	0.031582326
164	0xbd632d2b	-0.055462997
165	0xbc7f5b99	-0.015585803
166	0x3d2eba33	0.042658042
167	0x3a7a8572	0.0009556628
168	0x3af049ee	0.001833258
169	0xbda2945f	-0.07938456
170	0xbc3e70af	-0.011623546
171	0x3dba321a	0.09091587
172	0x3d2ca2ce	0.04214745
173	0x3b8c0e36	0.004274155
174	0x3d00f8f0	0.031487405
175	0x3d328501	0.043583874
176	0xbd7f07e0	-0.06226337
177	0x3b0afcf8	0.002120791
178	0x3cff4ea0	0.031165421
179	0xbd3484ce	-0.044071965
180	0xbd9c8080	-0.07641697
181	0x3cf447e6	0.02981944
182	0x3cf5771a	0.029964019
183	0xbd9f1f93	-0.07769694
184	0x3d897800	0.06712341
185	0x3d34f67c	0.04418038
186	0x3d746f0f	0.059676226
187	0xbd9b2faf	-0.07577454
188	0x3ca7b670	0.020472735
189	0x3d863404	0.0655289
190	0x3d805ad8	0.06267327
191	0xbd1e85bb	-0.038701754
192	0xbad4c9f9	-0.0016234509
193	0xbd87f4d0	-0.06638491
194	0x3d187eb4	0.03723021
195	0xbbfa59b6	-0.007640089
196	0x3c960103	0.01831103
197	0xbd1f9bf5	-0.03896709
198	0x3dc1673a	0.09443517
199	0xbd95f91f	-0.07322907
200	0xbd0f5529	-0.034993324
201	0x3d9be2cb	0.07611617
202	0xbdae8026	-0.08520536
203	0xbc1cf19e	-0.00957909
204	0x3c6f14ea	0.014592389
205	0x3d229f86	0.039702915
206	0x3d81735b	0.063208304
207	0xbcdb85f6	-0.026797276
208	0x3d937d23	0.07201602
209	0x3d9fee53	0.078091286
210	0x3d107bda	0.035274364
211	0x3c8c14a2	0.017099682
212	0x3d39f1e4	0.0453967
213	0x3d74b838	0.059745997
214	0x3c373423	0.011181864
215	0x3d886d10	0.06661427
216	0xbc2220a5	-0.009895478
217	0x3d1faaae	0.038981132
218	0x3d05435a	0.032534935
219	0x3cc48d8a	0.023993272
220	0xbdada53f	-0.08478784
221	0x3c900b7c	0.017583601
222	0xbcaa145e	-0.020761665
223	0xbd3b39b7	-0.045709338
224	0xbce88f33	-0.028388595
225	0xbca5875e	-0.02020615
226	0x3d9f25b0	0.0777086
227	0xbd63de75	-0.055632073
228	0xbd21f1d3	-0.039537262
229	0x3d0e960b	0.03481106
230	0xbd6bd4d2	-0.05757601
231	0x3cdb08af	0.02673754
232	0xbd9b3245	-0.075779475
233	0xbcba593d	-0.02274763
234	0x3d7528bc	0.0598533
235	0x3cdfe94c	0.027332924
236	0x3d9db460	0.077004194
237	0x3d54eb07	0.051981952
238	0x3cc7c46a	0.02438565
239	0x3d98e880	0.07466221
240	0x3c9e02fa	0.019288529
241	0x3ce53fc1	0.027984502
242	0x3d846f0a	0.064664915
243	0xbba3a9c3	-0.0049946024
244	0xbdb0daa8	-0.08635455
245	0x3cfe92f7	0.031075938
246	0x3d4b8ff4	0.04969783
247	0xbd3fc5e1	-0.04681957
248	0xbd1dec70	-0.038555562
249	0xbc6836b1	-0.014173196
250	0xbcab63a0	-0.020921528
251	0xbd2e72ba	-0.04258988
252	0xbb4da3aa	-0.003137807
253	0xbc1f8925	-0.009737288
254	0x3a1f2f40	0.00060724095
255	0x3d16c8f1	0.036812726

encoder.fc1.bias f4 [66]
0	0x3c42c9c6	0.011888927
1	0xbb5db0e6	-0.0033827364
2	0x3bf77b46	0.007552537
3	0xbd8edf84	-0.06976226
4	0xbcd8e682	-0.026477102
5	0x3d8f9d8c	0.070124716
6	0xbd8f5537	-0.06998675
7	0xbd8df5fe	-0.06931685
8	0x3d9df83f	0.07713365
9	0x3d3d7988	0.04625848
10	0xbc3870db	-0.011257376
11	0x3d2539d8	0.040338367
12	0x3cf4e339	0.029893504
13	0x3ce5e88a	0.028064985
14	0xbd742a56	-0.059610687
15	0x3c2010e1	0.009769649
16	0x3cffe7c3	0.031238442
17	0x3cf5cdde	0.030005392
18	0x3d68239a	0.056674577
19	0x3d817096	0.06320302
20	0x3c0360d4	0.008018691
21	0xbd191051	-0.037369076
22	0x3d2c9da6	0.042142533
23	0x3d6fae4c	0.05851583
24	0xbd90cb3c	-0.07070014
25	0x3d0f08f8	0.034920663
26	0x3caa657c	0.020800345
27	0x3cdbb319	0.026818799
28	0x3d86c696	0.06580846
29	0x3db3d858	0.08781499
30	0x3c442521	0.011971743
31	0xbcea68b6	-0.028614383
32	0x3d8d51c9	0.06900365
33	0x3b8687ac	0.004105529
34	0xbd8e6121	-0.069521196
35	0x3d3459f0	0.044031084
36	0xbbb21f9d	-0.0054358975
37	0xbd598c9b	-0.053112607
38	0xbd1cc86b	-0.03827707
39	0x3cbbaf94	0.02291087
40	0xbc9e57e6	-0.019329023
41	0x3d40f35a	0.047107078
42	0xbd9dff61	-0.07714725
43	0xbda730b7	-0.081635885
44	0xbceada6f	-0.02866861
45	0x3c0ed7d7	0.008718452
46	0x3cbc79e4	0.02300734
47	0x3d8ddc63	0.06926801
48	0xbdb0d23c	-0.08633849
49	0xbd08bdfe	-0.033384316
50	0x3b00303c	0.001956
51	0x3c1b6899	0.009485387
52	0xbd97268a	-0.073803976
53	0xbd35d958	-0.04439673
54	0xbd4f9168	-0.05067578
55	0xbce86cc8	-0.028372183
56	0x3ab6fa16	0.001396003
57	0xbcfb6c55	-0.030691305
58	0xbd13f768	-0.036124617
59	0xbcd9c2e4	-0.026582189
60	0x3c5d0b10	0.013491407
61	0xbd900cee	-0.07033716
62	0xbd0c7a18	-0.034296125
63	0x3c988371	0.018617364
64	0x3d3ccaf1	0.046091978
65	0x3d64bcf0	0.055844247

encoder.fc2.weight f4 [40, 66]
0	0xbd65e5a3	-0.0561272
1	0x3dff35f1	0.124614604
2	0x3e0134c6	0.12617788
3	0xbb8c26da	-0.0042770924
4	0x3d06c885	0.032906074
5	0xbd601cfd	-0.054715145
6	0xbbe9e3e6	-0.0071377633
7	0xbd7db22c	-0.061937496
8	0x3dd00f32	0.10159148
9	0x3de8b7b9	0.11363167
10	0xbca4cf8e	-0.020118501
11	0x3de32705	0.11091427
12	0xbbe81830	-0.0070829615
13	0xbc0fae21	-0.008769543
14	0x3cc96108	0.0245824
15	0x3ddf9384	0.10916808
16	0x3dce9e3b	0.10088774
17	0x3e0df804	0.13864142
18	0xbd8cc1e5	-0.0687292
19	0x3e125e93	0.1429389
20	0x3ce78ac4	0.02826441
21	0x3c6eea7b	0.014582272
22	0xbd7579d3	-0.059930634
23	0x3d03ec7c	0.03220795
24	0xbd305f3c	-0.043059573
25	0x3dc28aea	0.09499152
26	0xbd1f69c8	-0.03891924
27	0x3d9073e1	0.07053352
28	0xbc14237c	-0.009041663
29	0xbcaeee06	-0.021353733
30	0xbdb2bc58	-0.0872733
31	0x3e059312	0.13044384
32	0x3d55621a	0.05209551
33	0x3c6f784f	0.014616086
34	0x3d01c984	0.03168632
35	0xbdd185a9	-0.10230572
36	0x3dae6c1b	0.08516713
37	0xbdd56fd8	-0.10421723
38	0xbd291884	-0.041283146
39	0xbd827df6	-0.063716814
40	0xbd8477b2	-0.064681426
41	0x3dde4e98	0.10854834
42	0xbd6a083a	-0.05713675
43	0x3df9724e	0.12180005
44	0x3d7d9d1d	0.061917413
45	0x3d379271	0.04481739
46	0x3e031e4f	0.1280453
47	0xbdbf3f08	-0.09338194
48	0xbd8b81e9	-0.06811888
49	0x3dc2caac	0.09511313
50	0xbc63ceda	-0.013904298
51	0x3dbf8e1e	0.093532786
52	0x3e251d58	0.16124475
53	0xbcf7305f	-0.030174432
54	0xbd0313a1	-0.03200114
55	0x3d580240	0.05273652
56	0x3c619b54	0.013769943
57	0xbdf40108	-0.11914259
58	0x3d8823d8	0.06647462
59	0xbdce22b3	-0.10065212
60	0x3daf9b9e	0.085746035
61	0x3d9626b4	0.07331601
62	0xbdc75f95	-0.09735028
63	0x3bac43be	0.005257099
64	0x3dca3312	0.09873022
65	0x3d22c46d	0.039738107
66	0xbda69ca1	-0.08135343
67	0xbce07e82	-0.027404074
68	0xbdd50d64	-0.10402945
69	0x3d100ab8	0.035166472
70	0x396c95b6	0.00022562486
71	0xbb052779	-0.0020317717
72	0xbe08a08b	-0.13342492
73	0xbd4c7678	-0.049917668
74	0x3d69b0b3	0.05705328
75	0xbd08610a	-0.03329567
76	0xbdd0f647	-0.10203224
77	0xbd0473c1	-0.032336954
78	0xbd946441	-0.072456844
79	0x3d023fb6	0.03179904
80	0xbd6e4260	-0.05816877
81	0x3db9c3f9	0.09070582
82	0xbc39ae81	-0.011333109
83	0x3daf8033	0.08569374
84	0x3d6fd9a0	0.058557153
85	0x3e01f487	0.12690936
86	0xbd899cfc	-0.067193955
87	0xbdc18d9c	-0.09450838
88	0xbdb4965a	-0.0881774
89	0xbdc95622	-0.09830882
90	0x3cc2c4d2	0.023775492
91	0xbdbb12d6	-0.09134452
92	0xbc23fb00	-0.0100085735
93	0x3d38da54	0.04513009
94	0xbdc6bf81	-0.09704495
95	0x3bffa59a	0.0078017237
96	0xbe0098b8	-0.12558258
97	0x3dd25134	0.102693945
98	0x3d417c9a	0.04723797
99	0x3d258eb6	0.040419303
100	0xbda6ef5c	-0.08151123
101	0xbc8f122b	-0.017464718
102	0x3d9b1606	0.0757256
103	0xba9af7bd	-0.0011823099
104	0x3dd9fa21	0.106434114
105	0x3dbc2698	0.09187049
106	0x3deca6f4	0.11555281
107	0xbd9308a1	-0.0717938
108	0x3d309c40	0.04311776
109	0x3d2f1182	0.042741306
110	0x3c8b878b	0.017032405
111	0xbd8d199c	-0.0688965
112	0x3dd540c6	0.10412745
113	0x3dd19554	0.1023356
114	0xbde79bf1	-0.1130904
115	0xbd0b43ee	-0.03400033
116	0xbda6f6c7	-0.08152538
117	0xbe00040e	-0.12501547
118	0x3dd431cc	0.103610605
119	0x3dc1bc93	0.09459796
120	0xbdb3f890	-0.08787644
121	0x3ab62ec0	0.0013899431
122	0xbcc00643	-0.023440486
123	0xbdc9b804	-0.09849551
124	0x3cf322c0	0.029679656
125	0xbc35ef2e	-0.011104388
126	0xbd0a775a	-0.03380523
127	0xbd2367f8	-0.039894074
128	0x3a440105	0.00074769586
129	0xbd95491e	-0.072893366
130	0xbdc2ae74	-0.095059305
131	0x3d181034	0.037124828
132	0x3db1459f	0.08655857
133	0x3cbc93ad	0.023019636
134	0xbd97769e	-0.07395671
135	0xbdc35470	-0.095375896
136	0xbd3722a7	-0.04471078
137	0x3d1bdc74	0.038052037
138	0x3cae8e4a	0.021308083
139	0xbc67ee9f	-0.014156013
140	0xbd0bbd8a	-0.034116305
141	0xbd638bf3	-0.055553388
142	0xbd3c3ee5	-0.04595842
143	0x3d822338	0.06354374
144	0x3cafa784	0.021442182
145	0xbcf9d75e	-0.030498203
146	0x3d81ad0b	0.063318335
147	0xbaf4e300	-0.0018683374
148	0xbda8c7e7	-0.08241253
149	0x3d52fe06	0.051511787
150	0x3d8894ba	0.06668992
151	0x3ce74889	0.02823283
152	0x3c5e90e3	0.013584348
153	0x3d64f9aa	0.05590216
154	0x3d81f785	0.06346039
155	0xbcea3aa4	-0.028592415
156	0xbd4398c0	-0.047753096
157	0x3c3a8160	0.0113833845
158	0x3dc6621a	0.0968668
159	0x3d4d7447	0.05015972
160	0x3d9099c1	0.07060576
161	0xbdc07be6	-0.09398632
162	0xbd8610b4	-0.065461546
163	0x3cb4924f	0.022042422
164	0xbd35e656	-0.04440912
165	0x3c8b73b3	0.017022943
166	0x3dfb9034	0.12283364
167	0xbddfc2e9	-0.10925848
168	0xbda6ee78	-0.08150953
169	0xbccff514	-0.025385417
170	0x3dbe4577	0.09290593
171	0xbca40b81	-0.020025017
172	0x3d91404a	0.0709234
173	0x3d46b6a4	0.048514023
174	0xbc9816a4	-0.018565483
175	0x3cf105f7	0.02942179
176	0xbd280873	-0.041023683
177	0xbd01121e	-0.03151142
178	0x3dbc1106	0.091829345
179	0xbcb8c1fb	-0.022553435
180	0xbdaf74d6	-0.085672066
181	0xbcb44319	-0.02200465
182	0xbd232bd0	-0.039836705
183	0xbde591ce	-0.11209451
184	0xbcdec8d8	-0.02719538
185	0x3c86de2f	0.016463367
186	0xbd028833	-0.03186817
187	0x3ce6f638	0.028193578
188	0xbd498a84	-0.049204364
189	0xbd7838b1	-0.06060094
190	0xbdbb497f	-0.09144878
191	0xbd72a450	-0.05923873
192	0xbde660b4	-0.112489134
193	0xbde02ea2	-0.109463945
194	0x3db33622	0.087505594
195	0x3d6344e3	0.055485617
196	0x3d52118d	0.05128627
197	0xbce50626	-0.027957033
198	0x3d61dc96	0.055142008
199	0x3d8336c7	0.06406932
200	0xbd9f6b01	-0.07784081
201	0xbdb797ae	-0.089644775
202	0xbd181a3e	-0.0371344
203	0x3ca6d29b	0.020364096
204	0x3cfa62a3	0.030564612
205	0x3d89e6d6	0.067334816
206	0xbdecd1ed	-0.11563478
207	0xbc3c9b3e	-0.011511622
208	0x3bada96b	0.005299737
209	0xbd361d55	-0.044461567
210	0xbdbdcaed	-0.09267221
211	0x3d70824b	0.058718007
212	0xbda221ec	-0.07916626
213	0xbd664768	-0.056220442
214	0x3ca5317b	0.020165196
215	0xbb287da1	-0.0025709646
216	0xbdcdd160	-0.10049701
217	0xbd5368fd	-0.051613797
218	0x3d863a07	0.065540366
219	0x3da99e3e	0.082821354
220	0xbde3d1fa	-0.11124034
221	0xbcd2c0f7	-0.025726778
222	0x3dd8bed0	0.105832696
223	0xbd987e7b	-0.07445999
224	0x3d6a6118	0.057221502
225	0x3d4c1200	0.049821854
226	0xbb97c23a	-0.004631308
227	0x3c804249	0.015656607
228	0xbd12736a	-0.0357546
229	0x3cf6e176	0.030136805
230	0x3dfe195b	0.1240718
231	0x3dc027ac	0.09382567
232	0x3d81387c	0.06309602
233	0x3d8375e2	0.06418969
234	0x3dd8d74a	0.10587938
235	0xbc9ed80c	-0.019390129
236	0x3dc9407f	0.09826755
237	0x3cc61085	0.024177799
238	0x3da4d1b6	0.08047812
239	0x3d0a42b0	0.033755004
240	0xbc86af78	-0.016441092
241	0xbc8bd46b	-0.017069062
242	0x3dafdb09	0.085866995
243	0x3d82146b	0.06351551
244	0xbba51144	-0.0050374586
245	0x3c1199ff	0.008886813
246	0xbd3dab90	-0.046306193
247	0xb9cee5ad	-0.00039462504
248	0xbc46a196	-0.012123486
249	0xbd812973	-0.06306734
250	0xbda08b3d	-0.078390576
251	0x3dc4df7b	0.09612938
252	0x3d54468a	0.051825084
253	0x3cc78490	0.024355203
254	0xbdd7bfd7	-0.105346374
255	0x3d5b277d	0.053504456

encoder.fc2.bias f4 [40]
0	0xbb36da87	-0.0027901249
1	0x3d9d2b59	0.076742835
2	0x3dde18ba	0.1084456
3	0x3c920a5e	0.01782721
4	0xbd46b0ce	-0.048508458
5	0xbbbd1c88	-0.0057712235
6	0x3da435c1	0.08018065
7	0xbd5ca96e	-0.05387252
8	0x3d8d8016	0.06909196
9	0xbd9b0ac3	-0.07570412
10	0xbd080f9f	-0.033218022
11	0x3cf678d8	0.03008692
12	0x3d9511f9	0.07278819
13	0xbd9c4703	-0.07630732
14	0x3c1ec178	0.009689681
15	0xbd819ba7	-0.063285165
16	0xbc663960	-0.014051765
17	0x3bcd61b7	0.006267752
18	0x3da2df1b	0.0795271
19	0xbd35a9e1	-0.044351462
20	0x3dee7981	0.11644269
21	0xbdb5382e	-0.08848606
22	0xbda17bff	-0.078849785
23	0x3dc3633a	0.0954041
24	0x3d4311fd	0.047624577
25	0x3dea0044	0.11425832
26	0x3c71b1a4	0.0147518255
27	0xbdd80da8	-0.1054948
28	0x3d61f3ce	0.05516415
29	0xbc3aa358	-0.011391483
30	0x3d993b3b	0.074820004
31	0xbdfa995f	-0.122362845
32	0x3d518488	0.051151782
33	0xbd9488ac	-0.072526306
34	0x3ca1fb4c	0.019773148
35	0xbd7724a1	-0.060337666
36	0xbce31294	-0.02771882
37	0x3deeb10a	0.11654861
38	0x3d462afc	0.048380837
39	0x3cd30b0d	0.025762105

encoder.fc3_1.weight f4 [13, 40]
0	0x3d0497c0	0.032371283
1	0x3d186145	0.03720214
2	0x3d2053ed	0.039142538
3	0xbe174749	-0.14773287
4	0x3d682826	0.056678914
5	0xbd3acda5	-0.045606274
6	0xbd0b32bb	-0.033983927
7	0xbbc89b48	-0.0061220266
8	0x3ded4f3f	0.115873806
9	0x3dc25475	0.09488765
10	0x3d4ac816	0.049507223
11	0x3de6247e	0.11237429
12	0xbbfba59f	-0.0076796557
13	0x3d29c369	0.041446123
14	0xbe024cfc	-0.1272468
15	0x3dd7ef76	0.105437204
16	0xbcb50fc8	-0.022102252
17	0xbdb115cf	-0.08646738
18	0x3cea29ff	0.028584478
19	0xbcbeb527	-0.02327974
20	0x3c9d0eb8	0.019172058
21	0x3cde758b	0.027155658
22	0x3dc60924	0.09669712
23	0xbdf43555	-0.11924235
24	0xbdac4695	-0.084119
25	0x3d66d572	0.0563559
26	0xbe10a395	-0.14124902
27	0xbdced88f	-0.10099899
28	0x3d0a896d	0.033822466
29	0xbe3dc581	-0.18532373
30	0xbe122845	-0.14273174
31	0xbda2c976	-0.07948582
32	0xbc6342a4	-0.013870869
33	0x3d9c6066	0.07635574
34	0x3d3ad490	0.04561287
35	0x3c7eedbe	0.015559612
36	0x3d1154d6	0.035481296
37	0xbe14b3b9	-0.14521684
38	0xba475691	-0.0007604147
39	0xbc825c21	-0.015913071
40	0xbdd16cbe	-0.10225819
41	0x3d7a9d90	0.06118542
42	0xbcbdddcb	-0.023177048
43	0x3c59a6b0	0.01328437
44	0xbdc540cd	-0.096315004
45	0xbdd59688	-0.10429102
46	0xbde3c67a	-0.11121841
47	0xbdbee2af	-0.0932058
48	0x3d8919b6	0.06694357
49	0x3d82698a	0.06367786
50	0xbdbd7ad3	-0.092519425
51	0xbdc32c97	-0.09529989
52	0x3d7fdd94	0.062467173
53	0x3bf6ae13	0.0075280755
54	0xbd82fcc7	-0.0639587
55	0xbdcec06e	-0.10095297
56	0x3d768477	0.060184922
57	0x3c83a7cd	0.016071225
58	0x3daddf3c	0.08489844
59	0x3cad70ad	0.021171892
60	0xbdeb08b0	-0.114762664
61	0xbcf633dd	-0.030054027
62	0x3c242221	0.010017903
63	0xbd04c387	-0.032413032
64	0xbc46cef1	-0.0121343
65	0xbe0cdf77	-0.1375712
66	0xbccbc22b	-0.02487286
67	0xbd58a073	-0.05288739
68	0xbd55c2e6	-0.052187823
69	0x3bc4b424	0.0060029197
70	0xbcbb9743	-0.022899276
71	0xbe1179f8	-0.14206684
72	0xbd6205bb	-0.055181246
73	0xbe19f3ae	-0.15034363
74	0xbcaed134	-0.02133999
75	0x3e06d4f4	0.13167173
76	0x3d1ed29b	0.038775068
77	0xbdb5e9ba	-0.088824704
78	0x3d1ca5cc	0.038244054
79	0xbe0d20fe	-0.13782117
80	0xbdd9d0e9	-0.106355496
81	0xbd24597f	-0.040124413
82	0x3cf67249	0.030083792
83	0x3d8f06b5	0.06983701
84	0xbe06e9bf	-0.13175105
85	0xbc1f2ae2	-0.009714814
86	0xbe008c31	-0.12553479
87	0x3dba7e76	0.09106152
88	0x3c9cb9e2	0.019131605
89	0x3d9cfff5	0.076660074
90	0xbbe6b61f	-0.0070407535
91	0x3b8749ef	0.0041286866
92	0x3d9dea78	0.07710737
93	0x3d59df87	0.053191688
94	0xbe24dfd0	-0.16101003
95	0x3d9ba012	0.0759889
96	0x3d23fc65	0.040035624
97	0x3d05b535	0.032643516
98	0xbd821ae0	-0.06352782
99	0x3e18ecd2	0.1493409
100	0xbe07e198	-0.13269651
101	0xbe20246f	-0.15638898
102	0xbe0b8a17	-0.13626896
103	0x3d9f3dda	0.07775469
104	0x3db866cf	0.09003984
105	0xbcd4f840	-0.025997281
106	0xbddbba0a	-0.107288435
107	0x3e0f06ed	0.13967486
108	0xbcc39940	-0.023876786
109	0x3df232c1	0.11826087
110	0x3bd4c647	0.006493363
111	0xbe1250a9	-0.14288582
112	0x3dcb2440	0.099190235
113	0xbd2a650b	-0.04160027
114	0x3c5311f2	0.012882696
115	0x3cdcd781	0.026958229
116	0x3bea1d3a	0.0071445974
117	0xbbea6d0a	-0.0071541118
118	0xbd5182a8	-0.051149994
119	0xbe1cb064	-0.15301663
120	0xbd8ed9bd	-0.06975124
121	0xbd90c4c9	-0.07068784
122	0x3d6d93d0	0.058002293
123	0x3d31a69a	0.043371774
124	0x3da1804c	0.07885799
125	0xbdb956ca	-0.09049757
126	0x3c0bb368	0.0085266605
127	0xbc8c9cfd	-0.017164702
128	0x3d527a54	0.051386192
129	0xbd6a5c6d	-0.05721705
130	0x3dfbc080	0.12292576
131	0x3dbd3039	0.09237713
132	0x3dd845f8	0.105602205
133	0xbcfb9457	-0.030710382
134	0x3d9c6b15	0.07637612
135	0x3e17db1c	0.14829677
136	0xbe2f4131	-0.17114712
137	0xbdb57133	-0.08859482
138	0xbe2d86d8	-0.1694597
139	0x3d1c0812	0.038093634
140	0x3ac58544	0.0015069623
141	0x3d33935d	0.04384171
142	0xbe1b5ba3	-0.15171675
143	0x3c821b18	0.01588206
144	0xbdaac343	-0.083380245
145	0xbd830caa	-0.063989
146	0xbd0a915c	-0.03383003
147	0xbc24fb8a	-0.010069737
148	0x3dec4f23	0.11538532
149	0x3d8496c1	0.064740665
150	0xbd0048a9	-0.031319294
151	0xbd2320a4	-0.03982605
152	0xbdd57104	-0.10421947
153	0xbd2b9baf	-0.04189652
154	0xbd011244	-0.03151156
155	0xbde50a4c	-0.111836046
156	0x3e15901b	0.14605753
157	0xbd956b29	-0.0729583
158	0x3d267146	0.04063537
159	0x3d2f0b05	0.04273512
160	0x3e0f3e61	0.1398864
161	0x3c6cf06a	0.014461616
162	0xbd7b887e	-0.061409466
163	0xbd11379d	-0.035453428
164	0x3e3e49b5	0.18582805
165	0xbd1d05cc	-0.038335606
166	0xbdd20bde	-0.1025617
167	0x3b3c0b6a	0.0028693327
168	0x3dc058b8	0.09391922
169	0xbd924636	-0.07142298
170	0xbbb0252a	-0.005375524
171	0x3daa0917	0.08302515
172	0x3d0e382c	0.03472154
173	0xbbc67115	-0.006055961
174	0xbe09f952	-0.13474014
175	0x3d712813	0.05887611
176	0x3e0387f8	0.12844837
177	0x3d290ae8	0.041270167
178	0xbde49224	-0.111606866
179	0xbd99efe4	-0.07516459
180	0xbde26ff0	-0.11056507
181	0x3d86ad6c	0.06576046
182	0xbe0689bd	-0.1313848
183	0x3e00f331	0.1259277
184	0xbd69943e	-0.05702614
185	0xbddf975c	-0.109175414
186	0xbda3a104	-0.07989696
187	0xbb575364	-0.0032856101
188	0x3e23ed65	0.16008528
189	0xbd064ee2	-0.032790072
190	0xbcc3c330	-0.023896784
191	0x3dfbd416	0.122963116
192	0xbd047335	-0.032336432
193	0x3cadb7c8	0.021205798
194	0xbd5388ab	-0.05164401
195	0xbd949d2e	-0.07256542
196	0xbe02ba2b	-0.1276633
197	0x3d731d69	0.05935422
198	0xbd8fcbdf	-0.07021307
199	0x3e18797f	0.14890097
200	0xbbfbf7bc	-0.0076894443
201	0x3dc336f0	0.09531963
202	0x3e27de0d	0.163933
203	0x3ce39067	0.027778817
204	0x3d05dba3	0.032680165
205	0x3df901cc	0.12158546
206	0xbd55a462	-0.05215872
207	0xbda4ee55	-0.08053271
208	0x3c18e5c9	0.009332129
209	0x39be2858	0.00036269682
210	0xbd7ef63c	-0.062246546
211	0xbda11508	-0.078653395
212	0x3c8c91ee	0.017159428
213	0xbe09bc7c	-0.13450807
214	0x3d60e5a9	0.05490652
215	0xbe0ebf02	-0.13940051
216	0xbdb6e3d2	-0.08930172
217	0x3e19abe4	0.15006977
218	0xbd8a1687	-0.06742578
219	0xbdc919b4	-0.098193556
220	0xbd475920	-0.04866898
221	0x3de93358	0.11386746
222	0xbdc26042	-0.09491016
223	0xbda9e0df	-0.08294844
224	0xbd6eb928	-0.058282048
225	0xbd58b83b	-0.05291007
226	0xbd296564	-0.04135646
227	0xbdef0596	-0.11670987
228	0x3ba6e338	0.0050930046
229	0x3d50c366	0.050967596
230	0x3d8e8257	0.06958454
231	0xbd3aa09b	-0.04556332
232	0xbbdc39e4	-0.0067207683
233	0x3d2fb734	0.042899325
234	0xbe0d2bbe	-0.13786218
235	0xbdaa1107	-0.08304029
236	0x3e17fd87	0.14842807
237	0x3d89cbe0	0.06728339
238	0xbd4fdf1a	-0.050749876
239	0xbd0e990a	-0.03481392
240	0x3c6b4c28	0.014361419
241	0xbca03490	-0.019556314
242	0x3d438075	0.047729928
243	0xbd3799c1	-0.044824366
244	0xbe00fb63	-0.12595896
245	0x3c1bbd62	0.009505602
246	0x3dfa74a7	0.12229281
247	0x3c13474a	0.008989165
248	0x3d4a5c57	0.04940447
249	0xbe1617f0	-0.14657569
250	0xbcbd7dbe	-0.023131248
251	0xbd984308	-0.0743466
252	0x3dc71750	0.097212434
253	0x3df5dba1	0.120047815
254	0x3d0422a6	0.032259606
255	0xbe00fed9	-0.12597217

encoder.fc3_1.bias f4 [13]
0	0x3d187f1f	0.037230607
1	0x3d8c4d07	0.06850629
2	0x3d529ea9	0.05142084
3	0x3ce9893b	0.02850782
4	0xbcf4fcd1	-0.029905709
5	0xbcfe9ac0	-0.03107965
6	0xbc0151af	-0.00789301
7	0xbc2edd49	-0.010672876
8	0xbc649c3c	-0.013953265
9	0xbd253266	-0.040331267
10	0xbc8467f5	-0.016162852
11	0x3d568d0c	0.052380607
12	0x3d95b64c	0.07310161

encoder.fc3_2.weight f4 [13, 40]
0	0x3d8e7ddf	0.06957602
1	0xbbd18cc8	-0.0063949563
2	0xbd10a9ec	-0.0353183
3	0xbe18737e	-0.14887807
4	0xbde1bb96	-0.11022107
5	0xbc04c757	-0.008104167
6	0xbe1a5702	-0.15072253
7	0xbd4a9866	-0.049461745
8	0xbca7508f	-0.020424156
9	0x3e0abaeb	0.13547866
10	0x3d94a173	0.072573565
11	0xbdae84b5	-0.085214056
12	0x3c61a938	0.013773255
13	0xbd035bc6	-0.032069944
14	0x3e0bdce2	0.13658479
15	0x3d0057c7	0.03133371
16	0xbe37fb37	-0.17966925
17	0xbda2df77	-0.07952779
18	0xbe28d15b	-0.16486113
19	0x3dd0dff9	0.101989694
20	0xbe0262d4	-0.12733012
21	0xbd7c5fee	-0.061614923
22	0x3ded8c0c	0.115989774
23	0xbbeb96ce	-0.007189608
24	0xbdb76578	-0.089549005
25	0xbe0ce5da	-0.13759556
26	0x3de9a63d	0.114086606
27	0x3d96899c	0.07350466
28	0xbe45fd6c	-0.19334954
29	0xbdb8e299	-0.09027595
30	0x3d2dd632	0.0424406
31	0x3e08b3ad	0.13349791
32	0xbdf42597	-0.11921232
33	0xbe284d01	-0.16435625
34	0xbcb73714	-0.02236513
35	0x3dab8085	0.083741225
36	0x3e17dbf7	0.14830004
37	0x3dc01e71	0.09380806
38	0xbd444f28	-0.04792705
39	0xbe3e7d4d	-0.18602486
40	0xbe3cf573	-0.18453006
41	0xbe486ee3	-0.1957355
42	0xbe14552b	-0.14485614
43	0x3dd0dc2d	0.10198245
44	0xbde291fb	-0.11063
45	0xbdeb0eac	-0.11477408
46	0x3d32a653	0.04361565
47	0xbcb33dfd	-0.021880144
48	0x3cb322c5	0.021867165
49	0xbe2d811c	-0.16943783
50	0x3cf4f615	0.029902497
51	0x3dd892e5	0.10574893
52	0xbd05bb8c	-0.03264956
53	0xbcc476b6	-0.023982387
54	0x3d0fb8ee	0.035088472
55	0x3dd0475b	0.1016986
56	0xbda652f1	-0.081212886
57	0x3dbbafa0	0.09164357
58	0x3ae9f289	0.001784877
59	0xbe0942d0	-0.13404393
60	0x3d7ed2b5	0.062212665
61	0xbd37ae3d	-0.0448439
62	0xbd838fb2	-0.06423892
63	0xbda07d8c	-0.07836446
64	0x3dc9c764	0.09852484
65	0x3cf25831	0.029583069
66	0x3de8d474	0.11368647
67	0xbd7eab14	-0.06217487
68	0x3c6529cd	0.013987017
69	0x3d941a93	0.07231631
70	0xbd3e2698	-0.046423525
71	0x3ddeeaaa	0.10884602
72	0xbe051a20	-0.12998247
73	0xbd0ecbf4	-0.034862474
74	0xbd0bcdc8	-0.034131795
75	0x3cc2913f	0.0237509
76	0xbd713380	-0.058887005
77	0xbd4276c9	-0.047476564
78	0xbdcfbb82	-0.10143186
79	0xbbaf5ce4	-0.0053516496
80	0xbd86c16e	-0.065798625
81	0x3d985922	0.07438876
82	0x3dfec9b3	0.12440815
83	0x3d3fe8c7	0.046852853
84	0x3d15a992	0.036538668
85	0xbcba4c97	-0.022741599
86	0x3e125455	0.14289983
87	0x3d7544bd	0.059880007
88	0xbc2a82dc	-0.010407176
89	0x3e008b0d	0.12553044
90	0x3b3290ee	0.002724703
91	0xbd189087	-0.037247207
92	0xbde13f91	-0.109984525
93	0xbdeb24d1	-0.114816315
94	0x3e127d60	0.1430564
95	0x3db77941	0.08958674
96	0xbdf1d985	-0.11809067
97	0x3e3175b4	0.17330056
98	0x3cf5e206	0.030015003
99	0x3c0b3066	0.008495426
100	0xba84195d	-0.001007836
101	0xbdc03117	-0.09384363
102	0x3dc1ad56	0.09456889
103	0x3b1a0efc	0.0023507467
104	0xbd093c4a	-0.03350476
105	0x3e3c89fa	0.18412009
106	0x3dfe3650	0.12412703
107	0x3d24ac99	0.040203664
108	0x3dafed30	0.08590162
109	0xbd67d4a3	-0.05659927
110	0x3c8a06eb	0.016849002
111	0xbd05c5c2	-0.0326593
112	0xbd9cb7b1	-0.07652224
113	0xbd8ff00a	-0.07028206
114	0x3d984df6	0.07436745
115	0x3dc4168c	0.09574613
116	0x3d40826b	0.046999376
117	0x3df7875b	0.12086364
118	0x3df7cf5a	0.12100096
119	0xbc8c94a0	-0.017160714
120	0x3b4f3d48	0.003162222
121	0xbd788577	-0.060674157
122	0xbc49dbc1	-0.01232046
123	0x3e2452de	0.16047236
124	0x3dd16cba	0.10225816
125	0x3d90d0f4	0.07071105
126	0x3e02b450	0.12764096
127	0x3df6690e	0.12031756
128	0xbddbcfb1	-0.10732973
129	0x3ca3d269	0.019997792
130	0x3d7c46a0	0.06159079
131	0xbd461905	-0.048363704
132	0xbcf3e7ab	-0.029773554
133	0xbe09ee42	-0.13469794
134	0xbe072c18	-0.13200414
135	0x3bc5c4c9	0.0060354215
136	0x3dd99e52	0.106259
137	0x3de6ceec	0.11269936
138	0xbdaf4eb0	-0.0855993
139	0xbce50d8c	-0.027960561
140	0x3d61fda9	0.05517355
141	0x3e1785af	0.1479709
142	0xbc1615dd	-0.009160486
143	0x3dcdc37c	0.10047051
144	0x3d2ffe5a	0.042967178
145	0x3dee8ff6	0.11648552
146	0x3db122eb	0.08649238
147	0x3e13abfb	0.14421074
148	0x3e0e15e4	0.13875538
149	0xbd1d0002	-0.038330086
150	0x3c737d5c	0.014861431
151	0x3e00a36e	0.12562343
152	0x3e362975	0.17789252
153	0xbc8a5bcb	-0.016889473
154	0x3d44425d	0.04791485
155	0xbd839096	-0.06424062
156	0x3c87e93a	0.016590703
157	0x3d76337f	0.060107704
158	0x3e348805	0.17630012
159	0xbdcd2943	-0.10017636
160	0xbcee25d5	-0.029070774
161	0x3d91b1c1	0.07113982
162	0xbdda198b	-0.10649403
163	0xbdb12f66	-0.08651619
164	0xbdad4066	-0.08459549
165	0x3ddd253d	0.10798118
166	0xbda96717	-0.08271616
167	0xbc62bd76	-0.013839116
168	0x3e045c93	0.1292594
169	0xbdd775cb	-0.10520514
170	0xbe182a40	-0.14859867
171	0x3deaec8e	0.114709005
172	0x3d29ee6c	0.041487142
173	0x3d9a0398	0.07520217
174	0x3d5d3813	0.054008555
175	0xbe15c506	-0.1462594
176	0x3cfc490e	0.030796554
177	0x3d70d3d0	0.05879575
178	0x3d433ef4	0.04766746
179	0xbc0fd25b	-0.00877818
180	0x3dd9dfbb	0.10638376
181	0x3e1fe10a	0.1561319
182	0x3db13872	0.08653344
183	0x3e089da5	0.13341387
184	0xbdcc3edc	-0.09972927
185	0x3dabbdfc	0.08385846
186	0xbd567fc1	-0.05236793
187	0xbd32f46a	-0.043690123
188	0xbd034f17	-0.032057848
189	0xbd7cd843	-0.06172968
190	0x3dba8e0d	0.09109125
191	0xbd9e8da8	-0.077418625
192	0xbce948b6	-0.028477054
193	0xbdab9601	-0.0837822
194	0xbe074fd7	-0.1321405
195	0xbe0e8a0d	-0.1391985
196	0xbe1a828d	-0.15088864
197	0xbc9eb89c	-0.019375138
198	0x3d844c15	0.06459824
199	0xbca8adbf	-0.020590661
200	0xbc97c6c9	-0.018527405
201	0xbdf3a260	-0.11896205
202	0x3e07f35c	0.13276428
203	0xbdbdd290	-0.09268677
204	0x3dfdfd4f	0.124018304
205	0xbd620f00	-0.055190086
206	0x3ae041d8	0.0017109467
207	0x3dbbf5e8	0.09177762
208	0x3df4b748	0.119490206
209	0x3d0db439	0.0345957
210	0xbde68531	-0.11255873
211	0x3dff958b	0.12479695
212	0x3acfc8e7	0.001585272
213	0xbdd62bd7	-0.104575805
214	0xbe06c258	-0.13160074
215	0xbd9f9223	-0.07791545
216	0x3c89198c	0.016735815
217	0x3d73e8f9	0.059548352
218	0x3e2d4655	0.16921361
219	0x3d575434	0.052570537
220	0x3e0c65c7	0.137107
221	0x3d3fa63a	0.046789385
222	0x3d2ee7eb	0.042701643
223	0xbd90b39c	-0.07065508
224	0xbb56f4cc	-0.003279972
225	0xbd7e826c	-0.0621361
226	0x3e251530	0.16121364
227	0xbda3e839	-0.08003277
228	0x3da135d9	0.07871599
229	0x3de8513a	0.11343618
230	0x3d511ab0	0.05105084
231	0x3d8f3294	0.06992069
232	0x3dcd7917	0.10032862
233	0xbdbe3093	-0.092866085
234	0xbe08d90b	-0.13364045
235	0x3de818d3	0.1133286
236	0x3ce851b7	0.028359277
237	0xbc44fb34	-0.012022782
238	0x3d947d4f	0.07250463
239	0xbd6a515a	-0.05720649
240	0xbd1189ad	-0.03553169
241	0xbdc5f7cd	-0.09666405
242	0x3db9f7f3	0.09080496
243	0x3e39c0d6	0.18139967
244	0x3de9f8cd	0.11424408
245	0x3d368768	0.044562727
246	0x3cd5b5cf	0.02608767
247	0x3e31f992	0.1738036
248	0xbbd011eb	-0.0063497922
249	0x3bf97186	0.00761241
250	0xbd321f20	-0.043486714
251	0x3e06cda1	0.13164379
252	0xbe01c87d	-0.12674136
253	0x3e12547a	0.14290038
254	0x3da7fe1c	0.082027644
255	0x3db386ce	0.08765946

encoder.fc3_2.bias f4 [13]
0	0x3d87bd4d	0.06627903
1	0x3d2ca627	0.042150643
2	0xbdc3ce46	-0.09560828
3	0xbdc65072	-0.096833125
4	0x3aed04ff	0.0018083154
5	0xbd926427	-0.07148009
6	0xbdaf9fb8	-0.08575386
7	0x3cadb5c3	0.021204835
8	0x3d046ad8	0.032328457
9	0x3d1410fb	0.036149006
10	0x3d777526	0.060414456
11	0x3cd576b1	0.026057573
12	0x3d57aeb9	0.052656863

decoder.fc1.weight f4 [40, 13]
0	0xbdbea05b	-0.09307929
1	0xbeaad97a	-0.33369046
2	0x3d32a3de	0.043613307
3	0x3e223966	0.15842208
4	0x3a17e22c	0.0005793895
5	0x3e8096c6	0.2511503
6	0x3e6c35c4	0.23067385
7	0xbe4170a2	-0.18890622
8	0x3d911c7b	0.0708551
9	0x3e554f1f	0.20830964
10	0x3dc755e4	0.09733179
11	0xbe8bd8bc	-0.27313793
12	0x3e9c2b69	0.3050187
13	0x3db91c23	0.0903857
14	0xbe01cb78	-0.12675273
15	0x3dee6f44	0.11642316
16	0xbc8e9f87	-0.017410053
17	0x3e0cdcf7	0.13756166
18	0x3e981ee9	0.29711083
19	0xbd1f3751	-0.038871113
20	0xbbb5d8ab	-0.0055495105
21	0x3e0e3dbf	0.13890742
22	0x3ea183d1	0.3154588
23	0xbdab9257	-0.083775215
24	0x3dbffd47	0.09374481
25	0xbe3218e6	-0.1739231
26	0xbde7f390	-0.11325753
27	0xbe5f52d9	-0.21808948
28	0x3e56284d	0.20913811
29	0xbe94ac31	-0.29037622
30	0xbd4ec24f	-0.050478276
31	0xbcc1f196	-0.023674767
32	0xbe16b198	-0.14716184
33	0xbe33817d	-0.17529865
34	0xbce606d6	-0.028079432
35	0xbe1b7595	-0.15181573
36	0xbcd3323f	-0.025780795
37	0x3e799cf0	0.24376273
38	0xbe9d20e8	-0.30689168
39	0xbe60fa63	-0.21970515
40	0xbe17382e	-0.14767525
41	0x3d966e3f	0.073452465
42	0xbe943176	-0.28943986
43	0xbe776d75	-0.24162848
44	0xbe8f596c	-0.2799791
45	0xbe176a19	-0.14786567
46	0x3e0230a4	0.12713867
47	0xbbedd4cb	-0.007258033
48	0xbe8a9240	-0.27064705
49	0xbe654585	-0.22389801
50	0x3e2e2dc4	0.17009646
51	0xbe69c9d3	-0.22830896
52	0xbda9d620	-0.08292794
53	0xbe71543d	-0.2356729
54	0x3e8036b3	0.25041732
55	0x3e42ef3d	0.19036575
56	0xbe7bb1bd	-0.2457952
57	0xbdecbf14	-0.11559883
58	0x3e6509ae	0.22366974
59	0xbe3f6bc3	-0.18693452
60	0xbd3a682e	-0.04550951
61	0xbe776aa2	-0.24161771
62	0xbc346c1e	-0.011012105
63	0x3cb52f2d	0.022117222
64	0x3d9da979	0.0769834
65	0x3e610be5	0.21977194
66	0x3d9c3c78	0.07628721
67	0xbe5588e0	-0.20852995
68	0xbe002a38	-0.12516105
69	0xbe17dd70	-0.14830565
70	0xbdc7c0c1	-0.09753562
71	0xbe2d956e	-0.16951534
72	0xbe9aa44d	-0.30203477
73	0xbd3c61f5	-0.045991857
74	0x3d520ca6	0.051281594
75	0xbd81fa1b	-0.06346532
76	0x3dedd61f	0.11613106
77	0xbe9a037e	-0.3008079
78	0xbe292a6f	-0.16520093
79	0x3e4e0bde	0.20121714
80	0x3e8e47f9	0.27789286
81	0x3dc49108	0.09597975
82	0xbce608f7	-0.028080447
83	0xbe48b65e	-0.19600818
84	0x3dfdadac	0.12386641
85	0x3e09e55e	0.13466403
86	0xbe59f009	-0.21282972
87	0xbe9a4f38	-0.30138564
88	0xbe6e62cb	-0.23279874
89	0xbe935bfb	-0.28781113
90	0x3e2cfe4c	0.16893882
91	0x3dd4064f	0.10352766
92	0x3e3ec1de	0.18628642
93	0x3e169440	0.1470499
94	0x3e8b96d8	0.27263522
95	0xbe80ba28	-0.25142026
96	0x3d494752	0.049140282
97	0x3ded2847	0.11579948
98	0x3c6336ce	0.013868047
99	0xbd17cd59	-0.03706107
100	0xbe729ee9	-0.23693432
101	0x3e604254	0.21900302
102	0x3e462f3a	0.19353953
103	0x3e7563b0	0.23963809
104	0x3d23b97a	0.039971806
105	0xbda0f70a	-0.07859619
106	0xbe629223	-0.22126059
107	0x3d991359	0.074743934
108	0x3e9d65f0	0.30741835
109	0x3e78ddc8	0.24303353
110	0x3e76f3a8	0.24116385
111	0x3e19eaa5	0.15030916
112	0xbe8cf7d8	-0.2753284
113	0x3e2a0a7a	0.16605559
114	0xbe8eaf33	-0.2786804
115	0xbd629755	-0.055320103
116	0x3e745497	0.23860393
117	0x3c06166e	0.008184059
118	0xbe03c55f	-0.1286826
119	0x3e5fb574	0.21846563
120	0x3e800c61	0.25009444
121	0x3e222196	0.15833125
122	0x3e73c80a	0.23806778
123	0x3e9d0c2c	0.3067335
124	0xbe1e33b3	-0.15449409
125	0x3e80ca45	0.2515432
126	0xbe89da93	-0.2692457
127	0x3dbc971e	0.09208511
128	0x3e95d342	0.2926274
129	0x3e51c323	0.20484595
130	0xbe7cdee4	-0.24694401
131	0x3cdc884e	0.026920464
132	0xbe991e4e	-0.29905933
133	0xbd6fdba2	-0.058559068
134	0x3ea5837e	0.32326883
135	0xbc70db85	-0.014700775
136	0x3e729114	0.23688155
137	0xbd3d4aab	-0.046213787
138	0x3c82b692	0.015956197
139	0x3e9009f9	0.2813261
140	0xbd534cc3	-0.051586878
141	0xbda42e20	-0.0801661
142	0xbdae9276	-0.08524029
143	0x3d23f52a	0.04002873
144	0x3e87f25f	0.26552102
145	0xbde48d48	-0.1115976
146	0xbdd4cfec	-0.103912205
147	0xbddd3a46	-0.108021304
148	0xbe8ad2df	-0.27114007
149	0x3ea760f5	0.3269116
150	0x3de1a360	0.110174894
151	0x3dd29919	0.10283107
152	0x3e28f212	0.16498592
153	0xbe4d050d	-0.20021458
154	0xbe9633e3	-0.2933646
155	0xbdc59258	-0.096470535
156	0xbdb7a709	-0.08967406
157	0xbd5f5d6f	-0.054532465
158	0xbea04eb4	-0.31310046
159	0xbdda0be8	-0.10646802
160	0x3da8c86f	0.08241355
161	0x3e1cd085	0.15313919
162	0xbe8f34b8	-0.2796991
163	0xbc96585a	-0.018352676
164	0xbdb3f18d	-0.087863065
165	0xbde03636	-0.1094784
166	0x3d3d0935	0.04615136
167	0x3e59f2a4	0.21283966
168	0x3e8030a6	0.25037116
169	0xbe3471e0	-0.17621565
170	0x3eaad400	0.33364868
171	0x3db694dc	0.089151114
172	0x3e4359d4	0.19077235
173	0x3e15d3e1	0.14631607
174	0x3ea86bb6	0.32894677
175	0xbdcdac3e	-0.10042618
176	0xbe842edb	-0.25816998
177	0x3e69d505	0.22835167
178	0xbd8be8a2	-0.068314806
179	0x3ea736b0	0.3265891
180	0x3e7e5613	0.24837522
181	0xbe180af5	-0.1484793
182	0x3e88405c	0.26611602
183	0x3ea0c4e8	0.31400228
184	0x3e62aed0	0.22136998
185	0xbe407a5d	-0.18796678
186	0x3e4d8fab	0.20074336
187	0xbe87ba16	-0.2650916
188	0xbe123c6e	-0.14280865
189	0xbe771e3c	-0.24132627
190	0x3e201b99	0.15635528
191	0xbe96a918	-0.29425883
192	0x3d37d7d7	0.044883575
193	0x3e5fdc1d	0.2186131
194	0x3e23f533	0.16011505
195	0xbe4882c0	-0.19581127
196	0x3cdd57c8	0.027019396
197	0x3dbc1bf9	0.09185023
198	0xbe63ddf5	-0.22252639
199	0x3e8c1c0a	0.27365142
200	0xbe71a347	-0.23597442
201	0x3e139e13	0.1441577
202	0x3e4be4ca	0.19911495
203	0x3d6879d2	0.056756802
204	0x3d888dfd	0.06667707
205	0xbdaa3cde	-0.08312391
206	0x3e81296c	0.25226915
207	0x3e8bbb41	0.272913
208	0x3e890e55	0.26768747
209	0x3e07a858	0.13247812
210	0x3e32c17e	0.17456624
211	0x3d96017f	0.07324504
212	0x3d13221c	0.0359212
213	0x3eaac2ce	0.3335175
214	0xbea34a53	-0.31892642
215	0xbe8863f3	-0.26638755
216	0xbe995eeb	-0.2995523
217	0xbe1bde64	-0.15221554
218	0x3d26204e	0.040558152
219	0x3e777610	0.24166131
220	0x3de19b1b	0.11015912
221	0xbe6f30d9	-0.23358478
222	0x3e9f82b9	0.3115442
223	0xbe5057cc	-0.20345992
224	0xbe00f5dd	-0.1259379
225	0x3ea1b8e6	0.3158638
226	0x3e6d0d65	0.23149641
227	0x3ea3f6ae	0.3202414
228	0x3dea36e5	0.114362516
229	0x3e3c2a7e	0.18375584
230	0xbdc3b89b	-0.09556695
231	0x3e845eed	0.25853673
232	0xbe7ca16f	-0.24670957
233	0xbd995a79	-0.074879594
234	0xbc160215	-0.00915577
235	0x3e8b5d79	0.2721975
236	0x3e9d9b63	0.30782613
237	0x3e013a8e	0.12619993
238	0xbe57d9a6	-0.2107912
239	0x3e1b337d	0.1515636
240	0x3d1f984d	0.038963605
241	0x3e819f2c	0.2531675
242	0xbd089425	-0.033344407
243	0xbda46dfc	-0.0802879
244	0x3e3b6384	0.18299681
245	0xbd29d804	-0.041465774
246	0x3e13fc3d	0.1445169
247	0xbe5c211a	-0.21497002
248	0xbea39d83	-0.3195611
249	0x3e91a548	0.28446412
250	0x3ea52719	0.32256392
251	0xbd83ab4e	-0.06429158
252	0xbe8fd64d	-0.28093186
253	0x3e039e4b	0.12853353
254	0xbe433cf1	-0.19066216
255	0xbd7bc690	-0.06146866

decoder.fc1.bias f4 [40]
0	0xbde67822	-0.11253382
1	0x3e50f620	0.20406389
2	0x3ea3bd9e	0.31980604
3	0xbd925c5d	-0.07146523
4	0xbe588a4c	-0.21146506
5	0x3eb8c1f9	0.3608549
6	0x3e99c4d6	0.30032986
7	0x3d2b6351	0.041842762
8	0x3e74163a	0.23836604
9	0x3e4691ba	0.19391528
10	0x3eb57753	0.354426
11	0x3e81f9d9	0.2538593
12	0x3dfb5b49	0.12273271
13	0xbdf77c3e	-0.12084244
14	0x3d464738	0.048407763
15	0x3d18bc11	0.03728873
16	0xbe235ae8	-0.15952647
17	0x3dd62126	0.10455541
18	0x3de9bf72	0.114134684
19	0xbe3400fc	-0.175785
20	0xbe20d1c4	-0.15705019
21	0xbbf67aff	-0.0075219865
22	0x3e18ab57	0.14909111
23	0x3e340e1b	0.17583506
24	0x3e721c6c	0.23643655
25	0xbdf8cb6f	-0.12148177
26	0x3dd5bd33	0.104364775
27	0xbdd36702	-0.103223816
28	0x3ea8ba90	0.32954836
29	0xbe367e01	-0.17821504
30	0x3dd11481	0.10208989
31	0x3def66cf	0.11689531
32	0x3e8a840f	0.27053878
33	0x3e3a7afd	0.18210979
34	0x3d20cd8b	0.03925852
35	0xbe103b2a	-0.1408507
36	0xbd8ea443	-0.06964924
37	0xbe23a084	-0.159792
38	0x3e8bf251	0.2733331
39	0x3e254335	0.16138919

decoder.fc2.weight f4 [66, 40]
0	0x3da5cdf1	0.08095921
1	0xbd194e15	-0.03742798
2	0xbc1b1d64	-0.0094674565
3	0x3cf8423a	0.030305017
4	0x3e1c7eb5	0.1528271
5	0x3dc7472d	0.097303726
6	0x3d897fc3	0.06713822
7	0x3d101806	0.03517916
8	0x3ccdbc82	0.025114302
9	0x3e027c32	0.12742689
10	0x3cd23612	0.025660548
11	0x3e3c46e7	0.18386422
12	0xbd524fd4	-0.05134566
13	0x3ba46f65	0.005018162
14	0x3d97d1f2	0.07413091
15	0x3e2e3f01	0.17016222
16	0xbd021914	-0.031762198
17	0x3e4134d4	0.18867809
18	0xbd8b7922	-0.068102136
19	0x3e00fc86	0.1259633
20	0x3df06eaa	0.117398575
21	0xbd8ed813	-0.06974807
22	0xbc29f2d9	-0.010372841
23	0x3e158e94	0.1460517
24	0x3dc97427	0.098366074
25	0x3d998773	0.07496538
26	0x3e2fc8a4	0.17166382
27	0x3e4e7715	0.20162614
28	0x3e031866	0.12802276
29	0x3dcec55b	0.10096236
30	0x3d29e1af	0.041474994
31	0xbd56db0f	-0.052455004
32	0xbc6c78fe	-0.014433144
33	0xbd6bdd83	-0.057584297
34	0x3c29d5ca	0.010365913
35	0x3d8dd8b9	0.06926102
36	0x3d8f0ff8	0.06985468
37	0x3e2705f3	0.16310863
38	0x3d2bdc79	0.041958306
39	0x3dede20b	0.1161538
40	0xbc8ff084	-0.017570741
41	0xbde83abf	-0.1133933
42	0xbd784bc0	-0.060619116
43	0xbd81a828	-0.063309014
44	0xbd673d74	-0.05645509
45	0xbdbad5d6	-0.09122817
46	0xbe2006f8	-0.15627658
47	0xbe17acb7	-0.14811979
48	0xbda76fe4	-0.08175638
49	0xbe1b84da	-0.15187398
50	0xbc3944df	-0.011307924
51	0x3bbe26ca	0.005802964
52	0xbdf0853b	-0.11744162
53	0x3c98da9f	0.018658934
54	0x3df10a15	0.11769501
55	0xbdb12a93	-0.086506985
56	0xbbdba98c	-0.006703561
57	0xbd07104e	-0.032974534
58	0x3df139c3	0.11778595
59	0x3cb2d6ac	0.02183088
60	0xbdb4c996	-0.08827512
61	0xbe0c35f2	-0.13692454
62	0x3c20c548	0.0098126605
63	0xbdbd6212	-0.09247221
64	0xbd627c4e	-0.055294327
65	0xbddf7f32	-0.109129325
66	0x3dcd9c4d	0.10039578
67	0xbcf35c58	-0.029707119
68	0xbe102532	-0.14076689
69	0x3c2aedfc	0.010432716
70	0x3dd5c4db	0.10437938
71	0xbdbf05b3	-0.09327259
72	0x3ccbab15	0.024861852
73	0xbe1163a0	-0.1419816
74	0x3c95d87b	0.018291702
75	0xbe231c78	-0.15928829
76	0x3de82bf4	0.113365084
77	0xbc918f0c	-0.017768405
78	0xbe080906	-0.13284692
79	0xbdc0997f	-0.09404277
80	0x3e512b1d	0.20426603
81	0x3dbe1a84	0.09282401
82	0x3e4eeed1	0.20208289
83	0xbdbdb4b2	-0.092629805
84	0x3dddf4db	0.10837718
85	0xbce1d67b	-0.027568093
86	0x3d8ca2dc	0.068670005
87	0xbd777f27	-0.060423996
88	0x3d5be4ca	0.053684987
89	0xbd915d41	-0.07097865
90	0x3e4b4cf5	0.19853576
91	0x3dc0553a	0.09391256
92	0x3cbdd747	0.023173941
93	0x3e0ee6ef	0.13955282
94	0xbd45238c	-0.048129603
95	0x3d5c3b29	0.053767357
96	0xbd3f6e05	-0.046735782
97	0x3d9d6621	0.07685495
98	0x3e0441c6	0.12915716
99	0xbd9c039b	-0.07617875
100	0x3b65f74f	0.0035090034
101	0x3e30ce2c	0.17266148
102	0xbc5ee7fd	-0.013605115
103	0x3df8c9cf	0.12147867
104	0x3dcfc672	0.10145272
105	0x3a8806c3	0.0010377992
106	0x3e36e4c2	0.17860702
107	0xbd76f63d	-0.060293425
108	0xbda06c52	-0.078331605
109	0xbd684079	-0.05670211
110	0x3dcbcbfb	0.099510156
111	0x3cd49b55	0.025952974
112	0x3d770cd4	0.06031497
113	0xbcebcf2f	-0.028785316
114	0xbd9b0d10	-0.07570851
115	0x3e2ba94a	0.16763797
116	0x3e25796d	0.16159602
117	0xbbd24f74	-0.006418163
118	0xbd98e710	-0.07465947
119	0x3d38f0e2	0.0451516
120	0x3deb983b	0.11503645
121	0x3e2545c2	0.16139892
122	0xbd9bb788	-0.07603365
123	0xbd701209	-0.05861095
124	0xbd8d574c	-0.06901416
125	0xbd71a22b	-0.058992546
126	0xbce7acbd	-0.02828061
127	0xbd1beb6b	-0.03806631
128	0xbd180f49	-0.037123952
129	0xbd1713c9	-0.036884103
130	0x3dbb314b	0.09140261
131	0x3d9afc5a	0.075676635
132	0x3d2d2cea	0.04227916
133	0xbd71b46c	-0.059009954
134	0x3ded0962	0.11574055
135	0xbd7d901d	-0.061905015
136	0xbc8ae558	-0.016955063
137	0x3e103801	0.14083864
138	0xbd541183	-0.051774513
139	0xbd8d58fb	-0.06901737
140	0x3d9f8413	0.07788863
141	0xbd32a8c4	-0.04361798
142	0x3e206803	0.15664677
143	0x3e4a6c08	0.19767773
144	0x3d8246f7	0.06361192
145	0x3d8a02dd	0.067388274
146	0x3da92a65	0.08260039
147	0x3e064f01	0.13116075
148	0x3d63cc8f	0.055615004
149	0x3db450ed	0.08804498
150	0x3dc48700	0.09596062
151	0xbd50f837	-0.051017966
152	0x3e04a13b	0.1295213
153	0xbd0a77eb	-0.03380577
154	0x3e3eb9da	0.18625584
155	0x3e2807c0	0.16409206
156	0xbd91cce4	-0.07119158
157	0xbcf2dafc	-0.029645436
158	0x3d16c6cb	0.036810677
159	0xbc7595dc	-0.014989343
160	0x3dfa83b6	0.12232153
161	0x3d2e33ea	0.042529978
162	0xbd5e8acc	-0.054331586
163	0x3d0cf319	0.034411523
164	0x3a7fa009	0.0009751325
165	0xbda9ef51	-0.08297599
166	0x3e3dd1e0	0.18537092
167	0xbc241142	-0.01001388
168	0xbc79d3bb	-0.015248234
169	0x3e2ee59c	0.17079777
170	0x3e1ce931	0.1532333
171	0x3e2b7fd4	0.16747981
172	0x3d8ef239	0.06979794
173	0x3cb78b40	0.022405267
174	0x3e2bda05	0.16782387
175	0xbdb813a8	-0.08988124
176	0xbd569b78	-0.05239436
177	0x3d2902ea	0.041262545
178	0xbd9e44b5	-0.077279486
179	0x3dd059e8	0.10173398
180	0x3d98cd20	0.074609995
181	0xbdb7a202	-0.089664474
182	0xbcfe8585	-0.031069526
183	0x3e297aff	0.16550826
184	0xbd42a4f1	-0.04752058
185	0x3dcb6a6c	0.09932408
186	0x3dfb2f5c	0.122648925
187	0x3ccb11c8	0.024788752
188	0x3d9f193c	0.07768485
189	0x3e4d95ad	0.20076628
190	0x3d2f62a2	0.042818673
191	0xbda3c449	-0.07996423
192	0x3e432482	0.19056895
193	0x3dfa098f	0.122088544
194	0x3db14f40	0.08657694
195	0x3e323901	0.17404558
196	0xbd386d9d	-0.04502641
197	0xbd0690c8	-0.032852918
198	0x3d84360e	0.064556226
199	0x3defc406	0.117073104
200	0xbd55e0f8	-0.0522165
201	0xbdb68ee9	-0.08913977
202	0x3ddbcc19	0.10732288
203	0xbd6f585f	-0.058433887
204	0xbc87ac65	-0.016561696
205	0xbd62e465	-0.055393595
206	0xbd943aa2	-0.07237746
207	0xbda09729	-0.078413315
208	0x3e3a3bdf	0.18186902
209	0xbd6e6c4b	-0.058208745
210	0x3dfe230b	0.12409028
211	0x3d06f4b1	0.0329482
212	0x3c7cdee1	0.015433998
213	0x3d961be7	0.07329541
214	0xbddd15d9	-0.10795183
215	0xbd02adde	-0.031904094
216	0x3e04f16b	0.12982719
217	0xbd730a06	-0.05933573
218	0xbd35dd1f	-0.04440033
219	0x3cb3ae50	0.021933705
220	0x3d6be508	0.057591468
221	0x3d82889c	0.063737124
222	0xbd133c1e	-0.035946004
223	0xbc3cd642	-0.011525692
224	0xbd16b70c	-0.03679566
225	0xbdedc314	-0.11609474
226	0x3df03743	0.1172929
227	0xbce722da	-0.02821486
228	0xbd2c99c6	-0.042138837
229	0x3e3decf9	0.18547429
230	0x3dee99d0	0.11650431
231	0x3e181216	0.14850649
232	0xbd836d53	-0.06417336
233	0x3d8b3c06	0.06798558
234	0x3e1d81f5	0.15381606
235	0x3d93c504	0.07215312
236	0xbdfa7e0b	-0.12231072
237	0x3d1f4b00	0.038889885
238	0xbd64bc1f	-0.05584347
239	0x3d4d5046	0.050125383
240	0x3d6e4c74	0.05817838
241	0x3dcd5df8	0.10027689
242	0xbbeafab6	-0.0071710004
243	0xbd8dda8c	-0.0692645
244	0x3dbf429e	0.09338878
245	0x3e13fe82	0.14452556
246	0x3e205000	0.15655518
247	0xbd8301d9	-0.06396837
248	0x3db15b65	0.0866001
249	0x3d1b288e	0.037880473
250	0xbd5d08e4	-0.053963557
251	0x3cc74315	0.02432398
252	0x3c8557fc	0.016277306
253	0x3e30fbd9	0.17283572
254	0xbd1db661	-0.03850401
255	0xbc93841a	-0.018007327

decoder.fc2.bias f4 [66]
0	0x3d369b45	0.04458167
1	0xbe1049d6	-0.14090666
2	0x3e159a74	0.146097
3	0x3e59d14f	0.21271251
4	0x3e55e152	0.20886734
5	0xbc2193b2	-0.009861873
6	0xbd4bde49	-0.049772535
7	0x3c71e856	0.014764866
8	0x3d97b64e	0.07407819
9	0x3da019ee	0.07817446
10	0xbd45938c	-0.048236415
11	0x3e18caf3	0.14921169
12	0xbd11c6c7	-0.03558996
13	0x3dd7191a	0.105028346
14	0xbd1d6678	-0.0384278
15	0xbd0a0397	-0.03369483
16	0x3e33bf6e	0.17553493
17	0xbd803484	-0.062600166
18	0x3dabd7b0	0.083907485
19	0x3e4b658e	0.19862959
20	0x3a44cde7	0.00075074885
21	0x3b95f487	0.004576269
22	0xbd038d91	-0.03211743
23	0x3c027f39	0.007964903
24	0x3a28d8ff	0.00064410263
25	0x3d87c282	0.06628896
26	0x3e53151c	0.20613521
27	0xbc0cb3e7	-0.008587814
28	0xbd4e0478	-0.05029723
29	0x3c9fe6b2	0.019519184
30	0x3da55d64	0.080744535
31	0x3e37bae3	0.17942385
32	0x3c9ce54c	0.019152306
33	0x3dd83a57	0.105580024
34	0xbc74078a	-0.014894376
35	0x3cf14b27	0.02945478
36	0x3da142e8	0.078740895
37	0x3d207615	0.03917511
38	0xbbb40619	-0.005493891
39	0x3db2b207	0.08725362
40	0x3e52c86a	0.20584264
41	0x3e7a46de	0.24441096
42	0x3beddbd0	0.0072588697
43	0xbc9a6768	-0.018848136
44	0xbba77738	-0.0051106475
45	0x3c9b5432	0.018961046
46	0xbdb6fcd3	-0.08934941
47	0xbd047c07	-0.032344844
48	0xbc2b715a	-0.010464037
49	0x3e02bb6e	0.12766811
50	0x3dd968fb	0.106157266
51	0xbcb185c1	-0.021670224
52	0x3e089df0	0.13341498
53	0xbd146f88	-0.036239177
54	0x3d786f21	0.060652856
55	0xbc9d78a5	-0.019222567
56	0x3dbda7ba	0.09260507
57	0x3de46d3a	0.11153646
58	0x3bf5824a	0.0074923383
59	0x3d415c7d	0.047207344
60	0xbcd128e1	-0.025532188
61	0x3d38be15	0.04510315
62	0x3e17ca2e	0.14823219
63	0xbca67fe5	-0.020324657
64	0x3e295715	0.16537125
65	0x3e347562	0.17622903
