6_DeepAutoencoders/PAN_autoencoder_first_tries/simple_model.pt (torch_old, 359210 bytes, 12 tensors)

fc1.weight f4 [150, 239]
-0.010724053 -0.038580377 0.06369612 0.00729426 -0.050446354 0.0437501 -0.040543668 0.0005034432
0.05871775 0.0042725503 -0.039336927 0.022176646 0.06237323 0.057744198 -0.0036275275 0.0024104565
0.019721322 -0.04446643 -0.020955928 0.042613395 0.0350198 -0.06401401 -0.03703484 0.007820152
0.02670309 -0.003249351 0.0033086836 0.010104172 -0.00892967 -0.018421527 -0.02782046 0.04921568
0.02071818 -0.044169866 -0.04476502 0.038223132 0.05167608 0.0030288994 -0.046749473 0.0068922564
-0.013311952 -0.023339957 -0.06322719 0.031900845 0.040946357 0.00056716055 0.011001289 -0.052728597
0.06267824 -0.018903218 -0.046463363 -0.015201464 -0.026626673 -0.06088351 0.03412468 -0.013317712
0.05614724 0.041868925 0.038388528 0.0077693835 -0.062408287 -0.045583792 -0.02662041 0.045997813
-0.009665649 0.06129899 -0.05900909 0.004722327 0.030512884 -0.04327696 -0.014936753 -0.024122622
-0.038402963 -0.018482976 -0.0030873641 -0.04372713 -0.0524606 0.0009846464 -0.012497585 0.048112832
-0.056750163 -0.0007544905 -0.056149717 0.004461929 0.008801155 -0.0126082525 0.04662493 0.044738933
0.04206367 0.06028746 0.012761317 -0.050535955 -0.030290753 -0.037465744 0.03474474 0.009658471
-0.044900827 0.021479547 0.042757675 -0.05400691 0.043352023 0.0038265362 0.060570456 0.037891008
0.032858573 -0.019592807 -0.02257767 0.0035335794 0.021604724 -0.0026647225 0.015635319 -0.056528598
-0.003379494 -0.023386378 -0.026444808 -0.033499457 0.015682936 0.03641136 -0.005208075 -0.053644203
-0.05910591 -0.060857117 -0.005867768 -0.049503975 -0.052391604 0.028673664 -0.032444652 0.0410347
-0.038559027 0.06463493 0.043654896 0.045919552 -0.036663823 0.024187826 -0.027712304 -0.021151982
-0.040143274 -0.04868467 -0.04358063 -0.021247752 0.010489076 -0.011618253 0.0285884 -0.011419572
0.029618345 -0.01391685 -0.020033963 0.022892639 -0.061637238 0.06007074 0.03200607 -0.026417002
-0.06268213 -0.05530534 -0.063554265 -0.06037168 0.06037455 -0.011531342 0.009855092 -0.015505865
-0.017912932 -0.05275466 -0.06270342 0.031159543 -0.059016667 -0.050862566 0.0039870217 0.0036037862
-0.035107657 0.026875012 0.01862289 0.033336297 -0.015577685 0.029837094 -0.015041854 -0.049433026
-0.060477402 0.0024193153 -0.05549407 -0.0059613734 -0.04945159 0.05485247 -0.021535903 0.018358193
0.013378225 0.022396408 -0.010008935 -0.039967164 0.0187103 -0.0067824945 0.03946332 -0.0035833828
0.016873032 0.040353544 -0.015885107 0.0045757145 -0.012378443 0.024462983 -0.064194724 0.0015713647
-0.049339045 0.038735814 0.060705043 -0.05700981 0.03612726 -0.055839643 -0.008069839 -0.039236553
0.03365829 -0.055540115 0.055324838 0.021611355 0.024479456 -0.0020757765 -0.060439713 0.038238354
-0.046040084 -0.034464717 0.048370883 -0.01839586 0.030269444 0.045504525 -0.06067232 0.035260066
-0.034692243 0.058772027 0.011376351 0.06210246 -0.023667466 -0.017256536 -0.032057352 -0.0572953
-0.019661844 -0.028667562 0.008111998 -0.021608226 0.059579834 -0.035487354 -0.06060142 -0.021112755
0.016462214 0.044812717 -0.008837294 -0.031572614 0.044937998 0.026255265 -0.039752603 -0.054835886
0.0042893216 -0.055883456 -0.04400628 -0.06247879 -0.028119363 0.056603767 -0.060562942 -0.044772573
00000000: f0b3 2fbc 7506 1ebd 1d73 823d b004 ef3b
00000010: d6a0 4ebd 4e33 333d 1e11 26bd 80f9 033a
00000020: 0682 703d c000 8c3b c21f 21bd ccab b53c
00000030: 127b 7f3d 2e85 6c3d d0bb 6dbb c0f8 1d3b
00000040: 9c8e a13c 6e22 36bd c4ab abbc 628b 2e3d
00000050: ec70 0f3d c719 83bd d8b1 17bd 1820 003c
00000060: 70c0 da3c 10f3 54bb 80d6 583b f88b 253c
00000070: c04d 12bc bee8 96bc bce7 e3bc 6296 493d
00000080: 2cb9 a93c 76eb 34bd 875b 37bd dc8f 1c3d
00000090: 4caa 533d 8080 463b 607c 3fbd 70d8 e13b
000000a0: 601a 5abc 7033 bfbc 427d 81bd 76aa 023d
000000b0: 5eb7 273d 80ad 143a c03e 343c f1f9 57bd
000000c0: 735d 803d ecda 9abc 5e50 3ebd 900f 79bc
000000d0: 2e20 dabc fd60 79bd 52c6 0b3d 8832 5abc
000000e0: a6fa 653d c07e 2b3d 4a3d 1d3d 5096 fe3b
000000f0: d59f 7fbd 12b6 3abd 0c13 dabc 3468 3c3d
00000100: ac5c 1ebc a614 7b3d 84b3 71bd c0bd 9a3b
00000110: 28f6 f93c 2e43 31bd 48b9 74bc ce9c c5bc
00000120: 6d4c 1dbd 9c69 97bc 6055 4abb 381b 33bd
00000130: ede0 56bd 400f 813a acc2 4cbc f611 453d
00000140: dc72 68bd 00c9 45ba 3ffd 65bd 6035 923b
00000150: b832 103c d892 4ebc c8f9 3e3d 2c40 373d
00000160: f44a 2c3d fcef 763d d814 513c cafe 4ebd
00000170: 5024 f8bc ae75 19bd 8050 0e3d 903e 1e3c
00000180: eee9 37bd e0f5 af3c ac22 2f3d 5a36 5dbd
00000190: e491 313d a0c6 7a3b ba18 783d 9a33 1b3d
000001a0: b696 063d 1881 a0bc cef4 b8bc a093 673b
000001b0: 64fc b03c a0a2 2ebb a415 803c 888a 67bd
000001c0: 807a 5dbb ca94 bfbc c8a2 d8bc ba36 09bd
000001d0: 8079 803c 1424 153d 80a8 aabb 06ba 5bbd
000001e0: 0a19 72bd 5045 79bd 6846 c0bb aec4 4abd
000001f0: 9498 56bd 08e5 ea3c afe4 04bd 0014 283d
00000200: 12f0 1dbd 515f 843d 7acf 323d 2416 3c3d
00000210: ce2c 16bd 8c25 c63c ea04 e3bc ec46 adbc
00000220: 466d 24bd 9469 47bd 9a81 32bd c40f aebc
00000230: 60da 2b3c 7c5a 3ebc 3832 ea3c 2819 3bbc
00000240: 2ca2 f23c 8003 64bc 441e a4bc 5889 bb3c
00000250: 5477 7cbd bc0c 763d cc18 033d 7868 d8bc
00000260: 7d5f 80bd da87 62bd bd28 82bd 4b48 77bd
00000270: 4e4b 773d f4ed 3cbc 4077 213c 500c 7ebc
00000280: 24be 92bc 4515 58bd a76a 80bd 4c42 ff3c
00000290: 76bb 71bd 4455 50bd 90a5 823b 802d 6c3b
000002a0: 0ccd 0fbd fc28 dc3c 088f 983c a48b 083d
000002b0: 8c39 7fbc ec6c f43c 1c72 76bc 497a 4abd
000002c0: 27b7 77bd 608d 1e3b c04d 63bd a057 c3bb
000002d0: c08d 4abd fcac 603d 106c b0bc ec63 963c
000002e0: 5830 5b3c ac78 b73c 84fc 23bc 9cb4 23bd
000002f0: 5846 993c b03f debb 4aa4 213d 30d7 6abb
00000300: 5039 8a3c c249 253d 7c21 82bc e0ef 953b
00000310: f4ce 4abc 9866 c83c 8678 83bd 40f6 cd3a
00000320: bd17 4abd 72a9 1e3d daa5 783d 1e83 69bd
00000330: 2efa 133d 1cb8 64bd 5c37 04bc 82b6 20bd
00000340: 46dd 093d 087e 63bd 4c9c 623d 4c0a b13c
00000350: 2489 c83c c009 08bb a28f 77bd d29f 1c3d
00000360: 8794 3cbd e02a 0dbd 8c20 463d eab2 96bc
00000370: a0f7 f73c f462 3a3d 8a83 78bd dc6c 103d
00000380: 7419 0ebd f0ba 703d e063 3a3c 265f 7e3d
00000390: 46e2 c1bc 945d 8dbc 924e 03bd 7aae 6abd
000003a0: e011 a1bc 3cd8 eabc 30e8 043c bc03 b1bc
000003b0: fc09 743d 305b 11bd 3239 78bd a8f4 acbc
000003c0: c4db 863c 8a8d 373d 4cca 10bc 4952 01bd
000003d0: e810 383d 4815 d73c a0d3 22bd 989b 60bd
000003e0: 708d 8c3b 0de6 64bd ee3f 34bd c2e9 7fbd
000003f0: 945a e6bc 5ad9 673d d910 78bd 7263 37bd

fc1.bias f4 [150]
0.003087908 0.058169685 -0.01940005 0.042269107 -0.050893016 0.007531121 0.020805141 -0.024991445
-0.009194971 -0.038456827 -0.029370995 0.05154518 -0.009559136 0.014667325 0.020152416 -0.07323005
0.05201322 0.0516404 0.028204015 -0.061324675 -0.02045326 -0.041905925 -0.049527604 0.05560843
0.0053667556 -0.00028491765 0.035182692 0.034232333 -0.055085137 -0.051246364 -0.009040103 -0.07763415
-0.052030865 0.05165223 -0.05509492 0.0060647577 -0.04740858 0.03354129 -0.019506343 -0.05435779
-0.05508251 -0.018753244 -0.057576664 0.021060493 -0.07327892 0.05439674 -0.01033735 -0.071417704
-0.01987075 -0.03811387 0.027788829 0.015540979 0.011592084 -0.021240396 0.01813577 -0.024266541
-0.034432225 0.03611598 -0.07284502 -0.047412474 -0.021625306 -0.028285172 -0.033987317 -0.07084076
-0.0513916 -0.037402768 0.0039835693 0.025033915 -0.034107096 0.034119938 0.022619702 0.046163566
-0.019529738 0.02302316 -0.06756695 -0.04150616 -0.056901056 0.0035899861 0.0032285724 -0.01079261
-0.0039282404 -0.060271874 -0.006132198 0.012744004 -0.06180683 -0.07783588 -0.053203285 -0.041583065
-0.07565175 -0.057070635 0.038301125 0.017702155 -0.024942312 -0.049763832 0.038116354 -0.042368703
0.023838598 0.054397486 -0.053902235 0.037293777 -0.059089452 0.055672035 -0.029147955 -0.094431594
-0.07703017 0.04426584 0.018470198 -0.00910553 0.012616689 -0.048135735 0.018951304 -0.13141018
-0.026676835 -0.005672583 0.016208785 -0.058104258 -0.0033262942 -0.005752101 0.0105944155 0.016797306
-0.035099298 0.047859937 0.04421554 0.060603194 0.030458845 -0.02927974 0.013311536 -0.0328722
-0.020736696 0.026122322 -0.070277765 -0.076911345 -0.05272432 -0.056067903 -0.02017922 0.0060775112
-0.07690263 -0.08303615 -0.011097768 0.03980196 0.03255538 0.026490947 -0.043419026 0.025230922
-0.065845296 -0.022856344 -0.0064917295 -0.029053885 0.024755673 -0.04331902
00000000: 805e 4a3b 5643 6e3d dbec 9ebc 5f22 2d3d
00000010: 3275 50bd 9fc7 f63b 8b6f aa3c dcba ccbc
00000020: 81a6 16bc e884 1dbd 719b f0bc 0a21 533d
00000030: ec9d 1cbc 384f 703c ae16 a53c a3f9 95bd
00000040: d00b 553d e284 533d 1b0c e73c 952f 7bbd
00000050: 988d a7bc 8ca5 2bbd 75dd 4abd aac5 633d
00000060: 9cdb af3b 0061 95b9 ba1b 103d 3437 0c3d
00000070: f4a0 61bd b5e7 51bd f11c 14bc a7fe 9ebd
00000080: 511e 55bd 4a91 533d 36ab 61bd e0ba c63b
00000090: 802f 42bd 9762 093d c4cb 9fbc 46a6 5ebd
000000a0: 339e 61bd 67a0 99bc 82d5 6bbd 0e87 ac3c
000000b0: 4213 96bd 1ecf 5e3d fd5d 29bc 7243 92bd
000000c0: fcc7 a2bc 4a1d 1cbd 66a5 e33c 979f 7e3c
000000d0: b9ec 3d3c 5700 aebc 7791 943c a0ca c6bc
000000e0: ce08 0dbd 5aee 133d c52f 95bd 9533 42bd
000000f0: 8e27 b1bc 4eb6 e7bc 4936 0bbd f614 91bd
00000100: 0080 52bd a533 19bd 9a88 823b ed13 cd3c
00000110: e2b3 0bbd 59c1 0b3d f44c b93c 0216 3d3d
00000120: d4fc 9fbc 119b bc3c 8b60 8abd 5d02 2abd
00000130: 1511 69bd f945 6b3b 7596 533b 7dd3 30bc
00000140: 78b8 80bb a4df 76bd 9bf0 c8bb 3acc 503c
00000150: 2929 7dbd 6b68 9fbd b0eb 59bd 0153 2abd
00000160: 4eef 9abd e6c2 69bd a4e1 1c3d 1c04 913c
00000170: d253 ccbc 29d5 4bbd e51f 1c3d ce8a 2dbd
00000180: 2a49 c33c e6cf 5e3d 97c8 5cbd 5cc1 183d
00000190: c807 72bd 5c08 643d b1c7 eebc 5a65 c1bd
000001a0: fec1 9dbd 1950 353d d04e 973c 5c2f 15bc
000001b0: 3bb6 4e3c fa29 45bd c43f 9b3c 6490 06be
000001c0: 6189 dabc 13e1 b9bb 49c8 843c bbfe 6dbd
000001d0: f5fd 59bb 1f7c bcbb 3394 2d3c 819a 893c
000001e0: 48c4 0fbd c808 443d 5b1b 353d 0e3b 783d
000001f0: d484 f93c 11dc efbc a118 5a3c 00a5 06bd
00000200: 01e0 a9bc 7bfe d53c caed 8fbd b283 9dbd
00000210: 75f5 57bd 75a7 65bd e44e a5bc dc25 c73b
00000220: 207f 9dbd db0e aabd 6ad3 35bc 6107 233d
00000230: ca58 053d 8b03 d93c 26d8 31bd 14b1 ce3c
00000240: e6d9 86bd 3a3d bbbc 93b8 d4bb 6a02 eebc
00000250: 69cc ca3c 496f 31bd

fc2.weight f4 [50, 150]
-0.046265565 0.06615132 0.036634266 -0.019867664 -0.048478287 0.007963013 0.009952225 0.061305344
-0.0017625274 -0.074048094 -0.014591389 0.059981644 0.076821186 -0.06150844 -0.04038234 0.008038476
0.0042774337 -0.033296894 0.04037139 0.041076276 -0.03475604 -0.041738592 0.029191948 -0.0042230412
0.008240439 0.045538902 0.023661539 0.088460855 -0.05233289 0.036554024 -0.04886887 0.020905055
0.2814836 0.06786609 0.13544878 0.09317096 -0.06176686 -0.03295925 0.02783554 -0.04575755
0.029521093 0.044202916 0.024366751 -0.035366766 -0.019108169 -0.06992228 0.04544358 -0.0048263376
0.021180032 -0.07685587 0.03692971 0.046951916 0.012067981 -0.033964146 -0.07105404 0.045821015
0.061174884 0.07649198 0.026590578 -0.021254957 0.574018 0.023268534 -0.048855554 0.07184913
-0.032374576 -0.06403978 0.036599725 -0.03091708 0.02764117 -0.03865617 0.07631178 0.05487308
-0.03702526 0.054227952 -0.0010860058 0.070641056 -0.0146798 0.07335484 0.006122158 -0.0118160015
0.07588783 -0.0041415896 -0.05575561 -0.051237367 -0.019639585 0.008179231 -0.06170068 0.045848448
0.07950315 0.074561864 0.033771522 -0.018259726 0.09672842 -0.0015112509 -0.07281417 0.07359712
-0.023655368 0.03199938 -0.0018200502 -0.05644892 0.06838632 -0.06357565 -0.03510471 0.05728293
0.023690738 0.070340514 0.08154857 -0.028369177 -0.083334416 -0.03193396 -0.010018051 0.10788284
0.07375962 0.0063835233 0.1886374 -0.0020267316 -0.047750194 0.005869314 -0.054757413 0.039820835
0.037792116 0.007595807 -0.057908066 0.017575063 -0.05904111 0.068287134 0.04313977 0.055654883
0.25362024 -0.039414845 0.01360457 -0.025400598 -0.057700098 -0.03543133 -0.0133651635 -0.06011752
-0.016304247 -0.028839245 -0.0024097022 -0.02161305 0.015896384 -0.019685589 0.01962366 0.11804089
0.060044933 -0.03737301 -0.081469305 -0.039172098 0.000870347 -0.057577312 0.05970061 -0.012685403
-0.10196506 0.01216712 -0.2465847 -0.07235432 0.021095416 -0.05617103 0.04512178 0.06904699
0.045090616 0.038664185 -0.35871398 -0.07694544 0.0010217159 -0.027856663 -0.039464574 -0.13585126
-0.0072983806 -0.06019963 -0.021662999 0.013657613 -0.06668484 0.07927704 0.05095651 0.013270415
0.07692547 -0.09621111 0.02035238 -0.032937154 -0.042907353 0.04319156 0.067602776 -0.0076822713
-0.419238 -0.0630006 0.00047825708 0.04613501 -0.06823738 -0.03688032 -0.072946906 0.12119699
0.013094674 -0.06670215 -0.70946467 -0.07936895 0.04463915 0.023840137 -0.13750671 -0.06783119
-0.07044374 -0.072815806 -0.06790937 0.02447944 0.053710595 0.041167576 0.048014283 0.018605553
-0.018588884 -0.040731322 0.06648651 -0.014973612 -0.03251897 0.012041569 -0.050428562 -0.06336535
-0.032801535 -0.021044806 -0.037731156 -0.036414374 0.014221139 -0.00028581917 -0.050462715 0.030735848
0.0041241855 -0.016440453 -0.084711425 -0.06386194 -0.04945647 -0.060471177 -0.047981262 0.040942788
-0.04345711 -0.0010241582 -0.020235695 0.042592 -0.0354142 0.055755496 -0.08563205 0.05725324
-0.022229057 -0.05641534 0.09277344 -0.055836774 0.04246919 0.06176105 0.009829007 -0.021781255
0.027260415 0.03049701 -0.030565742 -0.04014143 0.03714016 -0.011008498 -0.04540855 -0.100884795
00000000: f680 3dbd 587a 873d d00d 163d 83c1 a2bc
00000010: 2b91 46bd 4c77 023c a80e 233c 501b 7b3d
00000020: 9b04 e7ba 87a6 97bd b910 6fbc 50af 753d
00000030: 6d54 9d3d 46f0 7bbd f467 25bd d0b3 033c
00000040: b729 8c3b 5362 08bd 785c 253d 993f 283d
00000050: 595c 0ebd 16f6 2abd f423 ef3c 7061 8abb
00000060: e802 073c 0087 3a3d d8d5 c13c f72a b53d
00000070: 035b 56bd acb9 153d b92a 48bd 1441 ab3c
00000080: 9e1e 903e 60fd 8a3d 16b3 0a3e 6bd0 be3d
00000090: 3fff 7cbd 4700 07bd 5c07 e43c 456c 3bbd
000000a0: 38d6 f13c 1e0e 353d c89c c73c bedc 10bd
000000b0: bc88 9cbc 6a33 8fbd 0c23 3a3d 4126 9ebb
000000c0: bf81 ad3c 9c66 9dbd 9c43 173d a750 403d
000000d0: c8b8 453c fd1d 0bbd c884 91bd d1ae 3b3d
000000e0: 8492 7a3d d4a7 9c3d 7cd4 d93c e01e aebc
000000f0: d8f2 123f a79d be3c c31c 48bd a325 933d
00000100: 349b 04bd 4a27 83bd 98e9 153d d145 fdbc
00000110: bc6f e23c ef55 1ebd 5a49 9c3d 98c2 603d
00000120: cda7 17bd 211e 5e3d 4f58 8eba 42ac 903d
00000130: 8b83 70bc 103b 963d 629c c83b e797 41bc
00000140: 146b 9b3d 2cb6 87bb ff5f 64bd 46de 51bd
00000150: 32e3 a0bc 2e02 063c dab9 7cbd 95cb 3b3d
00000160: 8cd2 a23d e4b3 983d 0254 0a3d 6c95 95bc
00000170: 8d19 c63d 2a15 c6ba 981f 95bd 16ba 963d
00000180: e7c8 c1bc c811 033d c08e eeba fc36 67bd
00000190: 200e 8c3d f333 82bd f5c9 0fbd 81a1 6a3d
000001a0: 1413 c23c b00e 903d f002 a73d 7a66 e8bc
000001b0: 3cab aabd 2fcd 02bd c022 24bc aef1 dc3d
000001c0: 490f 973d e02c d13b 2a2a 413e ead2 04bb
000001d0: b595 43bd 6053 c03b 4f49 60bd 2c1b 233d
000001e0: e8cb 1a3d 3fe6 f83b 0231 6dbd 94f9 8f3c
000001f0: 17d5 71bd 20da 8b3d 54b3 303d 60f6 633d
00000200: 83da 813e 7671 21bd b4e5 5e3c ea14 d0bc
00000210: f056 6cbd 7120 11bd 8ff9 5abc ca3d 76bd
00000220: 7c90 85bc 4840 ecbc 18ec 1dbb da0d b1bc
00000230: 2239 823c ac43 a1bc ccc1 a03c 6cbf f13d
00000240: adf1 753d 7114 19bd 61d9 a6bd ec72 20bd
00000250: 0028 643a 30d6 6bbd a088 743d 70d6 4fbc
00000260: 0fd3 d0bd 9a58 473c b380 7cbe 802e 94bd
00000270: 4bd0 ac3c 9813 66bd 9ed1 383d 8268 8d3d
00000280: f0b0 383d 565e 1e3d 5ca9 b7be 9295 9dbd
00000290: 19eb 853a a833 e4bc 9ba5 21bd 981c 0bbe
000002a0: 4127 efbb e393 76bd 9a76 b1bc 2ec4 5f3c
000002b0: 1092 88bd 005c a23d c6b7 503d 286c 593c
000002c0: 1a8b 9d3d 550a c5bd 09ba a63c 1ce9 06bd
000002d0: 9fbf 2fbd a2e9 303d 5373 8a3d 90bb fbbb
000002e0: 5da6 d6be 7506 81bd 94be fa39 10f8 3c3d
000002f0: 0ac0 8bbd d20f 17bd 3065 95bd 2136 f83d
00000300: 0b8b 563c 239b 88bd 7a9f 35bf 308c a2bd
00000310: 8bd7 363d 644c c33c 8fce 0cbe 14eb 8abd
00000320: cf44 90bd 7420 95bd 1114 8bbd 1b89 c83c
00000330: a4ff 5b3d 559f 283d a0aa 443d ac6a 983c
00000340: b747 98bc e3d5 26bd 142a 883d e153 75bc
00000350: 9d32 05bd 004a 453c 2e8e 4ebd b1c5 81bd
00000360: e75a 06bd 2866 acbc fc8b 1abd 3d27 15bd
00000370: c8ff 683c 00da 95b9 feb1 4ebd bfc9 fb3c
00000380: 2d24 873b 21ae 86bc 2f7d adbd 0cca 82bd
00000390: de92 4abd a0b0 77bd 0088 44bd a0b3 273d
000003a0: 1500 32bd 0c3d 86ba 54c5 a5bc f374 2e3d
000003b0: 7b0e 11bd e05f 643d db5f afbd 6082 6a3d
000003c0: b619 b6bc c613 67bd 0000 be3d 1ab5 64bd
000003d0: 2cf4 2d3d 28f9 7c3d d809 213c 9a6e b2bc
000003e0: 3c51 df3c ded4 f93c 0265 fabc 576b 24bd
000003f0: 4820 183d fd5c 34bc 51fe 39bd b09c cebd

fc2.bias f4 [50]
-0.07528587 0.14703037 -0.12730211 0.21045963 -0.16715072 -0.29228574 -0.11030363 -0.21270503
-0.1341183 0.07199465 -0.1256711 -0.1288693 0.1596744 0.019680295 -0.03871009 -0.08308221
0.01735443 -0.12048532 -0.04347293 -0.093323566 -0.08890661 -0.091569856 -0.16268246 -0.013640989
0.14144859 -0.09842436 -0.0795179 -0.108206816 -0.20147257 0.15012221 -0.12676206 -0.14131361
-0.12886146 -0.057981826 -0.1867964 -0.052059848 -0.11239542 -0.020777538 -0.0882647 -0.15012854
0.043877844 -0.06751054 0.10128129 -0.08883377 -0.117395304 -0.038963348 0.17437841 -0.090370916
0.11232537 -0.0017821015
00000000: 7a2f 9abd 218f 163e 7c5b 02be bb82 573e
00000010: 8f29 2bbe 7aa6 95be dfe6 e1bd 59cf 59be
00000020: 4f56 09be ee71 933d edaf 00be 50f6 03be
00000030: b081 233e 9238 a13c 798e 1ebd 0127 aabd
00000040: e12a 8e3c 02c1 f6bd ac10 32bd 6d20 bfbd
00000050: ab14 b6bd fa88 bbbd 3b96 26be 747e 5fbc
00000060: e6d7 103e b692 c9bd 48da a2bd 899b ddbd
00000070: d34e 4ebe a3b9 193e eacd 01be 84b4 10be
00000080: 42f4 03be 5a7e 6dbd 8e47 3fbe b53c 55bd
00000090: 922f e6bd a835 aabc 1fc4 b4bd 4cbb 19be
000000a0: 41b9 333d f742 8abd 916c cf3d 7bee b5bd
000000b0: f36c f0bd 0898 1fbd 4190 323e 6314 b9bd
000000c0: d80a e63d 6795 e9ba

fc3.weight f4 [20, 50]
-0.4863174 0.14169276 0.07042977 0.06846077 -0.286467 -0.21534514 -0.06867816 -0.14603575
0.1655934 -0.030284312 0.09498707 -0.21359867 0.16528663 0.45973465 -0.27095768 0.061456796
-0.13345881 -0.33305404 -0.3452351 -0.2877454 0.026746446 -0.012409291 -0.1194816 -0.42885458
0.17912948 -0.23707204 -0.2271307 -0.010406062 -0.032892473 0.26918805 -0.002577254 0.051329948
0.0045881113 -0.40204152 0.012559968 -0.13213938 -0.4706863 -0.09317724 0.09831172 -0.064713076
-0.34828138 -0.047561284 0.5067921 -0.35332346 0.06251532 -0.11676813 0.046008937 0.07269493
0.25672358 -0.2598432 0.04496074 -0.46210617 -0.11363857 -0.3538517 -0.18475302 0.001506735
0.034748487 -0.123467706 0.04666203 0.038853653 0.13980259 0.064562045 -0.51159996 -0.16474329
0.027602933 0.11386816 -0.019775417 -0.119959064 -0.02391804 0.115465075 0.049549162 0.10049491
-0.027395526 0.08291351 -0.3774635 0.078032754 -0.16074035 0.14318006 -0.14979254 -0.28704834
0.08715181 0.016419008 -0.07954237 0.044274427 0.04399459 -0.0092910845 0.13896705 -0.079617746
0.033919208 -0.027324764 0.10812452 -0.079577625 -0.19407615 0.09715321 -0.037816513 -0.09006689
-0.059898697 -0.09567315 -0.39951158 0.092817396 0.18374012 -0.1501438 0.09821663 -0.16423588
-0.07983661 0.12951587 -0.044852708 -0.053370412 0.04983583 0.08484317 -0.018780116 0.13396499
-0.24792573 -0.11684463 -0.05500375 0.05488903 0.15227 -0.09787721 0.0751484 0.12088148
-0.10731565 0.017099107 0.1370921 0.053087827 -0.34931323 0.14095137 -0.20976725 -0.2649446
-0.33453208 -0.2865866 0.016265837 -0.046043098 0.11782692 0.098008506 -0.036393207 -0.2967218
0.11300371 0.053046856 0.075799085 0.05921689 0.11964924 0.069139145 -0.2346844 0.15271884
-0.020225773 0.087329686 -0.3279158 0.091805086 -0.4152713 0.06527852 -0.20275052 -0.043794572
-0.07163201 0.08735302 -0.056733936 -0.029287463 -0.12750927 0.04844469 -0.123726055 -0.062032685
-0.021459825 -0.13724661 -0.06821187 -0.0083036665 -0.07340938 -0.15405306 0.04440896 -0.02518834
-0.24157251 -0.008235503 -0.112886935 -0.01595529 -0.093940325 0.059074312 -0.007756437 -0.23189412
-0.15373549 0.066276625 -0.0007780916 -0.024381414 -0.13399538 -0.12584114 -0.09741861 -0.1256696
0.021283299 -0.022587188 -0.24571729 -0.12560154 -0.11888375 -0.07268659 -0.07229389 0.05451055
-0.101201996 0.074792564 -0.016158001 -0.06620483 -0.012543293 0.12857762 -0.061257027 -0.15696293
-0.013672233 0.014090189 0.10703248 0.089346774 -0.018137507 0.01911931 0.17007995 -0.11018644
-0.14705804 -0.009439566 -0.054315493 -0.08163479 -0.002535197 0.12968007 -5.0708506e-05 0.10640712
-0.07963424 -0.09105557 -0.0023891863 -0.12785871 0.085919306 -0.13131371 -0.015652293 -0.102978244
-0.040140204 -0.020119464 0.042754278 -0.09044601 -0.08686575 0.0036507715 -0.122332245 0.0031255335
-0.0543397 -0.11833649 -0.08404878 0.055539865 0.011713132 -0.06835804 -0.03889204 -0.18922314
-0.066179834 -0.10663633 -0.08711001 -0.12746632 0.07940708 -0.11211563 0.12001165 -0.040121607
-0.10761719 -0.10843536 0.041138757 -0.37527356 0.043343816 -0.29112208 0.05123909 -0.700834
00000000: 98fe f8be e817 113e 7c3d 903d 2935 8c3d
00000010: cdab 92be 7083 5cbe 23a7 8cbd 658a 15be
00000020: 5191 293e ce16 f8bc 9588 c23d 9cb9 5abe
00000030: e640 293e 5762 eb3e f7ba 8abe 1fba 7b3d
00000040: 6da9 08be 0f86 aabe a8c2 b0be 5d53 93be
00000050: 5d1b db3c 5750 4bbc c5b2 f4bd d492 dbbe
00000060: b86d 373e 03c3 72be f394 68be 307e 2abc
00000070: 42ba 06bd 04d3 893e 26e7 28bb 5a3f 523d
00000080: de57 963b 63d8 cdbe 53c8 4d3c 8c4f 07be
00000090: cbfd f0be b5d3 bebd a857 c93d 4a88 84bd
000000a0: f051 b2be 9fcf 42bd 21bd 013f d0e6 b4be
000000b0: 0808 803d 2124 efbd de73 3c3d 14e1 943d
000000c0: 4671 833e 2b0a 85be c128 383d 2e99 ecbe
000000d0: 57bb e8bd 0d2c b5be e52f 3dbe a37d c53a
000000e0: 6e54 0e3d a3dc fcbd af20 3f3d 0225 1f3d
000000f0: 6928 0f3e 1b39 843d 37f8 02bf 77b2 28be
00000100: 8c1f e23c b633 e93d 0e00 a2bc 19ad f5bd
00000110: c4ef c3bc f478 ec3d 10f4 4a3d 46d0 cd3d
00000120: 956c e0bc 8fce a93d e542 c1be a3cf 9f3d
00000130: 1e99 24be cb9d 123e 3763 19be 00f8 92be
00000140: a67c b23d 2881 863c 1ce7 a2bd 1a59 353d
00000150: ac33 343d a239 18bc 614d 0e3e a10e a3bd
00000160: deee 0a3d 2fd8 dfbc 6370 dd3d 98f9 a2bd
00000170: e6bb 46be 43f8 c63d 7de5 1abd fd74 b8bd
00000180: 5658 75bd 49f0 c3bd c88c ccbe 0c17 be3d
00000190: 5f26 3c3e 4cbf 19be cd25 c93d 732d 28be
000001a0: 6081 a3bd cf9f 043e 79b7 37bd ef9a 5abd
000001b0: a820 4c3d 42c2 ad3d c2d8 99bc 1e2e 093e
000001c0: 3ee0 7dbe 3d4c efbd 9d4b 61bd 52d3 603d
000001d0: abec 1b3e d973 c8bd 68e7 993d b690 f73d
000001e0: 4fc8 dbbd 6d13 8c3c df61 0c3e 9f72 593d
000001f0: 2fd9 b2be 8e55 103e 3acd 56be d2a6 87be
00000200: ca47 abbe 7bbb 92be ef3f 853c b097 3cbd
00000210: 3d4f f13d afb8 c83d 0b11 15bd ebeb 97be
00000220: 7d6e e73d a947 593d 8d3c 9b3d 698d 723d
00000230: a90a f53d d398 8d3d 1b51 70be 5462 1c3e
00000240: 85b0 a5bc e8d9 b23d 94e4 a7be 4e04 bc3d
00000250: 719e d4be bfb0 853d d59d 4fbe f061 33bd
00000260: ceb3 92bd 24e6 b23d d861 68bd 43ec efbc
00000270: ca91 02be f06d 463d 1664 fdbd fc15 7ebd
00000280: 84cc afbc 608a 0cbe aab2 8bbd 1a0c 08bc
00000290: a857 96bd 16c0 1dbe 2be6 353d c757 cebc
000002a0: c95e 77be 34ee 06bc 4431 e7bd abb4 82bc
000002b0: c963 c0bd e8f7 713d b629 febb a775 6dbe
000002c0: d66c 1dbe 0abc 873d d8f8 4bba 88bb c7bc
000002d0: 1636 09be 80dc 00be 6883 c7bd 88af 00be
000002e0: 505a ae3c c408 b9bc 509d 7bbe b19d 00be
000002f0: 5379 f3bd b5dc 94bd d20e 94bd 7446 5f3d
00000300: fe42 cfbd d82c 993d c95d 84bc 6696 87bd
00000310: 6282 4dbc daa9 033e a6e8 7abd e4ba 20be
00000320: 8001 60bc 89da 663c d833 db3d 71fb b63d
00000330: 1c95 94bc 19a0 9c3c 7029 2e3e 6ea9 e1bd
00000340: 6296 16be 69a8 1abc ec79 5ebd 2430 a7bd
00000350: 8c25 26bb daca 043e d8af 54b8 faeb d93d
00000360: 4717 a3bd 587b babd e593 1cbb 65ed 02be
00000370: 76f6 af3d 1a77 06be 3d39 80bc 42e6 d2bd
00000380: 0e6a 24bd 93d1 a4bc 1c1f 2f3d c23b b9bd
00000390: ace6 b1bd c841 6f3b 5489 fabd c0d5 4c3b
000003a0: 4e93 5ebd 675a f2bd c421 acbd c57d 633d
000003b0: 70e8 3f3c 4dff 8bbd 424d 1fbd b6c3 41be
000003c0: 4b89 87bd 2664 dabd bc66 b2bd 8886 02be
000003d0: 2ea0 a23d e19c e5bd abc8 f53d 8e56 24bd
000003e0: 6766 dcbd 5c13 debd 1d81 283d db23 c0be
000003f0: 4989 313d f40d 95be 14e0 513d db69 33bf

fc3.bias f4 [20]
0.02010533 0.06880167 0.08233534 -0.24789743 -0.16966583 0.015129937 -0.18242672 -0.16526926
-0.0015329061 0.022460055 -0.06861009 0.016790206 0.051758856 0.11664445 -0.26085085 0.07620582
-0.020339059 0.059938848 -0.001996563 0.01031195
00000000: efb3 a43c e4e7 8c3d 6e9f a83d d3d8 7dbe
00000010: e1bc 2dbe 8ee3 773c 12ce 3abe 583c 29be
00000020: cbeb c8ba 26fe b73c 7283 8cbd 9d8b 893c
00000030: 1801 543d 49e3 ee3d 3e8e 85be cc11 9c3d
00000040: 199e a6bc 7082 753d c5d8 02bb 74f3 283c

fc4.weight f4 [50, 20]
-0.05145028 0.043676507 -0.22350249 0.008645927 -0.12665671 -0.4243575 0.33206865 -0.015664162
-0.069616094 0.05013512 0.26069322 -0.26998076 -0.41231644 -0.061781835 0.0772848 -0.02517592
-0.0061591747 0.13922086 -0.30886057 -0.048276905 -0.07871764 0.058390312 -0.53906375 0.18370461
0.06527676 -0.41099337 -0.218666 -0.048310373 -0.1474795 -0.13704729 -0.095895596 -0.066166244
0.267224 -0.12706475 0.080648154 -0.08658981 -0.07997312 0.03559237 -0.10892393 -0.16310741
-0.18883665 -0.022143455 -0.3796163 -0.21077593 -0.0027005887 -0.06474404 0.08499349 -0.24713963
0.0051596356 -0.4105949 -0.19280645 -0.052246306 0.13325298 0.011640689 -0.06949189 -0.11911478
0.14157818 0.13545647 -0.17940673 -0.14554149 -0.54838365 -0.021863293 0.033973575 0.0771885
-0.028622087 -0.453564 -0.049610905 0.20801553 0.04174419 0.01455441 -0.03698315 -0.47672296
0.033797324 -0.20298865 0.048426423 -0.19679019 -0.2504653 0.1336735 -0.4044848 -0.46886462
0.009178305 -0.4672888 -0.53886074 0.03597886 0.03974491 -0.268914 -0.21745291 -0.0040550493
-0.17429486 -0.34163916 0.06185395 0.024029057 -0.28077382 -0.17197835 0.18732545 -0.49926513
-0.40696874 -0.45616865 0.04665548 0.005201376 -0.24161457 0.27624696 -0.41005132 0.11036284
0.19600476 -0.22338486 -0.26453266 -0.106928 0.041204322 0.04892804 -0.21272244 -0.031293534
-0.48781568 -0.21807553 0.28345686 -0.0117709385 -0.109332025 -0.05419436 0.004676311 -0.06819432
-0.23064171 -0.5074108 -0.029672857 0.017868707 -0.06184455 -0.20142283 0.013240752 -0.02497904
-0.036433436 -0.03353043 -0.02539166 -0.29534405 -0.26419458 -0.17631878 -0.11842786 -0.044933505
-0.089297585 0.13312507 -0.3743282 -0.46136752 -0.38284323 -0.10425684 -0.17083685 -0.091057934
-0.046896704 0.0036934537 -0.3655989 0.0809176 -0.31186095 -0.33893907 -0.22835878 -0.19894542
-0.13826871 0.040861156 -0.28185976 -0.04117723 -0.12172674 -0.31121606 -0.29858342 -0.31900486
0.0070537403 -0.5309185 -0.56271124 -0.18406318 0.06635687 -0.2348958 -0.2726782 0.119676076
-0.29231647 -0.38563344 -0.02266692 -0.0005917251 -0.37993106 -0.25828016 0.14520484 -0.5813129
-0.20679437 -0.34665504 0.10145004 -0.49400464 -0.14938152 -0.0015290831 0.011525749 0.0044296905
-0.15886515 -0.024996454 -0.033854462 -0.21132612 0.0338928 -0.19517586 -0.19184761 0.10151413
0.023962593 0.06459664 -0.21239458 0.22357307 0.0068291714 -0.33168992 -0.059440035 -0.14125802
-0.13054791 0.062500305 -0.5889324 0.13585897 0.09810361 -0.07544587 -0.03757376 0.098709
-0.03586999 0.17010748 0.32383582 -0.22288351 0.13684176 -0.0080439765 -0.00044466398 0.07026032
0.062325798 -0.09488416 -0.14870504 -0.17189465 -0.53700846 -0.04561008 -0.038091786 -0.11809482
-0.020151213 -0.03048154 -0.09923145 0.10464037 -0.06720336 -0.14572677 -0.045416817 -0.5823436
-0.08303617 0.16194795 -0.27792394 0.033159655 -0.0018826629 -0.057405755 -0.5822235 -0.58431554
-0.07570815 0.11272958 -0.0012905551 -0.15886866 0.05975741 0.03450471 0.12484252 0.033411194
-0.0752795 -0.007826551 -0.12137765 0.09619889 -0.001618812 0.05015354 -0.2587454 0.0974831
00000000: 87bd 52bd 23e6 323d d6dd 64be a5a7 0d3c
00000010: 4cb2 01be 6345 d9be e704 aa3e 2152 80bc
00000020: e292 8ebd 7c5a 4d3d 9579 853e eb3a 8abe
00000030: 241b d3be f30e 7dbd 7e47 9e3d bb3d cebc
00000040: e7d2 c9bb ea8f 0e3e f922 9ebe 01be 45bd
00000050: b736 a1bd ae2a 6f3d 1500 0abf 101d 3c3e
00000060: d2af 853d b96d d2be fbe9 5fbe 19e1 45bd
00000070: de04 17be 2056 0cbe e964 c4bd 2b82 87bd
00000080: 96d1 883e 431d 02be dc2a a53d 0056 b1bd
00000090: f2c8 a3bd 4ec9 113d 8213 dfbd a105 27be
000000a0: 655e 41be 3166 b5bc 115d c2be a5d5 57be
000000b0: 5cfc 30bb 8698 84bd 1111 ae3d 2c12 7dbe
000000c0: 2912 a93b 7f39 d2be 0e6f 45be 3900 56bd
000000d0: 7873 083e 97b8 3e3c c451 8ebd 73f2 f3bd
000000e0: dff9 103e 1ab5 0a3e 66b6 37be d408 15be
000000f0: df62 0cbf a61a b3bc e027 0b3d 0115 9e3d
00000100: de78 eabc 8a39 e8be ce34 4bbd 0602 553e
00000110: f5fb 2a3d 9f75 6e3c a57b 17bd 0815 f4be
00000120: 106f 0a3d 42dc 4fbe c95a 463d 5e83 49be
00000130: fd3c 80be b5e1 083e a218 cfbe 060f f0be
00000140: 9a60 163c 7a40 efbe c7f2 09bf 925e 133d
00000150: 8fcb 223d 19af 89be faab 5ebe 38e0 84bb
00000160: 5a7a 32be 54eb aebe 915a 7d3d 96d8 c43c
00000170: 96c1 8fbe 181b 30be 3ed2 3f3e ae9f ffbe
00000180: 355e d0be f08e e9be d119 3f3d 4e70 aa3b
00000190: cf69 77be 3e70 8d3e 3ff2 d1be ea05 e23d
000001a0: 79b5 483e 00bf 64be d370 87be 11fd dabd
000001b0: ddc5 283d c568 483d e9d3 59be a62d 00bd
000001c0: fac2 f9be 314f 5fbe 4221 913e e5da 40bc
000001d0: 78e9 dfbd e8fa 5dbd bd3b 993b 77a9 8bbd
000001e0: 572d 6cbe ade5 01bf 7e14 f3bc 6561 923c
000001f0: b650 7dbd c941 4ebe bdef 583c d8a0 ccbc
00000200: 3a3b 15bd 3457 09bd 2c02 d0bc 5637 97be
00000210: 8344 87be e98c 34be 4e8a f2bd 320c 38bd
00000220: a7e1 b6bd f051 083e f2a7 bfbe 5d38 ecbe
00000230: 0704 c4be 9c84 d5bd dbef 2ebe 957c babd
00000240: c216 40bd df0d 723b c72f bbbe 20b8 a53d
00000250: 3dac 9fbe 6c89 adbe e2d6 69be 59b8 4bbe
00000260: 5096 0dbe 075e 273d ec4f 90be 75a9 28bd
00000270: de4b f9bd b657 9fbe eddf 98be 9b54 a3be
00000280: 1023 e73b 46ea 07bf d80d 10bf 0f7b 3cbe
00000290: 1ce6 873d 8688 70be 7a9c 8bbe bb18 f53d
000002a0: 81aa 95be bf71 c5be faaf b9bc 001e 1bba
000002b0: 5386 c2be 4c3d 84be 94b0 143e ecd0 14bf
000002c0: e7c1 53be c57c b1be 0ac5 cf3d 2dee fcbe
000002d0: 78f7 18be 846b c8ba 7fd6 3c3c f026 913b
000002e0: 8cad 22be 5dc5 ccbc faaa 0abd e065 58be
000002f0: 2dd3 0a3d 2edc 47be b373 44be a4e6 cf3d
00000300: 334d c43c 3e4b 843d f77d 59be 57f0 643e
00000310: 3ec7 df3b 43d3 a9be 6577 73bd f1a5 10be
00000320: 5aae 05be 2900 803d 46c4 16bf 9d1e 0b3e
00000330: 8cea c83d 5d83 9abd f1e6 19bd f227 ca3d
00000340: 69ec 12bd a830 2e3e cfcd a53e 933b 64be
00000350: 3f20 0c3e e2ca 03bc ca21 e9b9 a5e4 8f3d
00000360: 5649 7f3d a052 c2bd 2246 18be 2705 30be
00000370: 6379 09bf a3d1 3abd 2206 1cbd b2db f1bd
00000380: 2814 a5bc 6cb4 f9bc dc39 cbbd b14d d63d
00000390: eaa1 89bd 6639 15be fc06 3abd 7814 15bf
000003a0: de0e aabd afd5 253e 0c4c 8ebe 6bd2 073d
000003b0: afc3 f6ba 4c22 6bbd 990c 15bf b495 15bf
000003c0: e00c 9bbd c4de e63d d827 a9ba 77ae 22be
000003d0: 30c4 743d d054 0d3d 6fad ff3d 2dda 083d
000003e0: 232c 9abd ef3a 00bc d894 f8bd ec03 c53d
000003f0: 512e d4ba cc6d 4d3d 477a 84be 38a5 c73d

fc4.bias f4 [50]
0.0035488724 -0.009930775 -0.0018816772 0.090062104 0.038340386 -0.1384312 -0.010621039 0.14064132
-0.029212577 -0.4052286 -0.024454255 0.08385144 -0.45398062 -0.35450757 -0.016361844 -0.10459683
-0.020558344 0.02795115 -0.013088179 0.04501871 -0.56134117 0.022412451 0.0886976 -0.2307156
-0.07778644 0.07309084 0.1944264 -0.062404867 -0.04281171 0.090733476 0.1280216 0.028780876
-0.1079168 -0.06701973 0.08772474 0.00014694911 -0.039474767 -0.060694452 -0.0033693376 0.019619618
-0.6153041 -0.01683542 0.11878456 0.04828806 0.12552993 -0.034760807 -0.080145925 -0.04733175
-0.0048349397 0.10766319
00000000: 3394 683b b0b4 22bc 9ca2 f6ba 7b72 b83d
00000010: cf0a 1d3d e9c0 0dbe de03 2ebc 4704 103e
00000020: 374f efbc 207a cfbe 4a54 c8bc 4eba ab3d
00000030: 2670 e8be 0482 b5be 4609 86bc dd36 d6bd
00000040: f969 a8bc cff9 e43c cd6f 56bc 8a65 383d
00000050: 0eb4 0fbf 519a b73c 16a7 b53d b640 6cbe
00000060: 7f4e 9fbd a6b0 953d b717 473e 3f9c 7fbd
00000070: 555b 2fbd 79d2 b93d 1818 033e dfc5 eb3c
00000080: 7c03 ddbd a441 89bd 07a9 b33d 5a16 1a39
00000090: 4bb0 21bd bf9a 78bd 1bd0 5cbb 52b9 a03c
000000a0: 9284 1dbf 6fea 89bc 5245 f33d b3c9 453d
000000b0: eb8a 003e 5961 0ebd 8c23 a4bd f0de 41bd
000000c0: 6a6e 9ebb 857e dc3d

fc5.weight f4 [150, 50]
0.059092052 -0.05933299 -0.0060354467 -0.29877952 -0.16495396 -0.17625357 -0.087914884 -0.17339897
0.13182968 0.041175827 -0.0018353248 0.003536211 0.06621546 0.052752238 0.060755663 -0.01236633
0.01185195 -0.19514915 0.004403342 -0.04854108 -0.15474422 0.12032503 -0.09962266 0.031814188
-0.31662259 0.078453176 -0.48119882 -0.016975205 -0.31111258 -0.15406695 -0.027331641 -0.18011026
-0.03379749 -0.20141193 -0.1580133 -0.15761621 -0.15927365 -0.1254639 -0.19428027 0.10581194
0.1781091 -0.20435128 -0.273219 -0.14655921 -0.12142349 0.08463806 -0.20925675 0.011719539
0.018261671 -0.53676057 0.09403812 0.027527966 0.099900715 0.0017582853 -0.06922082 0.10000315
-0.30483428 0.025051214 -0.09200035 -0.050458487 -0.025511073 -0.070219666 -0.079198256 0.10911731
-0.116980486 -0.10282138 -0.018048579 -0.010807231 -0.07527045 -0.048166275 0.055629812 -0.047508866
-0.023466818 0.011208979 -0.025931014 -0.21578798 0.0009610548 0.03775366 -0.10597615 -0.018072745
0.051705398 0.060201913 -0.086285286 0.058686815 0.10699942 -0.23569071 0.019996734 -0.020632338
-0.3019711 -0.15874979 0.013150586 -0.07246292 0.07816558 -0.11141267 -0.02490601 0.09074838
-0.07059344 -0.11343296 0.054449867 -0.0073008165 -0.11710734 -0.13223681 -0.0062584393 -0.23663838
-0.029861717 -0.11987489 -0.20237677 0.152125 0.19671042 -0.21314807 -0.17664053 -0.0034935027
-0.5682257 0.08024137 -0.08527486 0.06737064 -0.0118775135 -0.0152445175 -0.11046446 -0.009420216
0.07553418 0.036389083 0.040044528 0.036623046 0.21281071 0.0044871136 -0.14048962 -0.19442113
-0.04552776 -0.4563696 -0.2794616 -0.034553804 -0.2728062 -0.028912393 -0.061588284 -0.47573203
0.10583572 0.013837241 -0.44436237 0.016657269 -0.003776185 -0.13306741 -0.21632692 -0.00650584
-0.017249443 -0.09772232 -0.12993656 -0.30321664 -0.017976593 -0.36085582 -0.16976361 -0.284696
0.0021512487 -0.37614584 -0.69183046 0.01817792 -0.24545683 -0.0076559465 -0.6139925 -0.05370307
-0.08627519 0.044584002 0.10735893 0.06884386 -0.032274075 -0.20342112 -0.061138753 -0.45732033
-0.100809485 0.008799644 0.007256421 0.027669888 0.019842105 -0.122034825 -0.006045418 0.034942493
-0.40889263 0.033857323 -0.20117944 -0.3151291 -0.44479898 -0.75326955 -0.019425096 0.06287351
-0.68430316 -0.25934264 -0.49586254 0.030028833 -0.14998136 -0.019545719 0.07276868 -0.17662792
-0.69150203 -0.5020075 -0.042819105 -0.012918203 -0.12752137 -0.027614607 0.05053206 -0.41586247
-0.25436527 -0.20323771 -0.21355426 -0.2456011 -0.21631701 -0.22041863 -0.38250533 0.066626616
-0.08852342 -0.103365764 -0.22934417 0.090321444 -0.22883387 -0.088436104 -0.03240333 -0.112509236
0.026215069 -0.32275265 -0.13447635 0.016508318 -0.042738054 0.021171007 0.06066704 0.14622465
-0.21594454 -0.0064100847 0.12511268 -0.3290228 -0.047266454 -0.28276125 -0.13646719 -0.26717466
-0.39551803 -0.15013452 -0.33187243 -0.67787343 -0.14974593 -0.21759106 -0.7231266 0.027791541
-0.0058488618 -0.35536233 -0.19141027 -0.17088114 -0.00807015 -0.5809107 0.045352835 -0.7702732
-0.05338144 -0.060700852 -0.030463656 -0.07762087 -0.03020004 0.18010813 -0.20839833 0.0026181312
00000000: 820a 723d 2607 73bd ffc4 c5bb a1f9 98be
00000010: b1e9 28be d17b 34be b80c b4bd 808f 31be
00000020: 5cfe 063e fca7 283d 488f f0ba c7bf 673b
00000030: f99b 873d bb12 583d eeda 783d 269c 4abc
00000040: ae2e 423c 2ed5 47be e949 903b 03d3 46bd
00000050: 4575 1ebe f86c f63d f706 ccbd 984f 023d
00000060: 5b1c a2be 0fac a03d b15f f6be 960f 8bbc
00000070: 264a 9fbe bac3 1dbe 9be6 dfbc d36e 38be
00000080: 3d6f 0abd ee3e 4ebe 3dce 21be 2566 21be
00000090: a218 23be 9c79 00be 68f1 46be eeb3 d83d
000000a0: 3b62 363e 7641 51be 5ce3 8bbe 9e13 16be
000000b0: e1ac f8bd b856 ad3d 6747 56be 4f03 403c
000000c0: 8099 953c 2469 09bf 0f97 c03d 5482 e13c
000000d0: bf98 cc3d 4476 e63a a5c3 8dbd 74ce cc3d
000000e0: 3d13 9cbe 3438 cd3c ae6a bcbd 8fad 4ebd
000000f0: 99fc d0bc 54cf 8fbd b232 a2bd e578 df3d
00000100: 7793 efbd 0494 d2bd 9dda 93bc d010 31bc
00000110: 6527 9abd 004a 45bd 16dc 633d a898 42bd
00000120: 7c3d c0bc dea5 373c 476d d4bc 86f7 5cbe
00000130: 4cef 7b3a 95a3 1a3d 060a d9bd 4b0d 94bc
00000140: 0ac9 533d 4896 763d 57b6 b0bd 9661 703d
00000150: 8322 db3d e858 71be 31d0 a33c 2605 a9bc
00000160: f59b 9abe 4e8f 22be 8e75 573c 7067 94bd
00000170: 4715 a03d 532c e4bd b007 ccbc 49da b93d
00000180: 4b93 90bd 8a4f e8bd d306 5f3d b03b efbb
00000190: f9d5 efbd 1669 07be 9813 cdbb 5551 72be
000001a0: 8fa0 f4bc f780 f5bd db3b 4fbe a8c6 1b3e
000001b0: 756e 493e 7d43 5abe 41e1 34be 40f3 64bb
000001c0: 3d77 11bf 9655 a43d 96a4 aebd 9ef9 893d
000001d0: e799 42bc 24c4 79bc 313b e2bd 4057 1abc
000001e0: aab1 9a3d b80c 153d bb05 243d 0c02 163d
000001f0: 0deb 593e a308 933b 83dc 0fbe 5516 47be
00000200: 517b 3abd 47a9 e9be 9715 8fbe 4a88 0dbd
00000210: 41ad 8bbe afd9 ecbc ff43 7cbd 2693 f3be
00000220: 66c0 d83d 98b5 623c 7783 e3be d374 883c
00000230: df79 77bb d342 08be ce84 5dbe f12e d5bb
00000240: b44e 8dbc a422 c8bd 170e 05be 363f 9bbe
00000250: a643 93bc 18c2 b8be 83d6 2dbe adc3 91be
00000260: f7fb 0c3b 3096 c0be cd1b 31bf dce9 943c
00000270: 0959 7bbe bcde fabb 9d2e 1dbf c0f7 5bbd
00000280: 0cb1 b0bd b79d 363d 00df db3d 02fe 8c3d
00000290: d231 04bd a04d 50be a16c 7abd e425 eabe
000002a0: 3475 cebd 622c 103c 45c7 ed3b f6ab e23c
000002b0: e98b a23c 65ed f9bd a418 c6bb dc1f 0f3d
000002c0: 605a d1be faad 0a3d fc01 4ebe 9a58 a1be
000002d0: b1bc e3be 46d6 40bf 6121 9fbc d4c3 803d
000002e0: 7e2e 2fbf 8fc8 84be b2e1 fdbe 07ff f53c
000002f0: b794 19be 581e a0bc bf07 953d f3dd 34be
00000300: 4706 31bf 9083 00bf 1663 2fbd dfa6 53bc
00000310: f694 02be 0738 e2bc b5fa 4e3d edeb d4be
00000320: 2a3c 82be 8c1d 50be f8ad 5abe db7e 7bbe
00000330: 3582 5dbe 6cb5 61be bdd7 c3be 8973 883d
00000340: c44b b5bd 6eb1 d3bd 33d9 6abe 73fa b83d
00000350: 6d53 6abe fd1d b5bd 5bb9 04bd 3e6b e6bd
00000360: fcc0 d63c d63f a5be 2bb4 09be 743c 873c
00000370: 190e 2fbd d26e ad3c 017e 783d eabb 153e
00000380: 9120 5dbe b00b d2bb 8a1d 003e ad75 a8be
00000390: 789a 41bd 15c6 90be 0ebe 0bbe 1ecb 88be
000003a0: 5781 cabe ddbc 19be 2feb a9be 1d89 2dbf
000003b0: ff56 19be 31d0 5ebe d31e 39bf 16ab e33c
000003c0: cfa7 bfbb 0df2 b5be 0e01 44be 77fb 2ebe
000003d0: aa38 04bc 90b6 14bf e5c3 393d a030 45bf
000003e0: 7fa6 5abd 75a1 78bd eb8e f9bc b1f7 9ebd
000003f0: 1366 f7bc 446e 383e 5f66 55be f494 2b3b

fc5.bias f4 [150]
0.038517468 -0.3676687 0.07196031 0.1041078 0.07972885 0.049770277 0.047031563 0.017058626
-0.17860244 -0.16736384 -0.20505717 0.07205476 0.09408273 -0.020339174 -0.23647723 0.056844644
-0.27706233 0.038327917 0.06616348 -0.12257479 -0.033876356 0.005787387 0.044860214 0.08854392
0.14854546 0.019939778 -0.12061972 -0.03440256 -0.20497015 0.11331515 0.008611334 -0.043109555
0.06767564 0.10487663 0.05430007 -0.2206973 0.10331817 -0.075790204 0.0437749 0.03991486
0.047185767 0.11809383 0.110419355 -0.038912077 0.017443104 0.07205381 0.098324314 -0.25268418
0.0987499 0.10415375 0.05004958 0.10071021 0.0682901 0.12234623 0.0340107 0.03163142
-0.22122516 -0.2484397 0.11943555 0.074337505 -0.20785864 0.1295386 0.09363269 0.07662611
0.1141416 0.10126185 0.06333179 0.09734754 -0.25948003 -0.23863204 0.03469637 0.08605756
0.10144585 0.10021351 0.112654865 0.092707165 0.060207617 -0.15332812 0.116291866 0.09949151
-0.24299496 0.09952011 0.1209107 0.055351466 0.08161225 0.124004304 0.087771304 0.09023168
0.044757854 0.09667887 0.098465994 0.056865323 -0.020284992 -0.3479901 0.10801912 0.079150625
0.0048990254 0.105915196 0.021170577 -0.010925612 0.124443956 0.09221913 -0.012415041 -0.06843296
-0.30899125 0.033650376 -0.044656176 -0.12904824 0.068068564 0.057178628 0.06265075 -0.24514244
-0.15511183 -0.16833803 -0.2665811 0.087948516 0.08500043 0.11065667 -0.032741033 0.058811057
-0.10619111 0.11718492 0.105057776 0.010882687 -0.17830738 -0.018599223 0.100557335 0.088409826
0.03977285 -0.6007879 0.08887662 -0.20040715 0.056763165 0.038936697 0.057260618 0.058774315
-0.17835833 0.094005324 4.145027e-05 -0.2388086 0.0491194 0.060299084 -0.013966413 0.12474799
0.08404577 -0.050792217 0.055098392 0.037385445 0.051298734 0.026982073
00000000: 7ec4 1d3d 123f bcbe ed5f 933d 7836 d53d
00000010: e148 a33d ebdb 4b3d 2ba4 403d 88be 8b3c
00000020: 8fe3 36be 6d61 2bbe 82fa 51be 7291 933d
00000030: 72ae c03d 579e a6bc 1627 72be eed5 683d
00000040: 1ddb 8dbe bcfd 1c3d b880 873d 7e08 fbbd
00000050: efc1 0abd 1fa4 bd3b 58bf 373d 8456 b53d
00000060: 4d1c 183e bf58 a33c 7907 f7bd b3e9 0cbd
00000070: b2e3 51be c611 e83d 8d16 0d3c a593 30bd
00000080: 8799 8a3d 8fc9 d63d c069 5e3d 79fe 61be
00000090: 7a98 d33d e537 9bbd 4f4d 333d c47d 233d
000000a0: dd45 413d 2edb f13d 8b23 e23d 4562 1fbd
000000b0: d7e4 8e3c f390 933d 425e c93d d25f 81be
000000c0: 633d ca3d 904e d53d ca00 4d3d 2841 ce3d
000000d0: aedb 8b3d a990 fa3d ce4e 0b3d f38f 013d
000000e0: d988 62be fa66 7ebe a09a f43d 433e 983d
000000f0: e5d8 54be c4a5 043e 7fc2 bf3d 26ee 9c3d
00000100: 12c3 e93d 5f62 cf3d 19b4 813d 265e c73d
00000110: 91da 84be f55b 74be c81d 0e3d f23e b03d
00000120: d8c2 cf3d be3c cd3d 98b7 e63d 41dd bd3d
00000130: 439c 763d 0c02 1dbe 6e2a ee3d 34c2 cb3d
00000140: acd3 78be 33d1 cb3d 07a0 f73d 38b8 623d
00000150: 5324 a73d f8f5 fd3d 71c1 b33d 63cb b83d
00000160: 0354 373d 92ff c53d 8aa8 c93d 9deb 683d
00000170: b62c a6bc c22b b2be 2139 dd3d b919 a23d
00000180: 0188 a03b 11ea d83d eb6d ad3c 5701 33bc
00000190: 79dc fe3d 62dd bc3d 7568 4bbc 9426 8cbd
000001a0: 1a34 9ebe fad4 093d 65e9 36bd 3925 04be
000001b0: 8867 8b3d 2334 6a3d 094f 803d 9f06 7bbe
000001c0: a3d5 1ebe ce60 2cbe 517d 88be 5a1e b43d
000001d0: b514 ae3d f79f e23d 761b 06bd dde3 703d
000001e0: ba7a d9bd a6fe ef3d 8828 d73d 4c4d 323c
000001f0: 3696 36be 665d 98bc 01f1 cd3d 3610 b53d
00000200: dbe8 223d 3ccd 19bf f204 b63d 8837 4dbe
00000210: 7e80 683d 167c 1f3d 1c8a 6a3d 56bd 703d
00000220: 91a3 36be dd85 c03d e3da 2d38 3e8a 74be
00000230: 6d31 493d 2cfc 763d 62d3 64bc e07b ff3d
00000240: 3020 ac3d 800b 50bd daae 613d 7b21 193d
00000250: 9f1e 523d 8209 dd3c

fc6.weight f4 [239, 150]
0.131317 0.07629811 0.11643762 0.6379577 0.09259786 0.51303405 -0.43988323 3.2473998
0.1195101 0.04473489 0.11290676 0.3965694 -0.7677679 -0.19523609 0.01023184 -0.09625192
-0.034651242 -0.3925744 0.17164275 -0.01939576 0.15000412 -0.59915024 -0.4213668 1.3696326
1.0758835 2.7376554 0.07700496 0.8923618 0.04950816 -1.4242287 -0.12723033 -0.5983958
0.21357167 0.6472672 -0.2918726 0.09752925 1.5318886 0.5177158 -0.23953 0.53932124
-0.3020046 1.1280603 -0.9823351 0.33152393 -0.37582302 -0.12237978 0.63023937 -0.074565366
-1.1803328 -1.5393895 -0.47063133 0.6521432 -0.5798182 -1.3813243 -0.33973208 -0.6102354
-0.0066933255 -0.00422249 0.8195834 -0.62027586 0.01098634 0.5241189 0.18078096 0.71889716
0.6613814 0.66422087 -0.17321625 -2.0015275 -0.04254625 0.02339258 -0.80485165 -0.20872924
0.82450956 1.2497158 -1.8835354 -0.11730489 -0.15565076 -0.008622813 2.0772557 -2.0655427
0.026136098 -2.4081666 1.2676258 0.3915417 1.3785402 1.603985 0.014085874 1.0082651
0.32070744 0.6962958 0.94027245 -0.5149026 0.5556555 0.050600123 0.648174 0.15274991
0.36600366 -0.9873842 -1.0791806 -0.010308208 1.0768986 0.75051737 0.43996257 0.028346376
-0.006982283 -0.4122328 0.2684591 -0.04101456 -0.33642277 0.21599482 -0.41726598 0.17632271
-0.017228425 0.059897963 0.024293287 -0.45254913 0.4540702 -0.31250775 -0.5800611 -0.7627188
-0.015117069 -1.2175494 1.064186 0.94758844 -0.013211211 -0.3153086 -1.3778694 0.4351657
-0.36632732 -0.05421637 1.0447916 0.015560827 -0.15095462 0.30989495 0.09165964 0.23660173
-0.0042867404 0.6796175 -0.53885955 -0.03950693 0.43574995 0.47029245 0.7294045 0.63921183
-1.2376785 0.15060481 0.12310602 0.7345446 3.9391532 0.32754758 0.3067018 0.042063944
0.31315014 0.17653121 0.04903404 1.0387845 0.24663264 1.8069426 0.08159753 0.09779771
-0.025850108 0.19174112 0.17533977 0.20093478 -0.011315122 0.21956262 0.06089798 0.26949227
0.2038043 0.04357446 0.29694542 0.47632477 0.22202432 1.8315746 0.728095 1.0918242
0.013682399 0.5864151 0.1032446 1.3789995 0.4625723 0.16172042 0.09289957 0.3922189
0.117848545 -0.047051627 1.0701448 0.14767785 0.3383714 0.34748366 0.3383355 0.9484
0.36982822 0.16042534 0.31479445 0.17860274 0.49881297 -0.005050185 0.30636263 0.75961626
0.30100247 0.21721688 0.27928975 1.4591295 0.39345515 0.36865628 -0.021428064 -0.04836147
0.18757068 0.0384236 0.08221928 0.1278192 0.3136685 0.23378362 0.24317753 0.27314878
1.0003871 1.7972405 0.110046424 0.04897743 0.30805233 0.98490715 0.21621212 1.9938798
1.592422 0.18434921 0.28788558 -0.037340656 1.8964075 0.82228583 0.02195367 1.817911
1.0514797 0.2897873 0.55606365 1.8195758 0.17128326 0.29430866 0.17788047 0.32771754
0.1385837 0.15795143 0.11025376 -0.038226277 0.09424673 0.18090998 0.2649236 0.37008378
1.6332643 0.76231027 0.7333882 0.21262562 0.16969322 0.013821487 0.049506016 0.32258463
00000000: f777 063e 2f42 9c3d d976 ee3d 3251 233f
00000010: f2a3 bd3d 3356 033f 6038 e1be 66d5 4f40
00000020: b6c1 f43d ef3b 373d a93b e73d 250b cb3e
00000030: 708c 44bf f8eb 47be 73a3 273c ba1f c5bd
00000040: 76ee 0dbd 83ff c8be 1ec3 2f3e dbe3 9ebc
00000050: ae9a 193e e961 19bf 64bd d7be 1f50 af3f
00000060: 8db6 893f bf35 2f40 c7b4 9d3d d371 643f
00000070: 12c9 4a3d 204d b6bf ab48 02be 7830 19bf
00000080: 88b2 5a3e 4eb3 253f 5370 95be 6abd c73d
00000090: ed14 c43f 0689 043f 5a47 75be f510 0a3f
000000a0: 59a0 9abe 4864 903f 507a 7bbf 81bd a93e
000000b0: e06b c0be 40a2 fabd 5e57 213f bab5 98bd
000000c0: 2515 97bf b70a c5bf 97f6 f0be dbf2 263f
000000d0: f76e 14bf 3ccf b0bf 5df1 adbe 6338 1cbf
000000e0: af53 dbbb d05c 8abb 38d0 513f 66ca 1ebf
000000f0: 0d00 343c a82c 063f a51e 393e a509 383f
00000100: 4b50 293f 610a 2a3f 9a5f 31be 0719 00c0
00000110: fa44 2ebd cca1 bf3c c20a 4ebf 1ebd 55be
00000120: 0f13 533f b0f6 9f3f b017 f1bf 8c3d f0bd
00000130: ea62 1fbe b346 0dbc c2f1 0440 da31 04c0
00000140: 5f1b d63c 671f 1ac0 9041 a23f 2778 c83e
00000150: 0174 b03f 614f cd3f 70c8 663c d50e 813f
00000160: c433 a43e 7140 323f b2b5 703f a8d0 03bf
00000170: 703f 0e3f 1342 4f3d bbee 253f 796a 1c3e
00000180: d564 bb3e 36c5 7cbf 9722 8abf c2e3 28bc
00000190: d0d7 893f e821 403f c642 e13e a936 e83c
000001a0: a3cb e4bb 2d10 d3be 7973 893e e2fe 27bd
000001b0: 9b3f acbe bf2d 5d3e e3a3 d5be f18d 343e
000001c0: a022 8dbc 9157 753d b702 c73c 85b4 e7be
000001d0: e47b e83e 0401 a0be e27e 14bf 8a41 43bf
000001e0: 95ad 77bc a9d8 9bbf 3f37 883f 2895 723f
000001f0: d673 58bc 2170 a1be 065e b0bf 0ace de3e
00000200: 418f bbbe fc11 5ebd bbbb 853f d7f2 7e3c
00000210: d993 1abe 8daa 9e3e 0db8 bb3d b947 723e
00000220: c977 8cbb 6afb 2d3f b3f2 09bf 05d2 21bd
00000230: 9e1a df3e 2cca f03e 41ba 3a3f 63a3 233f
00000240: 406c 9ebf 2638 1a3e 021f fc3d 1d0b 3c3f
00000250: 161b 7c40 51b4 a73e 0508 9d3e 3e4b 2c3d
00000260: 3755 a03e 99c4 343e ebd7 483d e4f6 843f
00000270: 448d 7c3e e549 e73f 9b1c a73d 2a4a c83d
00000280: 9bc3 d3bc c957 443e 458c 333e d9c1 4d3e
00000290: 1063 39bc 06d5 603e 2970 793d e4fa 893e
000002a0: 13b2 503e 227b 323d 3b09 983e d7e0 f33e
000002b0: 585a 633e 0971 ea3f 6f64 3a3f e5c0 8b3f
000002c0: 242c 603c 4d1f 163f e871 d33d 0e83 b03f
000002d0: 47d6 ec3e 0a9a 253e 2142 be3d ead0 c83e
000002e0: 945a f13d 35b9 40bd 81fa 883f dd38 173e
000002f0: 043f ad3e 61e9 b13e 503a ad3e 58ca 723f
00000300: 205a bd3e 8a46 243e bd2c a13e a3e3 363e
00000310: 6a64 ff3e 067c a5bb 90db 9c3e 3676 423f
00000320: ff1c 9a3e 1a6e 5e3e 11ff 8e3e c1c4 ba3f
00000330: f472 c93e 84c0 bc3e e889 afbc ad16 46bd
00000340: 8712 403e 1162 1d3d 9562 a83d 09e3 023e
00000350: 2899 a03e f964 6f3e 8803 793e 28da 8b3e
00000360: af0c 803f fa0b e63f 0560 e13d 8f9c 483d
00000370: 09b9 9d3e e022 7c3f b666 5d3e 7437 ff3f
00000380: 7cd4 cb3f 0ac6 3c3e bd65 933e 84f2 18bd
00000390: 7bbd f23f 5381 523f 2fd8 b33c 4fb1 e83f
000003a0: e396 863f 005f 943e 305a 0e3f dce7 e83f
000003b0: e164 2f3e a0af 963e 4c26 363e 98ca a73e
000003c0: e3e8 0d3e 05be 213e b9cc e13d 2893 1cbd
000003d0: 6e04 c13d 7740 393e 11a4 873e 9f7b bd3e
000003e0: ce0e d13f c426 433f 54bf 3b3f 88ba 593e
000003f0: 0fc4 2d3e 8573 623c d2c6 4a3d d029 a53e
