6_DeepAutoencoders/PAN_autoencoder_first_tries/vae_model.pt (torch_old, 808997 bytes, 14 tensors)

fc1.weight f4 [200, 239]
0.021163302 -0.055536833 0.008953337 -0.02399081 -0.05851656 -0.07523227 0.049359772 -0.07905255
-0.007986472 -0.0154025415 -0.013245326 0.019346325 -0.022242196 -0.007986062 0.08486467 0.026028883
-0.06009821 -0.0056514894 0.011436879 -0.06633126 -0.06064164 0.0114658205 -0.07575185 -0.06508682
0.036258716 -0.05370493 0.03790876 -0.073133625 0.007436307 0.0030066571 0.00058499904 0.014758806
0.026159814 -0.08995519 -0.08293905 -0.021814281 -0.0015809516 -0.04658298 -0.07495632 -0.06927235
-0.055992078 -0.0648707 -0.035020843 -0.08462601 -0.020349454 -0.00933773 -0.05175109 -0.066954345
-0.010523657 -0.02083877 -0.010815161 0.0151876705 -0.007082779 -0.048574764 0.0057482775 -0.07513988
-0.0010486395 0.016257968 0.0036333033 -0.08052205 -0.042437807 0.046598338 -0.00601958 -0.025019517
-0.08553902 -0.031606223 -0.023788989 -0.018666932 0.036347367 -0.030503822 -0.016144691 -0.0033456343
-0.020565763 0.01901338 0.016075902 -0.005503564 -0.010165829 -0.043836653 -0.006106311 -0.06351035
-0.08056928 0.017007787 0.030960733 -0.012178645 -0.089295335 -0.05989138 -0.07743503 -0.0201497
-0.013030902 0.019359007 0.015695943 -0.0010910785 0.00618857 -0.0907516 -0.030425211 -0.054582603
0.03131665 -0.072883934 0.0117707625 -0.07147103 -0.063858606 0.03575622 0.02410925 0.027637137
-0.004004056 -0.043881573 -0.07838041 0.016366005 -0.024987474 -0.049139313 -0.0089094285 -0.0630393
-0.035513617 0.03580538 -0.034306236 -0.020168073 0.03593504 -0.004243041 -0.030678354 -0.02657915
-0.03987311 -0.00027098198 0.033616304 -0.033210624 -0.04139766 0.0062495708 -0.060692135 -0.05390839
0.07531463 0.0869597 -0.009577881 0.0012882763 -0.039742216 0.037324492 0.0038213145 -0.0032732026
-0.019765498 0.032057434 0.0022704427 0.021606607 0.0024966893 0.07022531 0.00093744165 0.019656586
-0.08676838 -0.0006671432 -0.009369872 0.018253472 8.019815e-05 -0.007853267 -0.04000909 -0.08805836
-0.080861166 -0.08225048 0.08600299 0.014505522 0.0020454256 -0.042476736 0.027135426 -0.080113284
-0.060632702 -0.06433424 0.078004085 -0.003478548 -0.052971084 0.032936234 -0.04396982 -0.06993374
0.010374318 0.057923835 -0.08448283 0.032772627 -0.053484555 0.010182191 -0.05904182 -0.01971474
0.0057170433 0.034278587 -0.014497976 0.031111827 0.02707043 -0.059781272 0.02809152 -0.036861613
-0.034792863 0.0016263843 0.029229507 0.020286238 0.0018841014 -0.043609574 0.064238206 0.0269812
-0.035960983 -0.0499153 -0.07374264 0.029664649 -0.05168525 -0.05261886 0.01821576 0.03610313
0.058732815 -0.05803739 -0.040103085 0.019750772 -0.0049262666 -0.085155755 0.036128815 -0.02094624
0.018539747 -0.057075735 -0.079353064 -0.08072324 -0.0108961845 0.017002542 0.0006145172 0.010336816
0.08167714 -0.02482823 0.009392866 -0.024266731 0.01646706 0.020142814 0.014384679 -0.06158068
-0.0658405 -0.03527675 -0.029073747 -0.04603633 0.022545112 -0.005903834 -0.018224983 -0.07333939
-0.024068857 -0.055382837 -0.023622634 -0.031919867 -0.033682045 -0.0075661074 0.031463426 -0.046228994
0.038122363 0.019536817 0.0477331 -0.053864744 0.0022881534 0.050093066 0.03246777 0.034276247
0.026247112 -0.06398102 0.04509665 -0.026462633 -0.073474646 -0.0051604914 -0.00895897 -0.060538206
00000000: a95e ad3c 977a 63bd 04b1 123c 6088 c4bc
00000010: 0faf 6fbd 6013 9abd 792d 4a3d 4ee6 a1bd
00000020: b1d9 02bc f15a 7cbc ec02 59bc 2f7c 9e3c
00000030: 4435 b6bc f9d7 02bc 87cd ad3d 863a d53c
00000040: 8a29 76bd 2130 b9bb bf61 3b3c afd8 87bd
00000050: 5e63 78bd 23db 3b3c c923 9bbd 3d4c 85bd
00000060: 0584 143d b3f9 5bbd 3746 1b3d 15c7 95bd
00000070: 44ac f33b 560b 453b 9f5a 193a ebce 713c
00000080: 1b4d d63c 6d3a b8bd f3db a9bd ddb3 b2bc
00000090: ef37 cfba cbcd 3ebd b382 99bd a9de 8dbd
000000a0: f357 65bd eeda 84bd 0472 0fbd 6750 adbd
000000b0: e6b3 a6bc 47fd 18bc f3f8 53bd 5c1f 89bd
000000c0: 6b6b 2cbc 11b6 aabc 1332 31bc b5d5 783c
000000d0: a816 e8bb 55f6 46bd 0c5c bc3b f0e2 99bd
000000e0: 8172 89ba 6e2f 853c b71c 6e3b bfe8 a4bd
000000f0: 44d3 2dbd e6dd 3e3d e63f c5bb bbf5 ccbc
00000100: 152f afbd 8775 01bd 20e1 c2bc 65eb 98bc
00000110: fae0 143d 27e3 f9bc df41 84bc 6e42 5bbb
00000120: 8879 a8bc f3c1 9b3c 9cb1 833c 3e57 b4bb
00000130: 948e 26bc 108e 33bd 7317 c8bb b711 82bd
00000140: 8201 a5bd ea53 8b3c 5da1 fd3c f088 47bc
00000150: 79e0 b6bd aa50 75bd 4296 9ebd fc10 a5bc
00000160: 907f 55bc c896 9e3c c794 803c 8502 8fba
00000170: 7dc9 ca3b fadb b9bd 4b3e f9bc 0292 5fbd
00000180: e345 003d 2c44 95bd 28da 403c 675f 92bd
00000190: 4dc8 82bd 1d75 123d c380 c53c 4767 e23c
000001a0: 7534 83bb 2abd 33bd e985 a0bd 0012 863c
000001b0: 88b2 ccbc 4e46 49bd daf8 11bc c01a 81bd
000001c0: ba76 11bd aaa8 123d b284 0cbd 8437 a5bc
000001d0: 9f30 133d 3509 8bbb 2c51 fbbc 85bc d9bc
000001e0: fc51 23bd 9612 8eb9 40b1 093d dd07 08bd
000001f0: 9890 29bd 33c9 cc3b 5198 78bd 0bcf 5cbd
00000200: 8f3e 9a3d ed17 b23d 8bec 1cbc 61db a83a
00000210: bcc8 22bd 91e1 183d 056f 7a3b 3a83 56bb
00000220: 41eb a1bc a84e 033d b5cb 143b 5700 b13c
00000230: 7f9f 233b 4ad2 8f3d a5be 753a d906 a13c
00000240: 9fb3 b1bd 39e3 2eba 1784 19bc 4e88 953c
00000250: 0e30 a838 fdaa 00bc 92e0 23bd f157 b4bd
00000260: 8a9a a5bd f172 a8bd 5622 b03d 92a8 6d3c
00000270: 8c0c 063b 16fc 2dbd 1d4b de3c 6f12 a4bd
00000280: ff59 78bd acc1 83bd 9bc0 9f3d 5af8 63bb
00000290: 35f8 58bd 25e8 063d b319 34bd 6c39 8fbd
000002a0: 0bf9 293c 8b41 6d3d 5505 adbd 973c 063d
000002b0: 9f12 5bbd 34d3 263c d6d5 71bd ce80 a1bc
000002c0: 0956 bb3b b467 0c3d eb88 6dbc 3bde fe3c
000002d0: cec2 dd3c 35dd 74bd 3020 e63c 34fc 16bd
000002e0: f682 0ebd 672c d53a b872 ef3c 532f a63c
000002f0: f4f3 f63a f49f 32bd 528f 833d ad07 dd3c
00000300: d34b 13bd fc73 4cbd 6206 97bd 4703 f33c
00000310: eab3 53bd e086 57bd 3839 953c e0e0 133d
00000320: d291 703d 9db8 6dbd 2243 24bd 5fcc a13c
00000330: 856c a1bb 2466 aebd cffb 133d 7397 abbc
00000340: abe0 973c 3fc8 69bd dc83 a2bd 3a52 a5bd
00000350: e985 32bc ea48 8b3c 8d17 213a c05b 293c
00000360: 5846 a73d 9264 cbbc 89e4 193c 06cb c6bc
00000370: eee5 863c 8b02 a53c b7ad 6b3c 063c 7cbd
00000380: 62d7 86bd 5a7e 10bd 112c eebc 9790 3cbd
00000390: 87b0 b83c f374 c1bb 8f4c 95bc f632 96bd
000003a0: 0d2c c5bc 1dd9 62bd 4184 c1bc 68be 02bd
000003b0: 2ff6 09bd 1ced f7bb cbdf 003d 9d5a 3dbd
000003c0: 3226 1c3d ad0b a03c c883 433d 47a1 5cbd
000003d0: d8f4 153b 632e 4d3d edfc 043d 4065 0c3d
000003e0: 2f04 d73c 7b08 83bd 44b7 383d 2ac8 d8bc
000003f0: e079 96bd 5719 a9bb a5c8 12bc e9f6 77bd

fc1.bias f4 [200]
-0.025247825 0.019453628 -0.063667305 -0.007271743 -0.014687657 -0.004894756 -0.001769098 0.004625164
-0.042869475 0.033713892 -0.007639341 0.013273445 -0.011818303 -0.0544339 0.022798471 -0.053197835
0.021418303 -0.032211352 -0.01446175 0.036167122 0.01533583 -0.05836836 -0.07115942 0.03384003
-0.08120533 -0.060715135 0.013434334 0.02699615 0.03611822 0.005008918 -0.016352812 -0.08461103
0.041856375 -0.10327249 -0.06813168 -0.06254823 -0.05601904 -0.053972457 0.027615763 0.0299602
-0.019324627 -0.049958296 -0.062899046 -0.009238846 -0.05122752 -0.024178676 -0.03844154 -0.0016035332
-0.04809952 -0.07493532 -0.033809163 -0.02106557 -0.06571 -0.074037164 -0.059852663 0.04413168
0.02904584 -0.0045304117 0.052437983 -0.06837468 -0.0017854205 0.037123688 -0.057848442 0.013354626
-0.021161735 -0.008320585 -0.05261748 -0.039137524 -0.0359615 -0.045357585 0.061116703 -0.073461324
0.014425624 0.014027933 0.01417336 0.009345613 -0.006729489 0.028511526 0.031742353 0.019472059
-0.076422505 -0.056229323 0.017166756 -0.044735722 0.047742143 0.021557832 0.02484827 -6.3590705e-05
-0.050968364 -0.047335982 0.047398165 -0.06614441 -0.01608197 -0.02498187 0.046456352 -0.039766237
-0.0063810847 -0.048989765 -0.02153986 -0.08776669 0.012183952 0.034350105 0.024628477 -0.007747113
0.008889084 -0.07362414 0.033662952 -0.005051318 -0.041313242 0.0025396561 0.050320975 -0.006124595
0.02449989 0.037000805 -0.052190587 0.045578584 -0.058092937 -0.03492035 -0.041800126 -0.021003133
-0.044638764 -0.083584286 -0.052672543 -0.051550973 0.047246575 0.028297719 -0.018766155 0.031595677
0.0017715736 -0.08313703 0.014723655 0.0057419883 -0.06778753 -0.025961649 -0.065580025 -0.029492304
-0.0038493464 -0.045056283 0.040754434 -0.0751785 0.008025929 -0.05150294 -0.024636649 0.016412878
0.008538025 0.050423555 0.03454547 -0.06937361 0.05632218 -0.0071861823 -0.045405306 0.025890231
-0.041304484 0.01709007 -0.05207659 0.00017786304 0.014129102 -0.07239797 -0.068927385 -0.015443284
-0.07768807 -0.04760682 -0.026682844 -0.013550476 0.012475559 0.03222763 0.024858534 -0.06705631
0.033545397 -0.049696673 -0.057605013 -0.06554875 -0.019048993 0.021700468 -0.058554213 -0.06180217
-0.0667504 -0.05844467 -0.047544807 0.012851748 0.006055336 0.036268763 -0.010727193 0.063503824
-0.0125684375 -0.054990575 -0.018718217 0.0064979284 -0.07400472 -0.011712428 -0.042619653 -0.014288874
-0.065218315 0.018166061 0.050282218 -0.015576919 0.04275667 0.0057797194 -0.029120097 0.0028210685
00000000: 87d4 cebc 375d 9f3c 0164 82bd cd47 eebb
00000010: 80a4 70bc 3064 a0bb 14e1 e7ba b08e 973b
00000020: e797 2fbd 9417 0a3d 7053 fabb dd78 593c
00000030: 8ea1 41bc 15f6 5ebd dcc3 ba3c f9e5 59bd
00000040: 7075 af3c 0df0 03bd faf0 6cbc fa23 143d
00000050: 2243 7b3c a913 6fbd 08bc 91bd d89b 0a3d
00000060: fb4e a6bd 6fb0 78bd ae1b 5c3c 0827 dd3c
00000070: b3f0 133d d921 a43b 55f6 85bc 8c48 adbd
00000080: 9771 2b3d 8780 d3bd 9f88 8bbd 4919 80bd
00000090: 3974 65bd 3912 5dbd 743a e23c 186f f53c
000000a0: ae4e 9ebc 12a1 4cbd 37d1 80bd 875e 17bc
000000b0: f3d3 51bd 5c12 c6bc e074 1dbd a52d d2ba
000000c0: 0104 45bd b077 99bd 7a7b 0abd b491 acbc
000000d0: f792 86bd cca0 97bd 1128 75bd 6cc3 343d
000000e0: 8bf1 ed3c d973 94bb 36c9 563d 0608 8cbd
000000f0: c504 eaba 020f 183d 7df2 6cbd 5ccd 5a3c
00000100: 605b adbc 1053 08bc 6d85 57bd ab4e 20bd
00000110: 5e4c 13bd e0c8 39bd 8255 7a3d e472 96bd
00000120: 7459 6c3c 6ad5 653c 6137 683c 581e 193c
00000130: 0c83 dcbb 0191 e93c 4504 023d de83 9f3c
00000140: 6783 9cbd b850 66bd 4ca1 8c3c ce3c 37bd
00000150: 448d 433d 0d9a b03c 998e cb3c 005c 85b8
00000160: 34c4 50bd 60e3 41bd 9424 423d b876 87bd
00000170: 56be 83bc c7a6 ccbc 0449 3e3d ece1 22bd
00000180: 6b18 d1bb 7ea9 48bd 5c74 b0bc 06bf b3bd
00000190: 339f 473c b2b2 0c3d a9c1 c93c 7edb fdbb
000001a0: 85a3 113c 41c8 96bd 2ae2 093d 8785 a5bb
000001b0: 1338 29bd 5c70 263b 5e1d 4e3d d4b0 c8bb
000001c0: feb3 c83c 288e 173d ccc5 55bd 9cb0 3a3d
000001d0: dcf2 6dbd a408 0fbd 9c36 2bbd c30e acbc
000001e0: 23d7 36bd 3d2e abbd 2abf 57bd 1d27 53bd
000001f0: a085 413d 9ed0 e73c 7bbb 99bc 786a 013d
00000200: 2534 e83a bf43 aabd 7c3b 713c 4a27 bc3b
00000210: 30d4 8abd 86ad d4bc d24e 86bd d899 f1bc
00000220: 5145 7cbb f08c 38bd 1fee 263d 2ff7 99bd
00000230: 307f 033c bff4 52bd ccd2 c9bc 4d74 863c
00000240: 13e3 0b3c ee88 4e3d 8d7f 0d3d c013 8ebd
00000250: 16b2 663d 117a ebbb eafa 39bd c017 d43c
00000260: e42e 29bd 7900 8c3c 434e 55bd bf80 3a39
00000270: c07d 673c 6345 94bd cd29 8dbd d405 7dbc
00000280: ec1a 9fbd 5eff 42bd fb95 dabc d102 5ebc
00000290: 4966 4c3c 1f01 043d 20a4 cb3c d254 89bd
000002a0: e666 093d bd8e 4bbd 3cf3 6bbd 6c3e 86bd
000002b0: a20c 9cbc 2ec5 b13c 8bd6 6fbd 4624 7dbd
000002c0: 6fb4 88bd ae63 6fbd 58be 42bd 2390 523c
000002d0: d76b c63b 8e8e 143d 1cc1 2fbc 4b0e 823d
000002e0: d9eb 4dbc cc3d 61bd f256 99bc 93ec d43b
000002f0: c98f 97bd 7ce5 3fbc f291 2ebd e21b 6abc
00000300: 2e91 85bd fed0 943c baf4 4d3d 5536 7fbc
00000310: 9e21 2f3d cd63 bd3b 458d eebc ade1 383b

fc2.weight f4 [150, 200]
-0.04512306 -0.05443456 -0.06749568 -0.009375498 -0.045551084 -0.018191861 0.000597028 -0.013224687
0.026477337 0.07644702 -0.06537398 0.020192131 0.008526342 0.04977402 0.056813844 0.040144943
0.027067736 0.04248833 -0.044669483 0.012616612 -0.06859282 -0.046829477 -0.048965972 -0.004113145
-0.02165522 -0.03737572 0.034361303 -0.029007254 0.033784043 0.018916478 0.036906257 -0.039847247
-0.036991004 0.029293954 0.019507997 0.0015923902 -0.06681516 -0.060671892 -0.030404134 -0.009459586
0.022409908 0.051700406 -0.074370794 0.03436591 -0.0050060092 0.040528163 0.01139278 -0.058539256
-0.021107659 0.0018997714 -0.069493555 -0.030588374 -0.05867978 0.0063502444 0.011510849 0.012053085
-0.012046635 0.03663914 -0.026301507 -0.067901656 -0.066376776 -0.044048715 0.008145116 -0.027835364
0.05084692 0.035530582 0.006972518 0.027687367 0.0011081323 0.030733489 0.06998824 0.016524164
-0.024578521 0.04543857 0.04960064 -0.051799938 -0.04586644 0.039463576 -0.052151665 -0.07158959
-0.037439626 0.037419464 0.0037097633 -0.02870806 -0.09244078 0.03660513 0.05181677 -0.014044274
-0.058363784 -0.026848942 -0.06509585 0.0050995555 -0.03689337 -0.0005170275 -0.07067782 -0.060296692
-0.06648293 -0.020834688 0.022912621 -0.07119654 -0.04176005 -0.03439078 -0.013547147 0.04351715
-0.01651558 0.01300066 -0.062030714 -0.03765732 0.035119597 0.06497323 0.022741409 -0.06334719
0.027920956 -0.0461433 -0.020354746 0.054267198 0.052832536 -0.031326756 -0.06528222 -0.085763946
0.035541162 -0.002363693 -0.017227672 0.047934882 -0.068135604 0.0016345537 -0.024347104 -0.027726796
-0.04395018 -0.008008553 -0.059494495 -0.0025086426 -0.024917176 0.012288652 -0.0043942104 0.067680866
-0.022216316 0.026325136 0.0154485265 -0.08626831 -0.056571182 -0.0484743 0.057524495 -0.051840913
0.037851244 0.024411507 -0.048219007 -0.08112729 0.014141709 -0.024377963 0.049801625 0.008113508
-0.04879214 0.043448303 0.048544735 0.07501762 0.0126347765 -0.0132473 0.0361484 -0.029929094
-0.076270714 0.05460725 0.01660641 -0.0038223462 -0.029645467 -0.019472506 0.005474651 -0.023317434
-0.016490746 0.06302611 -0.05303981 0.046418674 0.019045992 -0.050651014 0.033869218 0.008465625
-0.0057523767 0.0548857 -0.014362411 -0.06561585 -0.07411181 -0.011869103 0.054748863 -0.029406667
-0.045371667 -0.04924462 -0.06789336 0.018386723 0.001113765 -0.018290479 0.029275447 -0.028707849
-0.008374946 -0.058775187 0.040850714 -0.06267556 -0.024770016 -0.0025882737 0.00089734775 -0.05160228
-0.015798638 -0.044807002 -0.041384846 -0.009175339 0.0705631 0.014022739 -0.0015144089 0.02190868
0.068135746 -0.08435168 -0.033394482 -0.020219658 -0.04942354 -0.0197635 -0.025294568 -0.0551238
0.060760118 0.049449652 -0.052703712 -0.028421998 0.033269983 0.009070143 0.015264923 -0.06224288
-0.004621759 0.047837064 0.022201039 0.0074689197 -0.011930925 -0.07899374 0.000961937 -0.061467603
0.036090482 -0.052405097 -0.07107312 0.014325477 0.04206746 -0.054045208 0.006341912 -0.043282613
0.006606072 0.07056639 -0.059968967 -0.030089784 -0.003668485 0.0075590312 0.01792512 0.04411874
-0.04710956 -0.0008581206 0.025511263 0.028530322 -0.017529592 -0.07068349 -0.009812985 -0.06817896
00000000: f5d2 38bd c6f6 5ebd 2d3b 8abd b09b 19bc
00000010: c693 3abd 1907 95bc df81 1c3a 5cac 58bc
00000020: 00e7 d83c 4190 9c3d cbe2 85bd f869 a53c
00000030: 12b2 0b3c d8df 4b3d a2b5 683d 066f 243d
00000040: 28bd dd3c 3e08 2e3d 59f7 36bd e8b5 4e3c
00000050: 647a 8cbd 44d0 3fbd 8b90 48bd 90c7 86bb
00000060: 4a66 b1bc 4817 19bd 70be 0c3d 9fa0 edbc
00000070: 2361 0a3d bbf6 9a3c 042b 173d de36 23bd
00000080: e183 17bd e0f9 ef3c 3ccf 9f3c c0b7 d03a
00000090: 63d6 88bd 1783 78bd 1712 f9bc 61fc 1abc
000000a0: fc94 b73c cec3 533d b74f 98bd 45c3 0c3d
000000b0: 7309 a4bb dc00 263d c8a8 3a3c dcc6 6fbd
000000c0: f8e9 acbc c001 f93a a352 8ebd 7894 fabc
000000d0: 365a 70bd b615 d03b 0098 3c3c 4d7a 453c
000000e0: 405f 45bc ec12 163d 4276 d7bc 0610 8bbd
000000f0: 8cf0 87bd 6d6c 34bd 1873 053c fd06 e4bc
00000100: dc44 503d 8488 113d b879 e43b 9ed0 e23c
00000110: c03e 913a ccc4 fb3c ff55 8f3d af5d 873c
00000120: e558 c9bc cb1d 3a3d 0a2a 4b3d 2c2c 54bd
00000130: 73de 3bbd 8fa4 213d fc9c 55bd 909d 92bd
00000140: 4b5a 19bd 2745 193d 801f 733b 2a2d ebbc
00000150: 9751 bdbd 43ef 153d d23d 543d f419 66bc
00000160: dd0e 6fbd 50f2 dbbc f950 85bd 2c1a a73b
00000170: 811d 17bd 2189 07ba 88bf 90bd aaf9 76bd
00000180: 3428 88bd 82ad aabc 40b3 bb3c 7ecf 91bd
00000190: 960c 2bbd 59dd 0cbd daf4 5dbc 0a3f 323d
000001a0: ae4b 87bc b800 553c eb13 7ebd 903e 1abd
000001b0: 91d9 0f3d af10 853d 314c ba3c 2cbc 81bd
000001c0: 7dba e43c c200 3dbd ffbe a6bc 4847 5e3d
000001d0: ee66 583d 7c50 00bd afb2 85bd 02a5 afbd
000001e0: 9c93 113d 30e8 1abb 0c21 8dbc 5e57 443d
000001f0: ae8a 8bbd 853e d63a 9473 c7bc 4e23 e3bc
00000200: 1b05 34bd 4e36 03bc 80b0 73bd 0a68 24bb
00000210: 1b1f ccbc 5856 493c 4ffd 8fbb 449c 8a3d
00000220: fefe b5bc d0a7 d73c d11b 7d3c 71ad b0bd
00000230: 2fb7 67bd fd8c 46bd ce9e 6b3d 2357 54bd
00000240: e809 1b3d a4fa c73c 4b81 45bd 1126 a6bd
00000250: a0b2 673c 4bb4 c7bc cafc 4b3d 85ee 043c
00000260: 44da 47bd d9f6 313d d8d6 463d d7a2 993d
00000270: 1802 4f3c 340b 59bc 5810 143d dc2d f5bc
00000280: d233 9cbd daab 5f3d 2a0a 883c 5480 7abb
00000290: 0ddb f2bc ce84 9fbc b464 b33b 3404 bfbc
000002a0: 9a17 87bc d513 813d 4640 59bd 8221 3e3d
000002b0: 5706 9c3c 7077 4fbd 73ba 0a3d 68b3 0a3c
000002c0: 6f7e bcbb d4cf 603d 5150 6bbc 9a61 86bd
000002d0: efc7 97bd a076 42bc 5840 603d 40e6 f0bc
000002e0: a4d7 39bd bab4 49bd ad0b 8bbd c19f 963c
000002f0: c1fb 913a ead5 95bc 10d3 ef3c b92c ebbc
00000300: 1237 09bc 40be 70bd 1453 273d 0b5c 80bd
00000310: 7dea cabc 07a0 29bb fd3b 6b3a ea5c 53bd
00000320: 256c 81bc 8c87 37bd 2883 29bd 2954 16bc
00000330: 6383 903d a1bf 653c 217f c6ba d579 b33c
00000340: c18a 8b3d 93c0 acbd a7c8 08bd b2a3 a5bc
00000350: 5670 4abd 10e7 a1bc 8e36 cfbc 7ec9 61bd
00000360: 9adf 783d b88b 4a3d d9df 57bd 40d5 e8bc
00000370: 1b46 083d f09a 143c ba19 7a3c 64f2 7ebd
00000380: 2072 97bb ccf0 433d f4de b53c d7bd f43b
00000390: ed79 43bc 78c7 a1bd 802a 7c3a 74c5 7bbd
000003a0: 9dd3 133d baa6 56bd c98e 91bd 68b5 6a3c
000003b0: ee4e 2c3d 825e 5dbd d0cf cf3b 1c49 31bd
000003c0: c077 d83b 1d85 903d 05a2 75bd da7e f6bc
000003d0: f76a 70bb c0b1 f73b b4d7 923c dab5 343d
000003e0: f4f5 40bd 80f3 60ba fffc d03c 6cb8 e93c
000003f0: 389a 8fbc 81c2 90bd a4c6 20bc 69a1 8bbd

fc2.bias f4 [150]
-0.0032591738 -0.0453643 -0.023595167 -0.021531934 -0.0046902723 -0.017877782 -0.0033522793 -0.11179727
-0.031433906 -0.0779122 -0.06340728 -0.06677055 -0.0080684 -0.027652837 -0.0043541375 -0.012000024
-0.0696167 -0.09061905 -0.052340187 -0.011459481 -0.0053322436 -0.081474006 -0.008799692 -0.0043035634
-0.03163929 -0.0237421 -0.009616885 -0.030416708 -0.033659607 -0.0031409364 -0.05114597 -0.001528817
-0.07448979 -0.0072080027 -0.03354239 -0.05961724 -0.027057953 -0.03468693 -0.0911529 -0.06818458
-0.02129864 -0.1200833 -0.07239268 -0.05288585 -0.003458508 -0.06493671 -0.00972196 -0.006000465
-0.04120942 -0.022081343 -0.003140333 -0.028561564 -0.041869592 -0.01583225 -0.0034800475 -0.0022321772
-0.07427836 -0.090157874 -0.094079435 -0.0044299695 -0.07841264 -0.034272265 -0.034025785 -0.0037951588
-0.017764628 -0.016731665 -0.0027503099 -0.010653611 -0.017156685 -0.015873542 -0.0579418 -0.044397306
-0.06149661 -0.0009413079 -0.060290698 -0.011316391 -0.0031099052 -0.074177645 -0.06932794 -0.016299026
-0.030418888 -0.0026558435 -0.0111220535 -0.08894964 -0.11829704 -0.0750964 -0.09692611 -0.0077536595
-0.0156097775 -0.022026341 -0.04452734 -0.034954533 -0.009623093 -0.04763673 -0.011874567 -0.04512451
-0.020680072 -0.055315416 -0.07851104 -0.068265475 -0.006537253 -0.06128747 -0.031158565 -0.039388295
-0.07744076 -0.017163483 -0.033927903 -0.06844874 -0.01598047 -0.005262982 -0.008676752 -0.069755055
-0.0069128973 -0.0011404655 -0.029052226 -0.039553884 -0.0012785106 -0.008681161 -0.0110487705 -0.111499146
-0.046442978 -0.06904524 -0.036943562 -0.07927642 -0.07382085 -0.06435928 -0.007539022 -0.028659852
-0.05424946 -0.01811392 -0.0048299176 -0.056555107 -0.07074451 -0.042715047 -0.07205251 -0.008860144
-0.03215712 -0.06461393 -0.008072627 -0.05601351 -0.044233676 -0.057925142 -0.07459329 -0.072817765
-0.06985973 -0.0009674921 -0.07495014 -0.07037106 -0.07164499 -0.111038364
00000000: dd97 55bb ebcf 39bd a74a c1bc bd63 b0bc
00000010: dbb0 99bb 6d74 92bc eab1 5bbb f8f5 e4bd
00000020: d7c0 00bd 6e90 9fbd addb 81bd 00bf 88bd
00000030: 5331 04bc 3488 e2bc 27ad 8ebb c09b 44bc
00000040: 3393 8ebd 7b96 b9bd aa62 56bd 8cc0 3bbc
00000050: 1aba aebb d8db a6bd 952c 10bc e804 8dbb
00000060: 3398 01bd cb7e c2bc 2490 1dbc 762c f9bc
00000070: a8de 09bd 2bd8 4dbb 707e 51bd 9662 c8ba
00000080: 1a8e 98bd 1c31 ecbb bf63 09bd 3531 74bd
00000090: a4a8 ddbc e213 0ebd 5fae babd 5ba4 8bbd
000000a0: 7c7a aebc 3cee f5bd 9d42 94bd d59e 58bd
000000b0: 23a8 62bb 8afd 84bd db48 1fbc 8c9f c4bb
000000c0: 35cb 28bd efe3 b4bc 0cce 4dbb f1f9 e9bc
000000d0: 737f 2bbd a2b2 81bc 8211 64bb b849 12bb
000000e0: 411f 98bd b1a4 b8bd b8ac c0bd 4729 91bb
000000f0: ce96 a0bd 1361 0cbd 9f5e 0bbd 33b8 78bb
00000100: 2087 91bc d810 89bc 8b3e 34bb 7c8c 2ebc
00000110: 2d8c 8cbc 3b09 82bc 6254 6dbd f3d9 35bd
00000120: dfe3 7bbd 1bc2 76ba 61f3 76bd 6268 39bc
00000130: 8dcf 4bbb 73ea 97bd cffb 8dbd 8985 85bc
00000140: 0831 f9bc a90d 2ebb 4639 36bc 3b2b b6bd
00000150: b845 f2bd 24cc 99bd 3281 c6bd 6912 febb
00000160: 27c0 7fbc 9670 b4bc 4d62 36bd 7c2c 0fbd
00000170: 2daa 1dbc bb1e 43bd 8b8d 42bc 7ad4 38bd
00000180: 4169 a9bc 6b92 62bd 65ca a0bd c5ce 8bbd
00000190: 7436 d6bb 9208 7bbd 3f40 ffbc 9f55 21bd
000001a0: 4399 9ebd 6f9a 8cbc fcf7 0abd da2e 8cbd
000001b0: 7ae9 82bc 1875 acbb f028 0ebc bddb 8ebd
000001c0: 9685 e2bb ac7b 95ba effe edbc 4103 22bd
000001d0: b293 a7ba 6e3b 0ebc e705 35bc aa59 e4bd
000001e0: fe3a 3ebd 9767 8dbd 2252 17bd ad5b a2bd
000001f0: 632f 97bd ccce 83bd e609 f7bb 11c8 eabc
00000200: af34 5ebd a563 94bc 4944 9ebb 54a6 67bd
00000210: 7fe2 90bd f9f5 2ebd 4490 93bd 232a 11bc
00000220: 2fb7 03bd 4f54 84bd 0d43 04bc 6c6e 65bd
00000230: 5f2e 35bd ea42 6dbd 5ec4 98bd 7b21 95bd
00000240: 9e12 8fbd 4c9f 7dba 767f 99bd b41e 90bd
00000250: 9cba 92bd 1568 e3bd

fc31.weight f4 [100, 150]
0.0024653275 -0.03118337 0.013554824 -0.036251727 0.034984298 -0.038307644 -0.034854554 0.071700566
-0.011673165 0.04272608 -0.0032120373 0.0355662 -0.032375593 0.027265843 0.06502467 -0.037803076
0.02784549 -0.043901417 0.050970066 -0.01535301 0.07799212 -0.049801026 -0.05552062 -0.049414773
0.10488884 0.11996048 -0.035813276 0.047885045 -0.037122987 0.012042153 0.03618084 -0.01226501
0.041510697 0.06511116 -0.01898141 -0.043473493 0.09543551 0.10383599 0.056665167 0.08699095
0.07398554 -0.054533154 -0.034020733 -0.07457684 0.0675465 0.06866643 -0.03700552 0.091444574
-0.044762157 0.0437497 -0.004679633 -0.07729118 -0.035322003 0.09866644 0.09108772 0.056552734
0.097584546 -0.007596097 -0.025832705 0.035688713 -0.016360668 0.0594581 -0.005905619 0.034459785
0.010954033 4.4469987e-05 -0.07604364 -0.0527313 -0.034511175 -0.070777535 0.064399816 0.061722383
-0.035598155 0.02819559 0.07934148 -0.009458115 0.05141993 0.010232906 0.022083819 -0.022706004
0.02540638 0.061710946 0.02229369 0.013800005 0.01628088 0.066077195 -0.046810973 0.017748281
0.08045221 -0.033634186 0.049689196 -0.00823854 -0.0113410065 0.02291499 0.040004753 -0.037054226
0.069252506 0.062095437 -0.06559453 0.077487715 0.04936901 -0.018290555 0.018601524 0.056227025
-0.07525601 0.060478542 0.06447778 0.0469557 0.041961476 0.034022205 -0.0061395504 -0.045713004
0.058780544 -0.021008791 -0.08510044 0.06903467 0.081300765 -0.047488738 0.030381842 0.08266753
-0.088678144 0.023260267 0.027234782 0.026462004 0.08312905 0.005045633 0.067932904 0.0043861605
-0.0054958668 0.028663995 -0.016279932 0.027233101 -0.045983043 0.08345744 -0.0135897 0.085892424
0.061611094 -0.11310924 0.0745791 0.05127129 0.0050931135 0.05808313 0.06101185 -0.0047272244
0.053527594 -0.019094838 0.01910263 -0.08046679 -0.03341374 0.08047521 0.061108693 0.044762235
-0.043050863 -0.034154743 0.020877693 -0.08108172 0.09082162 -0.03273943 -0.07192623 0.017592926
0.10450916 -0.091889225 0.0022276663 0.060896922 -0.058367014 -0.012630829 0.0107859 0.098629154
0.012005031 0.07739844 0.06709458 -0.012257845 0.069342755 -0.06453587 0.013901833 -0.025705718
0.018410608 -0.023923106 -0.06315505 0.069280244 0.08482981 -0.007599311 0.06452329 0.0670681
0.011461845 -0.04591155 -0.057853576 0.00015509398 0.08469017 0.06654433 -0.027509952 0.0736469
-0.03955184 -0.022234857 -0.055294253 -0.015727244 0.034496494 0.0033521329 0.079388395 -0.022764722
0.015678613 -0.02116944 0.044652898 -0.020310178 0.049932875 0.015092481 0.008130067 -0.028089417
0.08486092 0.016478412 0.09106367 -0.016156282 0.016205804 -0.054236725 -0.0007921122 -0.0069430848
-0.06574114 0.08111694 -0.07170749 -0.009160405 0.011833324 0.06392913 0.018410921 0.0678558
0.031772655 0.036791008 -0.021798763 -0.07642625 0.113498025 0.034523956 -0.0540379 0.072401896
0.02229556 -0.048920088 -0.039426412 0.07799974 0.01298156 0.04824701 -0.018798063 -0.027897883
-0.037641425 -0.037238583 -0.0546814 0.025950918 -0.00364534 -0.04903282 0.07868356 0.040689137
0.04820585 -0.02075432 0.04335018 -0.016546678 -0.057855476 -0.015025785 0.047017656 -0.034102317
00000000: 5591 213b 4474 ffbc 0d15 5e3c b17c 14bd
00000010: b24b 0f3d 7ae8 1cbd a6c3 0ebd bfd7 923d
00000020: cd40 3fbc 8b01 2f3d 0b81 52bb ddad 113d
00000030: 459c 04bd 9e5c df3c a72b 853d 66d7 1abd
00000040: 3a1c e43c f9d1 33bd fdc5 503d 318b 7bbc
00000050: 55ba 9f3d 29fc 4bbd 9769 63bd 2567 4abd
00000060: f6cf d63d d7ad f53d f1b0 12bd 1c23 443d
00000070: 460e 18bd 734c 453c 5c32 143d 2ef3 48bc
00000080: 1f07 2a3d 0059 853d e77e 9bbc 4311 32bd
00000090: b173 c33d f7a7 d43d bc19 683d 5028 b23d
000000a0: bb85 973d 285e 5fbd 5359 0bbd bebb 98bd
000000b0: d255 8a3d fca0 8c3d 1a93 17bd 4b47 bb3d
000000c0: 8658 37bd e332 333d 9b57 99bb d74a 9ebd
000000d0: cead 10bd a111 ca3d 338c ba3d d7a3 673d
000000e0: 68da c73d aee8 f8bb 1c9f d3bc 542e 123d
000000f0: cf06 86bc 568a 733d ec83 c1bb b425 0d3d
00000100: 8b78 333c 4985 3a38 c5bc 9bbd c7fc 57bd
00000110: 975b 0dbd d0f3 90bd 0de4 833d 9cd0 7c3d
00000120: 5fcf 11bd 70fa e63c c97d a23d 36f6 1abc
00000130: b49d 523d eba7 273c 20e9 b43c f101 babc
00000140: 0a21 d03c 9ec4 7c3d 42a1 b63c 6b19 623c
00000150: 7b5f 853c 7b53 873d ddbc 3fbd d864 913c
00000160: 21c4 a43d 00c4 09bd e686 4b3d f1fa 06bc
00000170: a1cf 39bc 38b8 bb3c 06dc 233d 2cc6 17bd
00000180: 42d4 8d3d c957 7e3d 6d56 86bd e1b1 9e3d
00000190: 2937 4a3d 13d6 95bc 3962 983c 4f4e 663d
000001a0: d31f 9abd 59b8 773d ed0c 843d 9f54 403d
000001b0: ccdf 2b3d de5a 0b3d 482e c9bb 8f3d 3bbd
000001c0: dec3 703d a11a acbc 2449 aebd 0d62 8d3d
000001d0: 0481 a63d 8d83 42bd 57e3 f83c 984d a93d
000001e0: e39c b5bd 518c be3c 7a1b df3c d8c6 d83c
000001f0: 903f aa3d d655 a53b 6820 8b3d c8b9 8f3b
00000200: ac16 b4bb c1d0 ea3c 7e5d 85bc f417 df3c
00000210: b758 3cbd bceb aa3d 55a7 5ebc 5ee8 af3d
00000220: ea5b 7c3d d1a5 e7bd edbc 983d d801 523d
00000230: 22e4 a63b 93e8 6d3d 90e7 793d d5e6 9abb
00000240: c03f 5b3d c76c 9cbc 1e7d 9c3c c6cb a4bd
00000250: d9dc 08bd 30d0 a43d 1c4d 7a3d 9b58 373d
00000260: 1a56 30bd d8e5 0bbd b207 ab3c 2c0e a6bd
00000270: af00 ba3d c819 06bd 0f4e 93bd 0a1f 903c
00000280: e608 d63d 6b30 bcbd 0afe 113b 0d6f 793d
00000290: 4012 6fbd 89f1 4ebc 58b7 303c 15fe c93d
000002a0: c0b0 443c 1383 9e3d e268 893d 21d5 48bc
000002b0: 9303 8e3d 622b 84bd 84c4 633c cc94 d2bc
000002c0: d8d1 963c 64fa c3bc 6f57 81bd cde2 8d3d
000002d0: 40bb ad3d a403 f9bb c924 843d 005b 893d
000002e0: 76ca 3b3c c00d 3cbd dff7 6cbd b9a0 2239
000002f0: 0a72 ad3d 6548 883d 8d5c e1bc 30d4 963d
00000300: 1c01 22bd e025 b6bc 3a7c 62bd 6cd6 80bc
00000310: 324c 0d3d 75af 5b3b 6296 a23d 157d babc
00000320: 6f70 803c 896b adbc f5e5 363d 8861 a6bc
00000330: 6a86 4c3d 7446 773c f933 053c c71b e6bc
00000340: 90cb ad3d bcfd 863c 977f ba3d 2e5a 84bc
00000350: 09c2 843c 5427 5ebd c0a5 4fba d182 e3bb
00000360: 4aa3 86bd a320 a63d 60db 92bd 8615 16bc
00000370: 8fe0 413c 47ed 823d 80d2 963c fbf7 8a3d
00000380: 0b24 023d 2bb2 163d 5293 b2bc 5e85 9cbd
00000390: a771 e83d fe68 0d3d d856 5dbd 7247 943d
000003a0: 2ea5 b63c 6e60 48bd 977d 21bd 54be 9f3d
000003b0: 9cb0 543c a89e 453d 65fe 99bc 1a8a e4bc
000003c0: e52d 1abd 7c87 18bd 9bf9 5fbd 0597 d43c
000003d0: a8e6 6ebb a3d6 48bd d924 a13d a7a9 263d
000003e0: 7f73 453d f704 aabc f58f 313d e68c 87bc
000003f0: ddf9 6cbd b62e 76bc 9695 403d dfae 0bbd

fc31.bias f4 [100]
-0.0004492701 -0.0008448578 5.673482e-05 -0.0005997692 -0.00030487272 0.00050138676 -0.0003108372 0.0010897444
0.00038330487 0.00018896235 -0.00035268188 -0.00020487835 9.836957e-05 -0.00047067233 0.00023206195 0.0006170724
0.00032949125 -0.0006923863 -0.00047909014 0.00036612985 0.00041711796 0.00011367128 0.0002370599 -8.259222e-05
-0.00033243667 -8.171823e-05 -3.3151682e-05 -0.0002907951 -0.00029546203 0.0004869382 0.00021123058 0.00054297544
0.0005096658 -0.00014315204 9.35615e-05 0.000366844 -0.0003740874 -0.000111320835 -0.00019182832 -0.00024312582
-0.00015761585 0.00064255216 -0.00023722762 -0.0005697693 0.00075984077 -0.00077817566 0.00043832173 0.00058208994
0.00017490562 0.0010875398 -0.00032635062 0.000969196 0.0004456102 -0.00016133691 -0.0002640979 3.359652e-05
-0.00045170385 -0.00020768453 -0.0003387578 -2.7125336e-05 -0.0004948549 0.00043270714 0.0005270754 -4.9835337e-05
-0.00029811214 0.00019275169 0.00067142706 -1.7209251e-06 0.0005938679 0.00029686856 -0.00055277074 -0.00022226035
-0.00056625647 0.00040253272 -2.6834514e-05 -0.0012216647 -0.00030661636 -0.0007235901 -0.00031455906 -0.00019968757
-3.1795844e-05 -0.00018382384 0.00037602635 -8.761412e-05 -5.6576562e-05 6.283385e-05 0.00043958589 -0.00027935382
0.0003240794 -0.00018453879 0.00016105086 -6.419272e-05 -0.00037140693 -0.0003961391 0.00025460776 -0.0006379062
0.0003697765 -5.2048206e-05 0.00022856567 -0.0003945272
00000000: 038c ebb9 7279 5dba 8df6 6d38 d439 1dba
00000010: 53d7 9fb9 7f6f 033a ddf7 a2b9 c1d5 8e3a
00000020: 4ff6 c839 3224 4639 29e8 b8b9 9dd4 56b9
00000030: c34b ce38 92c4 f6b9 a855 7339 07c3 213a
00000040: 91bf ac39 4281 35ba 642e fbb9 1ef5 bf39
00000050: a0b0 da39 ce62 ee38 4893 7839 5c35 adb8
00000060: e54a aeb9 2460 abb8 590c 0bb8 dc75 98b9
00000070: 3ee8 9ab9 bd4b ff39 c77d 5d39 7756 0e3a
00000080: 189b 053a 151b 16b9 7336 c438 f854 c039
00000090: 2921 c4b9 eb74 e9b8 8625 49b9 97ef 7eb9
000000a0: af45 25b9 f270 283a 4ec0 78b9 925c 15ba
000000b0: 0d30 473a 7cfe 4bba 8cce e539 6597 183a
000000c0: df66 3739 c88b 8e3a 0a1a abb9 a411 7e3a
000000d0: caa0 e939 8c2c 29b9 9f76 8ab9 fde9 0c38
000000e0: aad2 ecb9 e4c5 59b9 4d9b b1b9 378b e3b7
000000f0: 26b9 01ba f8dc e239 6e2b 0a3a 4906 51b8
00000100: ef4b 9cb9 631d 4a39 b502 303a 89fa e6b5
00000110: cdad 1b3a 06a5 9b39 d1e7 10ba 8f0e 69b9
00000120: d470 14ba 070b d339 ae1a e1b7 4420 a0ba
00000130: 5ac1 a0b9 4faf 3dba 67eb a4b9 3963 51b9
00000140: 875c 05b8 d6c0 40b9 6725 c539 79bd b7b8
00000150: 9f4c 6db8 abc5 8338 3878 e639 3c76 92b9
00000160: 33e9 a939 c180 41b9 c3df 2839 349f 86b8
00000170: 65b9 c2b9 e4b0 cfb9 e07c 8539 2939 27ba
00000180: 90de c139 564e 5ab8 21ab 6f39 8bd8 ceb9

fc32.weight f4 [100, 150]
0.046739712 0.021151133 0.060470898 -0.007792204 0.029824235 -0.048685137 0.064655915 -0.020876419
0.08061649 0.0075966027 -0.010804959 -0.0453059 0.023417063 -0.03298366 -0.030836444 0.044079922
-0.06327264 0.09218592 0.055515785 -0.034551844 0.09459696 0.04478079 0.030737644 0.08241514
-0.043074965 -0.030917466 0.057864707 0.010664053 -0.037106637 -0.014572843 -0.025539238 0.03907172
-0.0340996 -0.032557767 0.0054884152 0.09349725 0.019239087 0.0019970303 -0.0147049865 0.0028097306
-0.008836402 0.044274826 0.041479383 -0.030685497 0.016749043 0.041901767 -0.06877399 0.035768535
0.021012068 0.047489606 0.073242225 0.0596871 0.056111563 0.023125738 0.005651315 -0.040805742
0.0765173 -0.073450975 0.02078322 0.11918252 0.031858537 -0.11154849 -0.0045126965 0.006662271
0.01887176 0.04330095 0.0011620376 0.06577161 -0.042839173 0.035645448 0.0483906 0.008840327
0.043942064 0.03291639 0.008551192 0.054668978 -0.03151518 -0.0050382973 0.0057813134 -0.0022984252
-0.002938126 0.025976876 -0.051141627 -0.011322257 -0.014966768 0.059209112 0.052777924 0.021618089
0.034098115 -0.026949186 -0.04919254 -0.009195161 0.043225292 -0.0120465895 0.036270365 0.021290163
0.04389761 0.0828122 0.04720136 -0.0027026583 0.023565615 -0.04584321 -0.026680175 -0.0056858514
0.090353794 0.019311683 0.0065320362 0.10470856 -0.04785129 0.013879726 0.089638874 0.02916445
-0.031494044 -0.020093132 -0.09401998 0.056940418 0.044139408 -0.036643714 0.026321026 0.06891654
-0.047338076 0.039702196 0.06640555 0.0955508 -0.014685815 -0.040841 -0.017875178 0.010447001
0.0034721696 0.06897766 0.061350543 -0.03945017 -0.062626265 0.041917697 0.01339193 0.03033509
0.009082022 -0.040210724 0.06663595 0.091698945 -2.326474e-05 -0.07199491 0.05132226 -0.031384923
-0.026724458 -0.044451375 0.03066927 0.055129092 0.022068815 -0.028974036 -0.012403525 0.045984708
-0.0038347289 -0.0019299571 0.026389403 0.029091934 -0.020712934 -0.009057605 -0.03324894 -0.038139235
-0.029464494 -0.035336833 0.021024916 -0.03095991 -0.015094762 0.038185038 -0.06331082 0.06158214
0.05280215 0.08446861 -0.065070786 0.08758784 -0.010452617 -0.042471364 -0.006017651 -0.07579581
0.043987162 -0.050651953 -0.057927914 -0.120129146 -0.0321374 -0.004336726 -0.052045256 0.03494653
-0.06349188 -0.013221954 -0.029781152 -0.021432256 0.04493834 -0.054664917 0.02871694 0.059322923
-0.02429508 0.0028140417 0.006997363 -0.06542087 -0.09808345 -0.080113284 -0.08080157 0.08961358
0.0054053576 0.028586589 0.06388974 -0.03707403 0.07007075 0.0823094 -0.03517861 -0.10102943
0.05062484 -0.08326766 -0.029538274 -0.06497709 -0.025082704 -0.035686824 0.04025776 -0.036686238
0.021953303 -0.06436455 0.050371677 0.088175036 -0.016086115 0.016737262 -0.048962057 -0.016337968
-0.04937264 0.01364532 -0.026899608 0.009172213 0.004805817 -0.018450137 -0.0331748 -0.07220663
-0.058035437 -0.05674195 -0.024983898 -0.014812629 -0.01285957 -0.035745915 -0.039920494 0.023568729
-0.02749352 -0.08074428 -0.040797077 0.043903902 0.020083068 0.0958677 -0.06554673 -0.0458623
-0.043736152 -0.06356496 -0.032485243 0.03811268 -0.00792356 0.03101784 0.02601173 0.04074277
00000000: 2472 3f3d 2445 ad3c 55b0 773d bf55 ffbb
00000010: f451 f43c 116a 47bd 526a 843d 0605 abbc
00000020: 421a a53d ecec f83b 4807 31bc ae92 39bd
00000030: 24d5 bf3c e019 07bd b69c fcbc 268d 343d
00000040: 1695 81bd f9cb bc3d 8564 633d 3c86 0dbd
00000050: 0dbc c13d 106c 373d 83cd fb3c 45c9 a83d
00000060: 606f 30bd a046 fdbc 8b03 6d3d 48b8 2e3c
00000070: 21fd 17bd efc2 6ebc aa37 d1bc ab09 203d
00000080: 06ac 0bbd 4b5b 05bd 2ad8 b33b 7c7b bf3d
00000090: 4a9b 9d3c 9ce0 023b 2fed 70bc 7523 383b
000000a0: 8ec6 10bc 8559 353d 49e6 293d 2760 fbbc
000000b0: 4a35 893c 30a1 2b3d 61d9 8cbd 0782 123d
000000c0: 8021 ac3c 7684 423d 0500 963d 767a 743d
000000d0: 3dd5 653d 3072 bd3c ab2e b93b ec23 27bd
000000e0: 1ab5 9c3d 776d 96bd 9241 aa3c f715 f43d
000000f0: 197e 023d 8973 e4bd 3edf 93bb 2e4f da3b
00000100: f398 9a3c 565c 313d 834f 983a 44b3 863d
00000110: 2178 2fbd f600 123d 3935 463d 05d7 103c
00000120: 98fc 333d 56d3 063d 4c1a 0c3c 94ec 5f3d
00000130: 1016 01bd 4d18 a5bb 2c71 bd3b 2da1 16bb
00000140: 938d 40bb 75cd d43c e279 51bd fd80 39bc
00000150: 2d37 75bc 4185 723d aa2d 583d 6b18 b13c
00000160: 77aa 0b3d 8ac4 dcbc 1e7e 49bd 4da7 16bc
00000170: 010d 313d 0f5f 45bc 3c90 143d b568 ae3c
00000180: fbcd 333d 7199 a93d 3756 413d 151f 31bb
00000190: ad0c c13c 17c6 3bbd 6290 dabc 6150 babb
000001a0: 690b b93d 8933 9e3c b10a d63b 7171 d63d
000001b0: b7ff 43bd ca67 633c 9694 b73d 49ea ee3c
000001c0: e6ff 00bd 5a9a a4bc 8c8d c0bd 5b3a 693d
000001d0: 86cb 343d b817 16bd 319f d73c 1d24 8d3d
000001e0: 92e5 41bd c59e 223d a2ff 873d 23b0 c33d
000001f0: c69c 70bc e448 27bd f76e 92bc e629 2b3c
00000200: 578d 633b 2944 8d3d b54a 7b3d 8096 21bd
00000210: 3342 80bd e4b1 2b3d d369 5b3c 4b81 f83c
00000220: c3cc 143c 00b4 24bd 6e78 883d a8cc bb3d
00000230: a628 c3b7 1172 93bd 4a37 523d 7a8d 00bd
00000240: 40ed dabc a512 36bd 1f3e fb3c 0bcf 613d
00000250: a9c9 b43c f55a edbc 2838 4bbc 765a 3c3d
00000260: 1350 7bbb 9df6 fcba 972e d83c 3552 ee3c
00000270: 2cae a9bc 5966 14bc 0a30 08bd e337 1cbd
00000280: 865f f1bc 5bbd 10bd 723c ac3c a39f fdbc
00000290: 0550 77bc ea67 1c3d 1aa9 81bd 8e3d 7c3d
000002a0: 1147 583d e1fd ac3d d543 85bd 4161 b33d
000002b0: 7441 2bbc 74f6 2dbd b72f c5bb d53a 9bbd
000002c0: e22b 343d 6c78 4fbd d245 6dbd 4506 f6bd
000002d0: 82a2 03bd 181b 8ebb 682d 55bd 1824 0f3d
000002e0: 0808 82bd e5a0 58bc 9af7 f3bc b392 afbc
000002f0: 4411 383d 52e8 5fbd ca3f eb3c 98fc 723d
00000300: 7a06 c7bc c96b 383b 234a e53b 61fb 85bd
00000310: fadf c8bd 6f12 a4bd 4b7b a5bd 5387 b73d
00000320: 6d1f b13b 6c2e ea3c a0d8 823d f0da 17bd
00000330: 4181 8f3d d591 a83d 7217 10bd 85e8 cebd
00000340: fe5b 4f3d 3c88 aabd 40fa f1bc b512 85bd
00000350: 3e7a cdbc 592c 12bd 52e5 243d 4f44 16bd
00000360: 6ad7 b33c 90d1 83bd 8852 4e3d 1d95 b43d
00000370: 07c7 83bc 951c 893c 708c 48bd 34d7 85bc
00000380: f73a 4abd 9f90 5f3c 915c dcbc 0d47 163c
00000390: 1d7a 9d3b be24 97bc 4de2 07bd 12e1 93bd
000003a0: 91b6 6dbd 3f6a 68bd 08ab ccbc abb0 72bc
000003b0: f2b0 52bc 4f6a 12bd ac83 23bd 3513 c13c
000003c0: 173a e1bc 425d a5bd d61a 27bd 94d4 333d
000003d0: 3f85 a43c 4956 c43d 5d3d 86bd 1bda 3bbd
000003e0: ae24 33bd 592e 82bd 3f0f 05bd 0b1c 1c3d
000003f0: d2d1 01bc 2019 fe3c 8d16 d53c e4e1 263d

fc32.bias f4 [100]
-0.0007546226 -0.0001701193 0.00053541426 0.00025994144 7.3100004e-05 -6.892899e-05 2.7279164e-05 3.052894e-05
-7.6595603e-07 -0.00024338569 0.00070332404 3.558709e-05 0.00010531061 -0.00016888579 0.00032870544 -0.00012953335
0.0015468778 0.00039816112 -0.00016329477 0.00016482252 2.5081476e-05 5.990116e-05 -1.1027911e-05 -0.00010163679
-0.000165753 -0.00037784802 -2.8850936e-05 -2.7492752e-06 -0.00031100173 4.3370164e-05 -0.00016618126 -0.00018014215
-0.00018434098 0.00036187496 0.00019659218 0.0005640992 0.000108824555 -0.00064878416 -9.803936e-05 -0.00012128809
0.00022411461 0.00045345677 -5.8510555e-05 0.0007027682 -0.00027307132 -0.00044700818 0.00017237743 -0.00040951074
0.00025886533 3.4815224e-05 0.0005135263 -0.0011990678 -4.4443295e-05 9.527585e-05 0.0002817376 0.0007830414
-0.00019878062 2.9592597e-05 -0.0002025708 -0.00019505135 -0.0009093217 7.4620575e-06 0.00027076664 0.00065228314
0.00013152229 0.0001842942 -4.7157686e-05 0.00035828075 -0.00035586444 0.00023557527 0.00036104443 9.4969815e-05
0.000110034794 -0.00023057267 -4.903986e-05 -2.0607462e-05 -0.00016283974 0.00028235532 0.0004440639 -0.0001268618
-0.0004312737 -1.655339e-05 -0.00022527075 0.00037718395 0.00035244733 -0.00016716741 -0.0004886193 -0.00023148261
-9.63619e-05 -0.0009697811 -0.00070675166 -0.00049529725 -0.00012064073 -0.0004321759 7.30648e-05 -0.00064072845
-0.00020132081 0.00066685537 0.00026410818 0.00018691689
00000000: ded1 45ba 0d62 32b9 0b5b 0c3a c048 8839
00000010: 444d 9938 f88d 90b8 8fd5 e437 330c 0038
00000020: 199c 4db5 5935 7fb9 475f 383a 5943 1538
00000030: 34da dc38 ef16 31b9 1956 ac39 58d3 07b9
00000040: 9bc0 ca3a 48c0 d039 1b3a 2bb9 35d4 2c39
00000050: 0f66 d237 613e 7b38 8404 39b7 d625 d5b8
00000060: fbcd 2db9 e719 c6b9 ea04 f2b7 3080 38b6
00000070: f20d a3b9 5ce8 3538 f140 2eb9 8ae4 3cb9
00000080: a84b 41b9 09ba bd39 5024 4e39 0ee0 133a
00000090: bd38 e438 2b13 2aba 7b9a cdb8 0c5c feb8
000000a0: 4f00 6b39 f0bd ed39 3b69 75b8 fa39 383a
000000b0: 032b 8fb9 6c5c eab9 37c0 3439 9ab3 d6b9
000000c0: 51b8 8739 9006 1238 2b9e 063a 0a2a 9dba
000000d0: a068 3ab8 d5ce c738 2eb6 9339 0545 4d3a
000000e0: c46f 50b9 9e3d f837 2f69 54b9 b386 4cb9
000000f0: 8c5f 6eba 9662 fa36 aff5 8d39 fbfd 2a3a
00000100: 3fe9 0939 193f 4139 2ecb 45b8 a1d7 bb39
00000110: 5193 bab9 c104 7739 904a bd39 882a c738
00000120: 7bc2 e638 e1c5 71b9 26b0 4db8 30de acb7
00000130: f6bf 2ab9 1709 9439 3fd1 e839 3506 05b9
00000140: 931c e2b9 22dc 8ab7 a836 6cb9 c6c0 c539
00000150: aec8 b839 a949 2fb9 b016 00ba 24ba 72b9
00000160: e715 cab8 e838 7eba 4d45 39ba d6d6 01ba
00000170: 8000 fdb8 ab95 e2b9 5e3a 9938 8ff6 27ba
00000180: a519 53b9 e8cf 2e3a 0078 8a39 1fff 4339

fc4.weight f4 [150, 100]
0.36560625 0.20645243 0.08264962 0.121540554 -0.08227223 0.2290615 0.28352693 -0.0034080157
-0.10656635 -0.3310968 0.07074981 0.3071208 -0.30991906 0.10068286 0.30428874 -0.03815787
-0.07934424 -0.012282635 0.03240056 -0.37003708 -0.025270214 -0.19590598 -0.027004115 0.06992598
0.028136954 -0.36782652 0.4462336 -0.21060856 -0.06355273 0.0037918654 -0.43239295 -0.1770454
-0.09804288 0.27477145 -0.30689004 0.32216826 -0.089951 -0.21703337 -0.3217559 -0.28889528
0.10400067 -0.03148237 0.22684956 -0.3389356 0.008072962 0.1534554 0.32137063 -0.011843954
-0.285029 -0.095948465 -0.07921212 -0.13709888 -0.015065335 0.057074342 0.07976768 0.20499495
0.01861704 0.29118016 -0.40641832 0.1271139 -0.09090527 -0.027406752 0.20717944 -0.4684408
0.22922963 -0.057391196 0.018032493 0.16631928 0.120851904 -0.36381382 -0.25675914 0.29292846
0.22179443 -0.2212036 0.086572126 -0.080883496 0.5031187 -0.028153788 0.0028569377 -0.04119154
0.22222798 -0.15055667 0.17783514 -0.23806441 -0.45348105 -0.017612945 -0.100538716 -0.15794219
0.24368663 -0.003238699 0.14396231 0.45120257 0.057946935 0.21006039 -0.28350872 -0.1730003
-0.048881132 -0.39311603 0.18567024 -0.28954667 -0.10800869 0.16090287 -0.15037245 0.13404994
-0.2867 0.07345829 -0.11711954 -0.06998877 0.2520436 -0.0059304317 -0.15972362 0.33487812
-0.006631374 0.80038655 0.28265965 0.015003928 0.40041965 -0.041630253 0.27908233 0.3135048
0.28496334 -0.28092453 0.07529801 -0.18983808 0.52650416 0.14554262 -0.07108234 -0.24579634
0.08253314 0.24198513 -0.29596654 0.04711065 0.25528485 0.10674405 0.23330787 -0.036876757
0.17304382 -0.47212622 0.15640377 0.3115128 0.14923383 -0.18329224 0.044079974 0.28854525
-0.26530427 0.0014086125 -0.013089362 -0.36851397 -0.33858436 -0.13530523 -0.2510348 0.19914396
-0.7722899 0.5950982 -0.20063078 -0.13342051 -0.22969995 -0.01741349 0.0954103 0.28253323
-0.08147696 -0.08459095 0.784057 -0.31753898 0.09789793 -0.6269738 -0.13404745 -0.22202776
-0.13089165 0.29026598 0.08841051 0.41895458 0.8604615 0.11088769 -0.005370481 0.08160879
0.06399439 0.15493888 0.16567281 0.5934706 0.08834565 -0.1106515 0.38679656 -0.20074461
0.15766747 -0.10696395 -0.27638614 -0.1234308 0.34340775 -0.30540287 0.013693271 -0.33615813
0.19226792 -0.09615275 0.580593 0.2754886 0.11419834 0.38934857 -0.23486358 -0.046168905
0.50374883 0.35497934 0.4892696 0.20578457 0.03664404 -0.23474945 0.15935928 0.2166956
-0.09978861 0.24883759 -0.16124943 -0.06593291 0.3728916 0.52886873 -0.043174595 -0.5137549
0.5893831 -0.2369841 0.5662127 -0.061252326 0.14233436 0.25388825 0.08775612 -0.14727524
0.015388535 -0.036594328 -0.12519084 0.48594835 -0.012938253 0.1536202 0.32983762 -0.009193805
-0.21628213 -0.059833307 0.36928326 0.27261305 0.09481058 0.036059484 -0.26146692 0.1063846
0.043675333 -0.3693858 -0.3019357 -0.34748644 -0.027034137 -0.059668727 -0.25532863 0.057069067
0.33153796 0.28843904 0.19318648 -0.523215 -0.15905721 0.4102642 0.091044016 -0.23700437
00000000: be30 bb3e 4468 533e 3444 a93d 41ea f83d
00000010: 587e a8bd 198f 6a3e 712a 913e 0459 5fbb
00000020: 753f dabd 8585 a9be 47e5 903d f03e 9d3e
00000030: b6ad 9ebe d132 ce3d bccb 9b3e 6d4b 1cbd
00000040: 3c7f a2bd 1b3d 49bc 73b6 043d 8075 bdbe
00000050: 7b03 cfbc 949b 48be bc37 ddbc 5a35 8f3d
00000060: 787f e63c c253 bcbe bb78 e43e c5a9 57be
00000070: ef27 82bd f280 783b 9c62 ddbe 644b 35be
00000080: b5ca c8bd d8ae 8c3e b120 9dbe 3df3 a43e
00000090: 3b38 b8bd ff3d 5ebe 30bd a4be 15ea 93be
000000a0: 4efe d43d a8f3 00bd 404b 683e f888 adbe
000000b0: 7544 043c 6a23 1d3e b18a a43e 250d 42bc
000000c0: 52ef 91be a180 c4bd f739 a2bd a663 0cbe
000000d0: 98d4 76bc c9c6 693d 3d5d a33d 32ea 513e
000000e0: c382 983c 9115 953e 1016 d0be 252a 023e
000000f0: 8b2c babd 2084 e0bc d926 543e 79d7 efbe
00000100: 2cbb 6a3e 0813 6bbd e1b8 933c 9a4f 2a3e
00000110: 3481 f73d ce45 babe ef75 83be b8fa 953e
00000120: 141e 633e 3283 62be ba4c b13d 3fa6 a5bd
00000130: 63cc 003f c6a2 e6bc 763b 3b3b 76b8 28bd
00000140: bb8f 633e 872b 1abe 6a1a 363e 28c7 73be
00000150: ab2e e8be 0649 90bc 3ee7 cdbd 99bb 21be
00000160: fd88 793e 5a40 54bb db6a 133e 0604 e73e
00000170: c459 6d3d 121a 573e 0e28 91be fe26 31be
00000180: 9537 48bd 8146 c9be 5720 3e3e 763f 94be
00000190: a933 ddbd b9c3 243e 3cfb 19be 6344 093e
000001a0: 58ca 92be 4d71 963d 5fdc efbd 4656 8fbd
000001b0: dc0b 813e 1154 c2bb 978e 23be 2575 ab3e
000001c0: ff4b d9bb 22e6 4c3f c4b8 903e 09d3 753c
000001d0: ce03 cd3e 7c84 2abd e1e3 8e3e b383 a03e
000001e0: b7e6 913e 57d5 8fbe d835 9a3d ea64 42be
000001f0: fac8 063f 2009 153e 9e93 91bd 09b2 7bbe
00000200: 2307 a93d f3ca 773e ed88 97be 19f7 403d
00000210: b2b4 823e a09c da3d 42e8 6e3e 150c 17bd
00000220: 6632 313e 87ba f1be 4f28 203e 9b7e 9f3e
00000230: c1d0 183e f6b0 3bbe 348d 343d 34bc 933e
00000240: f6d5 87be 31a1 b83a c374 56bc ddad bcbe
00000250: ee5a adbe 748d 0abe a287 80be 65ec 4b3e
00000260: cab4 45bf 5b58 183f 2872 4dbe 639f 08be
00000270: 7736 6bbe bca6 8ebc 7a66 c33d 32a8 903e
00000280: 64dd a6bd 053e adbd f6b7 483f 7894 a2be
00000290: b67e c83d 5b81 20bf bc43 09be 3f5b 63be
000002a0: 7608 06be be9d 943e 9210 b53d 3781 d63e
000002b0: 3447 5c3f 1619 e33d dcfa afbb 8222 a73d
000002c0: 7e0f 833d 4ca8 1e3e 22a6 293e b0ed 173f
000002d0: 90ee b43d 419d e2bd 330a c63e ff8f 4dbe
000002e0: 9573 213e ea0f dbbd 7c82 8dbe 4ac9 fcbd
000002f0: 24d3 af3e c45d 9cbe be59 603c eb1c acbe
00000300: e2e1 443e bceb c4bd bea1 143f d70c 8d3e
00000310: d2e0 e93d b258 c73e 1480 70be 9b1b 3dbd
00000320: aff5 003f dabf b53e 8c81 fa3e 31b9 523e
00000330: 1018 163d 2962 70be 142f 233e 74e5 5d3e
00000340: f95d ccbd 48cf 7e3e 921e 25be d507 87bd
00000350: a6eb be3e f163 073f d8d7 30bd 7185 03bf
00000360: d0e1 163f f6ab 72be 51f3 103f b8e3 7abd
00000370: 19c0 113e a4fd 813e 7bb9 b33d 52cf 16be
00000380: 3220 7c3c efe3 15bd 0732 00be 39ce f83e
00000390: f7fa 53bc 9d4e 1d3e 7ae0 a83e 9da1 16bc
000003a0: 1079 5dbe c513 75bd b212 bd3e f093 8b3e
000003b0: 0d2c c23d 1cb3 133d fede 85be 2be0 d93d
000003c0: e8e4 323d 2320 bdbe 5197 9abe bee9 b1be
000003d0: b276 ddbc 3267 74bd 6fba 82be 41c1 693d
000003e0: 58bf a93e 48ae 933e add2 453e 6bf1 05bf
000003f0: e5df 22be 260e d23e 4975 ba3d 46b1 72be

fc4.bias f4 [150]
-1.7479917 -0.22064187 -0.88112926 -1.0542537 -1.4982048 -0.6382475 -1.3070792 -1.5004352
-0.93059695 0.023034297 -1.677134 -0.73957616 -1.3562874 -0.7734207 -1.2336352 -1.4204255
-1.5569857 -1.504249 -1.0794873 -1.001058 -1.146526 -0.7769394 -0.6425558 -1.7811542
-0.7593855 -1.306026 -1.0089658 -0.9511432 -1.1428947 -1.0528133 -0.703376 -1.4449351
-0.636257 -0.47812057 -1.5474308 -0.9086863 -0.39978218 -0.8892862 -1.8080763 -1.4253135
-0.90745705 -1.137114 -1.532872 -1.4929959 -0.70673376 -1.367019 -1.5141555 -1.0655531
-0.56846887 -1.1352584 -0.39849707 -1.1231253 -0.51294583 -1.1805346 -1.2961901 -0.6582404
-1.0620066 -0.5260223 -1.1684549 -1.0507873 -1.1669613 -0.74946725 -0.85728097 -1.1937039
-0.609115 -0.95743805 -0.5605178 -1.059481 -0.7985569 -1.0392102 -0.66538656 -0.64956254
-1.0914098 -1.1126661 -0.94431907 -0.9864924 -1.3028507 -1.020017 -0.75685334 -0.55913293
-0.8594584 -0.8989394 -1.3198739 -0.71568835 -1.178723 -0.9698308 -0.7736866 -0.9635465
-1.0744174 -0.8894186 -0.99934083 -1.6243461 -1.423875 -0.88094866 -0.94098413 -0.5850118
-0.8316155 -1.1143521 -0.37830454 -0.9704471 -0.79694915 -0.8529731 -1.0315335 -1.3421056
-1.3440888 -0.24964271 -0.82451826 -1.1747853 -0.9512475 -0.34133378 -0.7208015 -0.74668527
-0.8088456 -0.48702627 -1.257969 -0.51518226 -1.1992185 -0.7167217 -0.92945546 -0.86605555
-1.7253537 -0.3989699 -1.2880849 -0.9266222 -0.21507995 -0.6619607 -0.9961784 -1.0807772
-1.77894 -0.74834263 -1.3268201 -0.36747214 -1.2928159 -1.1037097 -0.55770653 -0.7040215
-1.0767566 -1.4291241 -1.1299411 -0.9964191 -1.3028369 -0.708657 -1.1291178 -1.6078604
-1.3151907 -1.292445 -0.35732108 -0.61907977 -1.1752787 -1.2147089
00000000: 31be dfbf f1ef 61be b091 61bf c9f1 86bf
00000010: 2dc5 bfbf 3064 23bf 5f4e a7bf 430e c0bf
00000020: 9a3b 6ebf 6cb2 bc3c 54ac d6bf dd54 3dbf
00000030: d39a adbf e6fe 45bf c2e7 9dbf 81d0 b5bf
00000040: 4f4b c7bf 3b8b c0bf a42c 8abf ab22 80bf
00000050: 5dc1 92bf 80e5 46bf 897e 24bf dcfc e3bf
00000060: 1767 42bf dc2b a7bf cb25 81bf 1f7e 73bf
00000070: 604a 92bf 96c2 86bf 7310 34bf a2f3 b8bf
00000080: bde1 22bf 38cc f4be 3612 c6bf aa9f 68bf
00000090: 40b0 ccbe 43a8 63bf 0b6f e7bf ac70 b6bf
000000a0: 1b4f 68bf f48c 91bf 2635 c4bf 7d1a bfbf
000000b0: 81ec 34bf 7bfa aebf d9cf c1bf 0b64 88bf
000000c0: 2d87 11bf 2650 91bf cf07 ccbe 92c2 8fbf
000000d0: 6b50 03bf c21b 97bf 8fe9 a5bf 7182 28bf
000000e0: d5ef 87bf 66a9 06bf ee8f 95bf 3380 86bf
000000f0: fd5e 95bf 16dd 3fbf c476 5bbf 4acb 98bf
00000100: f6ee 1bbf a91a 75bf 187e 0fbf 139d 87bf
00000110: 3a6e 4cbf d704 85bf c656 2abf bb49 26bf
00000120: 51b3 8bbf d86b 8ebf e5be 71bf c48a 7cbf
00000130: d0c3 a6bf eb8f 82bf 24c1 41bf 5623 0fbf
00000140: 7705 5cbf e420 66bf a1f1 a8bf 5a37 37bf
00000150: 65e0 96bf d546 78bf 5310 46bf fcaa 76bf
00000160: 8286 89bf f0b0 63bf cdd4 7fbf 93ea cfbf
00000170: 8941 b6bf da85 61bf 56e4 70bf 55c3 15bf
00000180: c1e4 54bf 17a3 8ebf 22b1 c1be 396f 78bf
00000190: dc04 4cbf 725c 5abf 4a09 84bf 1eca abbf
000001a0: 1a0b acbf 57a2 7fbe a113 53bf 5d5f 96bf
000001b0: f584 73bf 4dc3 aebe 7286 38bf c426 3fbf
000001c0: 8110 4fbf 825b f9be 2105 a1bf fce2 03bf
000001d0: fe7f 99bf 137b 37bf cbf0 6dbf d1b5 5dbf
000001e0: 64d8 dcbf c845 ccbe f7df a4bf 1d37 6dbf
000001f0: eb3d 5cbe 4276 29bf 8c05 7fbf e856 8abf
00000200: 4eb4 e3bf 6293 3fbf 3ed5 a9bf 4f25 bcbe
00000210: fe7a a5bf 5c46 8dbf dbc5 0ebf c13a 34bf
00000220: 29d3 89bf 8aed b6bf e9a1 90bf 5215 7fbf
00000230: 5cc3 a6bf 8c6a 35bf ef86 90bf 5fce cdbf
00000240: 2b58 a8bf d66e a5bf caf2 b6be 037c 1ebf
00000250: 886f 96bf 957b 9bbf
